sphere20(
  (conv1_1): Conv2d(1, 64, kernel_size=(3, 3), stride=(2, 2), padding=(1, 1))
  (relu1_1): PReLU(num_parameters=64)
  (conv1_2): Conv2d(64, 64, kernel_size=(3, 3), stride=(1, 1), padding=(1, 1))
  (relu1_2): PReLU(num_parameters=64)
  (conv1_3): Conv2d(64, 64, kernel_size=(3, 3), stride=(1, 1), padding=(1, 1))
  (relu1_3): PReLU(num_parameters=64)
  (conv2_1): Conv2d(64, 128, kernel_size=(3, 3), stride=(2, 2), padding=(1, 1))
  (relu2_1): PReLU(num_parameters=128)
  (conv2_2): Conv2d(128, 128, kernel_size=(3, 3), stride=(1, 1), padding=(1, 1))
  (relu2_2): PReLU(num_parameters=128)
  (conv2_3): Conv2d(128, 128, kernel_size=(3, 3), stride=(1, 1), padding=(1, 1))
  (relu2_3): PReLU(num_parameters=128)
  (conv2_4): Conv2d(128, 128, kernel_size=(3, 3), stride=(1, 1), padding=(1, 1))
  (relu2_4): PReLU(num_parameters=128)
  (conv2_5): Conv2d(128, 128, kernel_size=(3, 3), stride=(1, 1), padding=(1, 1))
  (relu2_5): PReLU(num_parameters=128)
  (conv3_1): Conv2d(128, 256, kernel_size=(3, 3), stride=(2, 2), padding=(1, 1))
  (relu3_1): PReLU(num_parameters=256)
  (conv3_2): Conv2d(256, 256, kernel_size=(3, 3), stride=(1, 1), padding=(1, 1))
  (relu3_2): PReLU(num_parameters=256)
  (conv3_3): Conv2d(256, 256, kernel_size=(3, 3), stride=(1, 1), padding=(1, 1))
  (relu3_3): PReLU(num_parameters=256)
  (conv3_4): Conv2d(256, 256, kernel_size=(3, 3), stride=(1, 1), padding=(1, 1))
  (relu3_4): PReLU(num_parameters=256)
  (conv3_5): Conv2d(256, 256, kernel_size=(3, 3), stride=(1, 1), padding=(1, 1))
  (relu3_5): PReLU(num_parameters=256)
  (conv3_6): Conv2d(256, 256, kernel_size=(3, 3), stride=(1, 1), padding=(1, 1))
  (relu3_6): PReLU(num_parameters=256)
  (conv3_7): Conv2d(256, 256, kernel_size=(3, 3), stride=(1, 1), padding=(1, 1))
  (relu3_7): PReLU(num_parameters=256)
  (conv3_8): Conv2d(256, 256, kernel_size=(3, 3), stride=(1, 1), padding=(1, 1))
  (relu3_8): PReLU(num_parameters=256)
  (conv3_9): Conv2d(256, 256, kernel_size=(3, 3), stride=(1, 1), padding=(1, 1))
  (relu3_9): PReLU(num_parameters=256)
  (conv4_1): Conv2d(256, 512, kernel_size=(3, 3), stride=(2, 2), padding=(1, 1))
  (relu4_1): PReLU(num_parameters=512)
  (conv4_2): Conv2d(512, 512, kernel_size=(3, 3), stride=(1, 1), padding=(1, 1))
  (relu4_2): PReLU(num_parameters=512)
  (conv4_3): Conv2d(512, 512, kernel_size=(3, 3), stride=(1, 1), padding=(1, 1))
  (relu4_3): PReLU(num_parameters=512)
  (fc5): Linear(in_features=32768, out_features=512, bias=True)
  (fc6): Linear(in_features=512, out_features=10572, bias=True)
)
webface_256x256_list/train.txt
webface_256x256_list/val.txt
Epoch: [0][0/1879]	Time 14.764 (14.764)	Data 0.570 (0.570)	Loss 9.2670 (9.2670)	Prec@1 0.000 (0.000)	Prec@5 0.000 (0.000)
Epoch: [0][100/1879]	Time 0.277 (0.406)	Data 0.001 (0.006)	Loss 8.9724 (9.0604)	Prec@1 0.000 (0.135)	Prec@5 1.172 (0.576)
Epoch: [0][200/1879]	Time 0.285 (0.333)	Data 0.001 (0.004)	Loss 8.9385 (8.9871)	Prec@1 0.000 (0.126)	Prec@5 0.000 (0.604)
…
