…
I0809 17:22:57.311293 22897 net.cpp:322] The NetState phase (0) differed from the phase (1) specified by a rule in layer data
I0809 17:22:57.311970 22897 net.cpp:58] Initializing net from parameters: 
state {
  phase: TRAIN
  level: 0
  stage: ""
}
layer {
  name: "data"
  type: "Data"
  top: "data"
  top: "label"
  include {
    phase: TRAIN
  }
  transform_param {
    scale: 0.0078125
    mirror: true
    mean_value: 127.5
    mean_value: 127.5
    mean_value: 127.5
  }
  data_param {
    source: "/data/zeng/MsCeleb_256x256_train_lmdb"
    batch_size: 64
    backend: LMDB
  }
}
layer {
  name: "conv1"
  type: "Convolution"
  bottom: "data"
  top: "conv1"
  param {
    lr_mult: 1
    decay_mult: 1
  }
  param {
    lr_mult: 1
    decay_mult: 0
  }
  convolution_param {
    num_output: 24
    pad: 3
    kernel_size: 8
    group: 1
    stride: 2
    weight_filler {
      type: "msra"
      std: 0.01
    }
    bias_filler {
      type: "constant"
      value: 0
    }
  }
}
layer {
  name: "conv1_relu"
  type: "ReLU"
  bottom: "conv1"
  top: "conv1"
}
layer {
  name: "pool1"
  type: "Pooling"
  bottom: "conv1"
  top: "pool1"
  pooling_param {
    pool: MAX
    kernel_size: 3
    stride: 2
  }
}
layer {
  name: "block2_s2_pool"
  type: "Pooling"
  bottom: "pool1"
  top: "block2_s2_pool"
  pooling_param {
    pool: MAX
    kernel_size: 3
    stride: 2
  }
}
layer {
  name: "block2_s2_conv1"
  type: "Convolution"
  bottom: "pool1"
  top: "block2_s2_conv1"
  param {
    lr_mult: 1
    decay_mult: 1
  }
  param {
    lr_mult: 1
    decay_mult: 0
  }
  convolution_param {
    num_output: 62
    pad: 0
    kernel_size: 1
    group: 2
    stride: 1
    weight_filler {
      type: "gaussian"
      std: 0.01
    }
    bias_filler {
      type: "constant"
      value: 0
    }
  }
}
layer {
  name: "block2_s2_conv1_ReLU"
  type: "ReLU"
  bottom: "block2_s2_conv1"
  top: "block2_s2_conv1"
}
layer {
  name: "shuffle_block2_s2"
  type: "ShuffleChannel"
  bottom: "block2_s2_conv1"
  top: "shuffle_block2_s2"
  shuffle_channel_param {
    group: 2
  }
}
layer {
  name: "block2_s2_conv2"
  type: "ConvolutionDepthwise"
  bottom: "shuffle_block2_s2"
  top: "block2_s2_conv2"
  param {
    lr_mult: 1
    decay_mult: 1
  }
  param {
    lr_mult: 1
    decay_mult: 0
  }
  convolution_param {
    num_output: 62
    pad: 1
    kernel_size: 3
    stride: 2
    weight_filler {
      type: "gaussian"
      std: 0.01
    }
    bias_filler {
      type: "constant"
      value: 0
    }
  }
}
layer {
  name: "block2_s2_conv2_ReLU"
  type: "ReLU"
  bottom: "block2_s2_conv2"
  top: "block2_s2_conv2"
}
layer {
  name: "block2_s2_conv3"
  type: "Convolution"
  bottom: "block2_s2_conv2"
  top: "block2_s2_conv3"
  param {
    lr_mult: 1
    decay_mult: 1
  }
  param {
    lr_mult: 1
    decay_mult: 0
  }
  convolution_param {
    num_output: 248
    pad: 0
    kernel_size: 1
    group: 2
    stride: 1
    weight_filler {
      type: "gaussian"
      std: 0.01
    }
    bias_filler {
      type: "constant"
      value: 0
    }
  }
}
layer {
  name: "block2_s2_concat"
  type: "Concat"
  bottom: "block2_s2_pool"
  bottom: "block2_s2_conv3"
  top: "block2_s2_concat"
}
layer {
  name: "block2_s2_concat_ReLU"
  type: "ReLU"
  bottom: "block2_s2_concat"
  top: "block2_s2_concat"
}
layer {
  name: "block2_s1_1_conv1"
  type: "Convolution"
  bottom: "block2_s2_concat"
  top: "block2_s1_1_conv1"
  param {
    lr_mult: 1
    decay_mult: 1
  }
  param {
    lr_mult: 1
    decay_mult: 0
  }
  convolution_param {
    num_output: 68
    pad: 0
    kernel_size: 1
    group: 4
    stride: 1
    weight_filler {
      type: "gaussian"
      std: 0.01
    }
    bias_filler {
      type: "constant"
      value: 0
    }
  }
}
layer {
  name: "block2_s1_1_conv1_ReLU"
  type: "ReLU"
  bottom: "block2_s1_1_conv1"
  top: "block2_s1_1_conv1"
}
layer {
  name: "shuffle_block2_s1_1"
  type: "ShuffleChannel"
  bottom: "block2_s1_1_conv1"
  top: "shuffle_block2_s1_1"
  shuffle_channel_param {
    group: 4
  }
}
layer {
  name: "block2_s1_1_conv2"
  type: "ConvolutionDepthwise"
  bottom: "shuffle_block2_s1_1"
  top: "block2_s1_1_conv2"
  param {
    lr_mult: 1
    decay_mult: 1
  }
  param {
    lr_mult: 1
    decay_mult: 0
  }
  convolution_param {
    num_output: 68
    pad: 1
    kernel_size: 3
    stride: 1
    weight_filler {
      type: "gaussian"
      std: 0.01
    }
    bias_filler {
      type: "constant"
      value: 0
    }
  }
}
layer {
  name: "block2_s1_1_conv2_ReLU"
  type: "ReLU"
  bottom: "block2_s1_1_conv2"
  top: "block2_s1_1_conv2"
}
layer {
  name: "block2_s1_1_conv3"
  type: "Convolution"
  bottom: "block2_s1_1_conv2"
  top: "block2_s1_1_conv3"
  param {
    lr_mult: 1
    decay_mult: 1
  }
  param {
    lr_mult: 1
    decay_mult: 0
  }
  convolution_param {
    num_output: 272
    pad: 0
    kernel_size: 1
    group: 4
    stride: 1
    weight_filler {
      type: "gaussian"
      std: 0.01
    }
    bias_filler {
      type: "constant"
      value: 0
    }
  }
}
layer {
  name: "block2_s1_1_eltwise"
  type: "Eltwise"
  bottom: "block2_s2_concat"
  bottom: "block2_s1_1_conv3"
  top: "block2_s1_1_eltwise"
  eltwise_param {
    operation: SUM
  }
}
layer {
  name: "block2_s1_1_eltwise_ReLU"
  type: "ReLU"
  bottom: "block2_s1_1_eltwise"
  top: "block2_s1_1_eltwise"
}
layer {
  name: "block2_s1_2_conv1"
  type: "Convolution"
  bottom: "block2_s1_1_eltwise"
  top: "block2_s1_2_conv1"
  param {
    lr_mult: 1
    decay_mult: 1
  }
  param {
    lr_mult: 1
    decay_mult: 0
  }
  convolution_param {
    num_output: 68
    pad: 0
    kernel_size: 1
    group: 4
    stride: 1
    weight_filler {
      type: "gaussian"
      std: 0.01
    }
    bias_filler {
      type: "constant"
      value: 0
    }
  }
}
layer {
  name: "block2_s1_2_conv1_ReLU"
  type: "ReLU"
  bottom: "block2_s1_2_conv1"
  top: "block2_s1_2_conv1"
}
layer {
  name: "shuffle_block2_s1_2"
  type: "ShuffleChannel"
  bottom: "block2_s1_2_conv1"
  top: "shuffle_block2_s1_2"
  shuffle_channel_param {
    group: 4
  }
}
layer {
  name: "block2_s1_2_conv2"
  type: "ConvolutionDepthwise"
  bottom: "shuffle_block2_s1_2"
  top: "block2_s1_2_conv2"
  param {
    lr_mult: 1
    decay_mult: 1
  }
  param {
    lr_mult: 1
    decay_mult: 0
  }
  convolution_param {
    num_output: 68
    pad: 1
    kernel_size: 3
    stride: 1
    weight_filler {
      type: "gaussian"
      std: 0.01
    }
    bias_filler {
      type: "constant"
      value: 0
    }
  }
}
layer {
  name: "block2_s1_2_conv2_ReLU"
  type: "ReLU"
  bottom: "block2_s1_2_conv2"
  top: "block2_s1_2_conv2"
}
layer {
  name: "block2_s1_2_conv3"
  type: "Convolution"
  bottom: "block2_s1_2_conv2"
  top: "block2_s1_2_conv3"
  param {
    lr_mult: 1
    decay_mult: 1
  }
  param {
    lr_mult: 1
    decay_mult: 0
  }
  convolution_param {
    num_output: 272
    pad: 0
    kernel_size: 1
    group: 4
    stride: 1
    weight_filler {
      type: "gaussian"
      std: 0.01
    }
    bias_filler {
      type: "constant"
      value: 0
    }
  }
}
layer {
  name: "block2_s1_2_eltwise"
  type: "Eltwise"
  bottom: "block2_s1_1_eltwise"
  bottom: "block2_s1_2_conv3"
  top: "block2_s1_2_eltwise"
  eltwise_param {
    operation: SUM
  }
}
layer {
  name: "block2_s1_2_eltwise_ReLU"
  type: "ReLU"
  bottom: "block2_s1_2_eltwise"
  top: "block2_s1_2_eltwise"
}
layer {
  name: "block2_s1_3_conv1"
  type: "Convolution"
  bottom: "block2_s1_2_eltwise"
  top: "block2_s1_3_conv1"
  param {
    lr_mult: 1
    decay_mult: 1
  }
  param {
    lr_mult: 1
    decay_mult: 0
  }
  convolution_param {
    num_output: 68
    pad: 0
    kernel_size: 1
    group: 4
    stride: 1
    weight_filler {
      type: "gaussian"
      std: 0.01
    }
    bias_filler {
      type: "constant"
      value: 0
    }
  }
}
layer {
  name: "block2_s1_3_conv1_ReLU"
  type: "ReLU"
  bottom: "block2_s1_3_conv1"
  top: "block2_s1_3_conv1"
}
layer {
  name: "shuffle_block2_s1_3"
  type: "ShuffleChannel"
  bottom: "block2_s1_3_conv1"
  top: "shuffle_block2_s1_3"
  shuffle_channel_param {
    group: 4
  }
}
layer {
  name: "block2_s1_3_conv2"
  type: "ConvolutionDepthwise"
  bottom: "shuffle_block2_s1_3"
  top: "block2_s1_3_conv2"
  param {
    lr_mult: 1
    decay_mult: 1
  }
  param {
    lr_mult: 1
    decay_mult: 0
  }
  convolution_param {
    num_output: 68
    pad: 1
    kernel_size: 3
    stride: 1
    weight_filler {
      type: "gaussian"
      std: 0.01
    }
    bias_filler {
      type: "constant"
      value: 0
    }
  }
}
layer {
  name: "block2_s1_3_conv2_ReLU"
  type: "ReLU"
  bottom: "block2_s1_3_conv2"
  top: "block2_s1_3_conv2"
}
layer {
  name: "block2_s1_3_conv3"
  type: "Convolution"
  bottom: "block2_s1_3_conv2"
  top: "block2_s1_3_conv3"
  param {
    lr_mult: 1
    decay_mult: 1
  }
  param {
    lr_mult: 1
    decay_mult: 0
  }
  convolution_param {
    num_output: 272
    pad: 0
    kernel_size: 1
    group: 4
    stride: 1
    weight_filler {
      type: "gaussian"
      std: 0.01
    }
    bias_filler {
      type: "constant"
      value: 0
    }
  }
}
layer {
  name: "block2_s1_3_eltwise"
  type: "Eltwise"
  bottom: "block2_s1_2_eltwise"
  bottom: "block2_s1_3_conv3"
  top: "block2_s1_3_eltwise"
  eltwise_param {
    operation: SUM
  }
}
layer {
  name: "block2_s1_3_eltwise_ReLU"
  type: "ReLU"
  bottom: "block2_s1_3_eltwise"
  top: "block2_s1_3_eltwise"
}
layer {
  name: "block3_s2_pool"
  type: "Pooling"
  bottom: "block2_s1_3_eltwise"
  top: "block3_s2_pool"
  pooling_param {
    pool: MAX
    kernel_size: 3
    stride: 2
  }
}
layer {
  name: "block3_s2_conv1"
  type: "Convolution"
  bottom: "block2_s1_3_eltwise"
  top: "block3_s2_conv1"
  param {
    lr_mult: 1
    decay_mult: 1
  }
  param {
    lr_mult: 1
    decay_mult: 0
  }
  convolution_param {
    num_output: 68
    pad: 0
    kernel_size: 1
    group: 4
    stride: 1
    weight_filler {
      type: "gaussian"
      std: 0.01
    }
    bias_filler {
      type: "constant"
      value: 0
    }
  }
}
layer {
  name: "block3_s2_conv1_ReLU"
  type: "ReLU"
  bottom: "block3_s2_conv1"
  top: "block3_s2_conv1"
}
layer {
  name: "shuffle_block3_s2"
  type: "ShuffleChannel"
  bottom: "block3_s2_conv1"
  top: "shuffle_block3_s2"
  shuffle_channel_param {
    group: 4
  }
}
layer {
  name: "block3_s2_conv2"
  type: "ConvolutionDepthwise"
  bottom: "shuffle_block3_s2"
  top: "block3_s2_conv2"
  param {
    lr_mult: 1
    decay_mult: 1
  }
  param {
    lr_mult: 1
    decay_mult: 0
  }
  convolution_param {
    num_output: 68
    pad: 1
    kernel_size: 3
    stride: 2
    weight_filler {
      type: "gaussian"
      std: 0.01
    }
    bias_filler {
      type: "constant"
      value: 0
    }
  }
}
layer {
  name: "block3_s2_conv2_ReLU"
  type: "ReLU"
  bottom: "block3_s2_conv2"
  top: "block3_s2_conv2"
}
layer {
  name: "block3_s2_conv3"
  type: "Convolution"
  bottom: "block3_s2_conv2"
  top: "block3_s2_conv3"
  param {
    lr_mult: 1
    decay_mult: 1
  }
  param {
    lr_mult: 1
    decay_mult: 0
  }
  convolution_param {
    num_output: 272
    pad: 0
    kernel_size: 1
    group: 4
    stride: 1
    weight_filler {
      type: "gaussian"
      std: 0.01
    }
    bias_filler {
      type: "constant"
      value: 0
    }
  }
}
layer {
  name: "block3_s2_concat"
  type: "Concat"
  bottom: "block3_s2_pool"
  bottom: "block3_s2_conv3"
  top: "block3_s2_concat"
}
layer {
  name: "block3_s2_concat_ReLU"
  type: "ReLU"
  bottom: "block3_s2_concat"
  top: "block3_s2_concat"
}
layer {
  name: "block3_s1_1_conv1"
  type: "Convolution"
  bottom: "block3_s2_concat"
  top: "block3_s1_1_conv1"
  param {
    lr_mult: 1
    decay_mult: 1
  }
  param {
    lr_mult: 1
    decay_mult: 0
  }
  convolution_param {
    num_output: 136
    pad: 0
    kernel_size: 1
    group: 4
    stride: 1
    weight_filler {
      type: "gaussian"
      std: 0.01
    }
    bias_filler {
      type: "constant"
      value: 0
    }
  }
}
layer {
  name: "block3_s1_1_conv1_ReLU"
  type: "ReLU"
  bottom: "block3_s1_1_conv1"
  top: "block3_s1_1_conv1"
}
layer {
  name: "shuffle_block3_s1_1"
  type: "ShuffleChannel"
  bottom: "block3_s1_1_conv1"
  top: "shuffle_block3_s1_1"
  shuffle_channel_param {
    group: 4
  }
}
layer {
  name: "block3_s1_1_conv2"
  type: "ConvolutionDepthwise"
  bottom: "shuffle_block3_s1_1"
  top: "block3_s1_1_conv2"
  param {
    lr_mult: 1
    decay_mult: 1
  }
  param {
    lr_mult: 1
    decay_mult: 0
  }
  convolution_param {
    num_output: 136
    pad: 1
    kernel_size: 3
    stride: 1
    weight_filler {
      type: "gaussian"
      std: 0.01
    }
    bias_filler {
      type: "constant"
      value: 0
    }
  }
}
layer {
  name: "block3_s1_1_conv2_ReLU"
  type: "ReLU"
  bottom: "block3_s1_1_conv2"
  top: "block3_s1_1_conv2"
}
layer {
  name: "block3_s1_1_conv3"
  type: "Convolution"
  bottom: "block3_s1_1_conv2"
  top: "block3_s1_1_conv3"
  param {
    lr_mult: 1
    decay_mult: 1
  }
  param {
    lr_mult: 1
    decay_mult: 0
  }
  convolution_param {
    num_output: 544
    pad: 0
    kernel_size: 1
    group: 4
    stride: 1
    weight_filler {
      type: "gaussian"
      std: 0.01
    }
    bias_filler {
      type: "constant"
      value: 0
    }
  }
}
layer {
  name: "block3_s1_1_eltwise"
  type: "Eltwise"
  bottom: "block3_s2_concat"
  bottom: "block3_s1_1_conv3"
  top: "block3_s1_1_eltwise"
  eltwise_param {
    operation: SUM
  }
}
layer {
  name: "block3_s1_1_eltwise_ReLU"
  type: "ReLU"
  bottom: "block3_s1_1_eltwise"
  top: "block3_s1_1_eltwise"
}
layer {
  name: "block3_s1_2_conv1"
  type: "Convolution"
  bottom: "block3_s1_1_eltwise"
  top: "block3_s1_2_conv1"
  param {
    lr_mult: 1
    decay_mult: 1
  }
  param {
    lr_mult: 1
    decay_mult: 0
  }
  convolution_param {
    num_output: 136
    pad: 0
    kernel_size: 1
    group: 4
    stride: 1
    weight_filler {
      type: "gaussian"
      std: 0.01
    }
    bias_filler {
      type: "constant"
      value: 0
    }
  }
}
layer {
  name: "block3_s1_2_conv1_ReLU"
  type: "ReLU"
  bottom: "block3_s1_2_conv1"
  top: "block3_s1_2_conv1"
}
layer {
  name: "shuffle_block3_s1_2"
  type: "ShuffleChannel"
  bottom: "block3_s1_2_conv1"
  top: "shuffle_block3_s1_2"
  shuffle_channel_param {
    group: 4
  }
}
layer {
  name: "block3_s1_2_conv2"
  type: "ConvolutionDepthwise"
  bottom: "shuffle_block3_s1_2"
  top: "block3_s1_2_conv2"
  param {
    lr_mult: 1
    decay_mult: 1
  }
  param {
    lr_mult: 1
    decay_mult: 0
  }
  convolution_param {
    num_output: 136
    pad: 1
    kernel_size: 3
    stride: 1
    weight_filler {
      type: "gaussian"
      std: 0.01
    }
    bias_filler {
      type: "constant"
      value: 0
    }
  }
}
layer {
  name: "block3_s1_2_conv2_ReLU"
  type: "ReLU"
  bottom: "block3_s1_2_conv2"
  top: "block3_s1_2_conv2"
}
layer {
  name: "block3_s1_2_conv3"
  type: "Convolution"
  bottom: "block3_s1_2_conv2"
  top: "block3_s1_2_conv3"
  param {
    lr_mult: 1
    decay_mult: 1
  }
  param {
    lr_mult: 1
    decay_mult: 0
  }
  convolution_param {
    num_output: 544
    pad: 0
    kernel_size: 1
    group: 4
    stride: 1
    weight_filler {
      type: "gaussian"
      std: 0.01
    }
    bias_filler {
      type: "constant"
      value: 0
    }
  }
}
layer {
  name: "block3_s1_2_eltwise"
  type: "Eltwise"
  bottom: "block3_s1_1_eltwise"
  bottom: "block3_s1_2_conv3"
  top: "block3_s1_2_eltwise"
  eltwise_param {
    operation: SUM
  }
}
layer {
  name: "block3_s1_2_eltwise_ReLU"
  type: "ReLU"
  bottom: "block3_s1_2_eltwise"
  top: "block3_s1_2_eltwise"
}
layer {
  name: "block3_s1_3_conv1"
  type: "Convolution"
  bottom: "block3_s1_2_eltwise"
  top: "block3_s1_3_conv1"
  param {
    lr_mult: 1
    decay_mult: 1
  }
  param {
    lr_mult: 1
    decay_mult: 0
  }
  convolution_param {
    num_output: 136
    pad: 0
    kernel_size: 1
    group: 4
    stride: 1
    weight_filler {
      type: "gaussian"
      std: 0.01
    }
    bias_filler {
      type: "constant"
      value: 0
    }
  }
}
layer {
  name: "block3_s1_3_conv1_ReLU"
  type: "ReLU"
  bottom: "block3_s1_3_conv1"
  top: "block3_s1_3_conv1"
}
layer {
  name: "shuffle_block3_s1_3"
  type: "ShuffleChannel"
  bottom: "block3_s1_3_conv1"
  top: "shuffle_block3_s1_3"
  shuffle_channel_param {
    group: 4
  }
}
layer {
  name: "block3_s1_3_conv2"
  type: "ConvolutionDepthwise"
  bottom: "shuffle_block3_s1_3"
  top: "block3_s1_3_conv2"
  param {
    lr_mult: 1
    decay_mult: 1
  }
  param {
    lr_mult: 1
    decay_mult: 0
  }
  convolution_param {
    num_output: 136
    pad: 1
    kernel_size: 3
    stride: 1
    weight_filler {
      type: "gaussian"
      std: 0.01
    }
    bias_filler {
      type: "constant"
      value: 0
    }
  }
}
layer {
  name: "block3_s1_3_conv2_ReLU"
  type: "ReLU"
  bottom: "block3_s1_3_conv2"
  top: "block3_s1_3_conv2"
}
layer {
  name: "block3_s1_3_conv3"
  type: "Convolution"
  bottom: "block3_s1_3_conv2"
  top: "block3_s1_3_conv3"
  param {
    lr_mult: 1
    decay_mult: 1
  }
  param {
    lr_mult: 1
    decay_mult: 0
  }
  convolution_param {
    num_output: 544
    pad: 0
    kernel_size: 1
    group: 4
    stride: 1
    weight_filler {
      type: "gaussian"
      std: 0.01
    }
    bias_filler {
      type: "constant"
      value: 0
    }
  }
}
layer {
  name: "block3_s1_3_eltwise"
  type: "Eltwise"
  bottom: "block3_s1_2_eltwise"
  bottom: "block3_s1_3_conv3"
  top: "block3_s1_3_eltwise"
  eltwise_param {
    operation: SUM
  }
}
layer {
  name: "block3_s1_3_eltwise_ReLU"
  type: "ReLU"
  bottom: "block3_s1_3_eltwise"
  top: "block3_s1_3_eltwise"
}
layer {
  name: "block3_s1_4_conv1"
  type: "Convolution"
  bottom: "block3_s1_3_eltwise"
  top: "block3_s1_4_conv1"
  param {
    lr_mult: 1
    decay_mult: 1
  }
  param {
    lr_mult: 1
    decay_mult: 0
  }
  convolution_param {
    num_output: 136
    pad: 0
    kernel_size: 1
    group: 4
    stride: 1
    weight_filler {
      type: "gaussian"
      std: 0.01
    }
    bias_filler {
      type: "constant"
      value: 0
    }
  }
}
layer {
  name: "block3_s1_4_conv1_ReLU"
  type: "ReLU"
  bottom: "block3_s1_4_conv1"
  top: "block3_s1_4_conv1"
}
layer {
  name: "shuffle_block3_s1_4"
  type: "ShuffleChannel"
  bottom: "block3_s1_4_conv1"
  top: "shuffle_block3_s1_4"
  shuffle_channel_param {
    group: 4
  }
}
layer {
  name: "block3_s1_4_conv2"
  type: "ConvolutionDepthwise"
  bottom: "shuffle_block3_s1_4"
  top: "block3_s1_4_conv2"
  param {
    lr_mult: 1
    decay_mult: 1
  }
  param {
    lr_mult: 1
    decay_mult: 0
  }
  convolution_param {
    num_output: 136
    pad: 1
    kernel_size: 3
    stride: 1
    weight_filler {
      type: "gaussian"
      std: 0.01
    }
    bias_filler {
      type: "constant"
      value: 0
    }
  }
}
layer {
  name: "block3_s1_4_conv2_ReLU"
  type: "ReLU"
  bottom: "block3_s1_4_conv2"
  top: "block3_s1_4_conv2"
}
layer {
  name: "block3_s1_4_conv3"
  type: "Convolution"
  bottom: "block3_s1_4_conv2"
  top: "block3_s1_4_conv3"
  param {
    lr_mult: 1
    decay_mult: 1
  }
  param {
    lr_mult: 1
    decay_mult: 0
  }
  convolution_param {
    num_output: 544
    pad: 0
    kernel_size: 1
    group: 4
    stride: 1
    weight_filler {
      type: "gaussian"
      std: 0.01
    }
    bias_filler {
      type: "constant"
      value: 0
    }
  }
}
layer {
  name: "block3_s1_4_eltwise"
  type: "Eltwise"
  bottom: "block3_s1_3_eltwise"
  bottom: "block3_s1_4_conv3"
  top: "block3_s1_4_eltwise"
  eltwise_param {
    operation: SUM
  }
}
layer {
  name: "block3_s1_4_eltwise_ReLU"
  type: "ReLU"
  bottom: "block3_s1_4_eltwise"
  top: "block3_s1_4_eltwise"
}
layer {
  name: "block3_s1_5_conv1"
  type: "Convolution"
  bottom: "block3_s1_4_eltwise"
  top: "block3_s1_5_conv1"
  param {
    lr_mult: 1
    decay_mult: 1
  }
  param {
    lr_mult: 1
    decay_mult: 0
  }
  convolution_param {
    num_output: 136
    pad: 0
    kernel_size: 1
    group: 4
    stride: 1
    weight_filler {
      type: "gaussian"
      std: 0.01
    }
    bias_filler {
      type: "constant"
      value: 0
    }
  }
}
layer {
  name: "block3_s1_5_conv1_ReLU"
  type: "ReLU"
  bottom: "block3_s1_5_conv1"
  top: "block3_s1_5_conv1"
}
layer {
  name: "shuffle_block3_s1_5"
  type: "ShuffleChannel"
  bottom: "block3_s1_5_conv1"
  top: "shuffle_block3_s1_5"
  shuffle_channel_param {
    group: 4
  }
}
layer {
  name: "block3_s1_5_conv2"
  type: "ConvolutionDepthwise"
  bottom: "shuffle_block3_s1_5"
  top: "block3_s1_5_conv2"
  param {
    lr_mult: 1
    decay_mult: 1
  }
  param {
    lr_mult: 1
    decay_mult: 0
  }
  convolution_param {
    num_output: 136
    pad: 1
    kernel_size: 3
    stride: 1
    weight_filler {
      type: "gaussian"
      std: 0.01
    }
    bias_filler {
      type: "constant"
      value: 0
    }
  }
}
layer {
  name: "block3_s1_5_conv2_ReLU"
  type: "ReLU"
  bottom: "block3_s1_5_conv2"
  top: "block3_s1_5_conv2"
}
layer {
  name: "block3_s1_5_conv3"
  type: "Convolution"
  bottom: "block3_s1_5_conv2"
  top: "block3_s1_5_conv3"
  param {
    lr_mult: 1
    decay_mult: 1
  }
  param {
    lr_mult: 1
    decay_mult: 0
  }
  convolution_param {
    num_output: 544
    pad: 0
    kernel_size: 1
    group: 4
    stride: 1
    weight_filler {
      type: "gaussian"
      std: 0.01
    }
    bias_filler {
      type: "constant"
      value: 0
    }
  }
}
layer {
  name: "block3_s1_5_eltwise"
  type: "Eltwise"
  bottom: "block3_s1_4_eltwise"
  bottom: "block3_s1_5_conv3"
  top: "block3_s1_5_eltwise"
  eltwise_param {
    operation: SUM
  }
}
layer {
  name: "block3_s1_5_eltwise_ReLU"
  type: "ReLU"
  bottom: "block3_s1_5_eltwise"
  top: "block3_s1_5_eltwise"
}
layer {
  name: "block3_s1_6_conv1"
  type: "Convolution"
  bottom: "block3_s1_5_eltwise"
  top: "block3_s1_6_conv1"
  param {
    lr_mult: 1
    decay_mult: 1
  }
  param {
    lr_mult: 1
    decay_mult: 0
  }
  convolution_param {
    num_output: 136
    pad: 0
    kernel_size: 1
    group: 4
    stride: 1
    weight_filler {
      type: "gaussian"
      std: 0.01
    }
    bias_filler {
      type: "constant"
      value: 0
    }
  }
}
layer {
  name: "block3_s1_6_conv1_ReLU"
  type: "ReLU"
  bottom: "block3_s1_6_conv1"
  top: "block3_s1_6_conv1"
}
layer {
  name: "shuffle_block3_s1_6"
  type: "ShuffleChannel"
  bottom: "block3_s1_6_conv1"
  top: "shuffle_block3_s1_6"
  shuffle_channel_param {
    group: 4
  }
}
layer {
  name: "block3_s1_6_conv2"
  type: "ConvolutionDepthwise"
  bottom: "shuffle_block3_s1_6"
  top: "block3_s1_6_conv2"
  param {
    lr_mult: 1
    decay_mult: 1
  }
  param {
    lr_mult: 1
    decay_mult: 0
  }
  convolution_param {
    num_output: 136
    pad: 1
    kernel_size: 3
    stride: 1
    weight_filler {
      type: "gaussian"
      std: 0.01
    }
    bias_filler {
      type: "constant"
      value: 0
    }
  }
}
layer {
  name: "block3_s1_6_conv2_ReLU"
  type: "ReLU"
  bottom: "block3_s1_6_conv2"
  top: "block3_s1_6_conv2"
}
layer {
  name: "block3_s1_6_conv3"
  type: "Convolution"
  bottom: "block3_s1_6_conv2"
  top: "block3_s1_6_conv3"
  param {
    lr_mult: 1
    decay_mult: 1
  }
  param {
    lr_mult: 1
    decay_mult: 0
  }
  convolution_param {
    num_output: 544
    pad: 0
    kernel_size: 1
    group: 4
    stride: 1
    weight_filler {
      type: "gaussian"
      std: 0.01
    }
    bias_filler {
      type: "constant"
      value: 0
    }
  }
}
layer {
  name: "block3_s1_6_eltwise"
  type: "Eltwise"
  bottom: "block3_s1_5_eltwise"
  bottom: "block3_s1_6_conv3"
  top: "block3_s1_6_eltwise"
  eltwise_param {
    operation: SUM
  }
}
layer {
  name: "block3_s1_6_eltwise_ReLU"
  type: "ReLU"
  bottom: "block3_s1_6_eltwise"
  top: "block3_s1_6_eltwise"
}
layer {
  name: "block3_s1_7_conv1"
  type: "Convolution"
  bottom: "block3_s1_6_eltwise"
  top: "block3_s1_7_conv1"
  param {
    lr_mult: 1
    decay_mult: 1
  }
  param {
    lr_mult: 1
    decay_mult: 0
  }
  convolution_param {
    num_output: 136
    pad: 0
    kernel_size: 1
    group: 4
    stride: 1
    weight_filler {
      type: "gaussian"
      std: 0.01
    }
    bias_filler {
      type: "constant"
      value: 0
    }
  }
}
layer {
  name: "block3_s1_7_conv1_ReLU"
  type: "ReLU"
  bottom: "block3_s1_7_conv1"
  top: "block3_s1_7_conv1"
}
layer {
  name: "shuffle_block3_s1_7"
  type: "ShuffleChannel"
  bottom: "block3_s1_7_conv1"
  top: "shuffle_block3_s1_7"
  shuffle_channel_param {
    group: 4
  }
}
layer {
  name: "block3_s1_7_conv2"
  type: "ConvolutionDepthwise"
  bottom: "shuffle_block3_s1_7"
  top: "block3_s1_7_conv2"
  param {
    lr_mult: 1
    decay_mult: 1
  }
  param {
    lr_mult: 1
    decay_mult: 0
  }
  convolution_param {
    num_output: 136
    pad: 1
    kernel_size: 3
    stride: 1
    weight_filler {
      type: "gaussian"
      std: 0.01
    }
    bias_filler {
      type: "constant"
      value: 0
    }
  }
}
layer {
  name: "block3_s1_7_conv2_ReLU"
  type: "ReLU"
  bottom: "block3_s1_7_conv2"
  top: "block3_s1_7_conv2"
}
layer {
  name: "block3_s1_7_conv3"
  type: "Convolution"
  bottom: "block3_s1_7_conv2"
  top: "block3_s1_7_conv3"
  param {
    lr_mult: 1
    decay_mult: 1
  }
  param {
    lr_mult: 1
    decay_mult: 0
  }
  convolution_param {
    num_output: 544
    pad: 0
    kernel_size: 1
    group: 4
    stride: 1
    weight_filler {
      type: "gaussian"
      std: 0.01
    }
    bias_filler {
      type: "constant"
      value: 0
    }
  }
}
layer {
  name: "block3_s1_7_eltwise"
  type: "Eltwise"
  bottom: "block3_s1_6_eltwise"
  bottom: "block3_s1_7_conv3"
  top: "block3_s1_7_eltwise"
  eltwise_param {
    operation: SUM
  }
}
layer {
  name: "block3_s1_7_eltwise_ReLU"
  type: "ReLU"
  bottom: "block3_s1_7_eltwise"
  top: "block3_s1_7_eltwise"
}
layer {
  name: "block4_s2_pool"
  type: "Pooling"
  bottom: "block3_s1_7_eltwise"
  top: "block4_s2_pool"
  pooling_param {
    pool: MAX
    kernel_size: 3
    stride: 2
  }
}
layer {
  name: "block4_s2_conv1"
  type: "Convolution"
  bottom: "block3_s1_7_eltwise"
  top: "block4_s2_conv1"
  param {
    lr_mult: 1
    decay_mult: 1
  }
  param {
    lr_mult: 1
    decay_mult: 0
  }
  convolution_param {
    num_output: 136
    pad: 0
    kernel_size: 1
    group: 4
    stride: 1
    weight_filler {
      type: "gaussian"
      std: 0.01
    }
    bias_filler {
      type: "constant"
      value: 0
    }
  }
}
layer {
  name: "block4_s2_conv1_ReLU"
  type: "ReLU"
  bottom: "block4_s2_conv1"
  top: "block4_s2_conv1"
}
layer {
  name: "shuffle_block4_s2"
  type: "ShuffleChannel"
  bottom: "block4_s2_conv1"
  top: "shuffle_block4_s2"
  shuffle_channel_param {
    group: 4
  }
}
layer {
  name: "block4_s2_conv2"
  type: "ConvolutionDepthwise"
  bottom: "shuffle_block4_s2"
  top: "block4_s2_conv2"
  param {
    lr_mult: 1
    decay_mult: 1
  }
  param {
    lr_mult: 1
    decay_mult: 0
  }
  convolution_param {
    num_output: 136
    pad: 1
    kernel_size: 3
    stride: 2
    weight_filler {
      type: "gaussian"
      std: 0.01
    }
    bias_filler {
      type: "constant"
      value: 0
    }
  }
}
layer {
  name: "block4_s2_conv2_ReLU"
  type: "ReLU"
  bottom: "block4_s2_conv2"
  top: "block4_s2_conv2"
}
layer {
  name: "block4_s2_conv3"
  type: "Convolution"
  bottom: "block4_s2_conv2"
  top: "block4_s2_conv3"
  param {
    lr_mult: 1
    decay_mult: 1
  }
  param {
    lr_mult: 1
    decay_mult: 0
  }
  convolution_param {
    num_output: 544
    pad: 0
    kernel_size: 1
    group: 4
    stride: 1
    weight_filler {
      type: "gaussian"
      std: 0.01
    }
    bias_filler {
      type: "constant"
      value: 0
    }
  }
}
layer {
  name: "block4_s2_concat"
  type: "Concat"
  bottom: "block4_s2_pool"
  bottom: "block4_s2_conv3"
  top: "block4_s2_concat"
}
layer {
  name: "block4_s2_concat_ReLU"
  type: "ReLU"
  bottom: "block4_s2_concat"
  top: "block4_s2_concat"
}
layer {
  name: "block4_s1_1_conv1"
  type: "Convolution"
  bottom: "block4_s2_concat"
  top: "block4_s1_1_conv1"
  param {
    lr_mult: 1
    decay_mult: 1
  }
  param {
    lr_mult: 1
    decay_mult: 0
  }
  convolution_param {
    num_output: 272
    pad: 0
    kernel_size: 1
    group: 4
    stride: 1
    weight_filler {
      type: "gaussian"
      std: 0.01
    }
    bias_filler {
      type: "constant"
      value: 0
    }
  }
}
layer {
  name: "block4_s1_1_conv1_ReLU"
  type: "ReLU"
  bottom: "block4_s1_1_conv1"
  top: "block4_s1_1_conv1"
}
layer {
  name: "shuffle_block4_s1_1"
  type: "ShuffleChannel"
  bottom: "block4_s1_1_conv1"
  top: "shuffle_block4_s1_1"
  shuffle_channel_param {
    group: 4
  }
}
layer {
  name: "block4_s1_1_conv2"
  type: "ConvolutionDepthwise"
  bottom: "shuffle_block4_s1_1"
  top: "block4_s1_1_conv2"
  param {
    lr_mult: 1
    decay_mult: 1
  }
  param {
    lr_mult: 1
    decay_mult: 0
  }
  convolution_param {
    num_output: 272
    pad: 1
    kernel_size: 3
    stride: 1
    weight_filler {
      type: "gaussian"
      std: 0.01
    }
    bias_filler {
      type: "constant"
      value: 0
    }
  }
}
layer {
  name: "block4_s1_1_conv2_ReLU"
  type: "ReLU"
  bottom: "block4_s1_1_conv2"
  top: "block4_s1_1_conv2"
}
layer {
  name: "block4_s1_1_conv3"
  type: "Convolution"
  bottom: "block4_s1_1_conv2"
  top: "block4_s1_1_conv3"
  param {
    lr_mult: 1
    decay_mult: 1
  }
  param {
    lr_mult: 1
    decay_mult: 0
  }
  convolution_param {
    num_output: 1088
    pad: 0
    kernel_size: 1
    group: 4
    stride: 1
    weight_filler {
      type: "gaussian"
      std: 0.01
    }
    bias_filler {
      type: "constant"
      value: 0
    }
  }
}
layer {
  name: "block4_s1_1_eltwise"
  type: "Eltwise"
  bottom: "block4_s2_concat"
  bottom: "block4_s1_1_conv3"
  top: "block4_s1_1_eltwise"
  eltwise_param {
    operation: SUM
  }
}
layer {
  name: "block4_s1_1_eltwise_ReLU"
  type: "ReLU"
  bottom: "block4_s1_1_eltwise"
  top: "block4_s1_1_eltwise"
}
layer {
  name: "block4_s1_2_conv1"
  type: "Convolution"
  bottom: "block4_s1_1_eltwise"
  top: "block4_s1_2_conv1"
  param {
    lr_mult: 1
    decay_mult: 1
  }
  param {
    lr_mult: 1
    decay_mult: 0
  }
  convolution_param {
    num_output: 272
    pad: 0
    kernel_size: 1
    group: 
I0809 17:22:57.315862 22897 layer_factory.hpp:77] Creating layer data
I0809 17:22:57.316812 22897 net.cpp:100] Creating Layer data
I0809 17:22:57.316829 22897 net.cpp:408] data -> data
I0809 17:22:57.316853 22897 net.cpp:408] data -> label
I0809 17:22:57.318614 22990 db_lmdb.cpp:35] Opened lmdb /data/zeng/MsCeleb_256x256_train_lmdb
I0809 17:22:57.404175 22897 data_layer.cpp:41] output data size: 64,3,256,256
I0809 17:22:57.504127 22897 net.cpp:150] Setting up data
I0809 17:22:57.504185 22897 net.cpp:157] Top shape: 64 3 256 256 (12582912)
I0809 17:22:57.504195 22897 net.cpp:157] Top shape: 64 (64)
I0809 17:22:57.504201 22897 net.cpp:165] Memory required for data: 50331904
I0809 17:22:57.504216 22897 layer_factory.hpp:77] Creating layer conv1
I0809 17:22:57.504250 22897 net.cpp:100] Creating Layer conv1
I0809 17:22:57.504259 22897 net.cpp:434] conv1 <- data
I0809 17:22:57.504278 22897 net.cpp:408] conv1 -> conv1
I0809 17:22:57.518800 22991 blocking_queue.cpp:50] Waiting for data
I0809 17:22:57.847616 22897 net.cpp:150] Setting up conv1
I0809 17:22:57.847667 22897 net.cpp:157] Top shape: 64 24 128 128 (25165824)
I0809 17:22:57.847674 22897 net.cpp:165] Memory required for data: 150995200
I0809 17:22:57.847692 22897 layer_factory.hpp:77] Creating layer conv1_relu
I0809 17:22:57.847710 22897 net.cpp:100] Creating Layer conv1_relu
I0809 17:22:57.847718 22897 net.cpp:434] conv1_relu <- conv1
I0809 17:22:57.847725 22897 net.cpp:395] conv1_relu -> conv1 (in-place)
I0809 17:22:57.847867 22897 net.cpp:150] Setting up conv1_relu
I0809 17:22:57.847879 22897 net.cpp:157] Top shape: 64 24 128 128 (25165824)
I0809 17:22:57.847885 22897 net.cpp:165] Memory required for data: 251658496
I0809 17:22:57.847890 22897 layer_factory.hpp:77] Creating layer pool1
I0809 17:22:57.847901 22897 net.cpp:100] Creating Layer pool1
I0809 17:22:57.847908 22897 net.cpp:434] pool1 <- conv1
I0809 17:22:57.847913 22897 net.cpp:408] pool1 -> pool1
I0809 17:22:57.847985 22897 net.cpp:150] Setting up pool1
I0809 17:22:57.847995 22897 net.cpp:157] Top shape: 64 24 64 64 (6291456)
I0809 17:22:57.848001 22897 net.cpp:165] Memory required for data: 276824320
I0809 17:22:57.848006 22897 layer_factory.hpp:77] Creating layer pool1_pool1_0_split
I0809 17:22:57.848018 22897 net.cpp:100] Creating Layer pool1_pool1_0_split
I0809 17:22:57.848024 22897 net.cpp:434] pool1_pool1_0_split <- pool1
I0809 17:22:57.848031 22897 net.cpp:408] pool1_pool1_0_split -> pool1_pool1_0_split_0
I0809 17:22:57.848038 22897 net.cpp:408] pool1_pool1_0_split -> pool1_pool1_0_split_1
I0809 17:22:57.848065 22897 net.cpp:150] Setting up pool1_pool1_0_split
I0809 17:22:57.848073 22897 net.cpp:157] Top shape: 64 24 64 64 (6291456)
I0809 17:22:57.848079 22897 net.cpp:157] Top shape: 64 24 64 64 (6291456)
I0809 17:22:57.848083 22897 net.cpp:165] Memory required for data: 327155968
I0809 17:22:57.848088 22897 layer_factory.hpp:77] Creating layer block2_s2_pool
I0809 17:22:57.848095 22897 net.cpp:100] Creating Layer block2_s2_pool
I0809 17:22:57.848103 22897 net.cpp:434] block2_s2_pool <- pool1_pool1_0_split_0
I0809 17:22:57.848109 22897 net.cpp:408] block2_s2_pool -> block2_s2_pool
I0809 17:22:57.848134 22897 net.cpp:150] Setting up block2_s2_pool
I0809 17:22:57.848142 22897 net.cpp:157] Top shape: 64 24 32 32 (1572864)
I0809 17:22:57.848146 22897 net.cpp:165] Memory required for data: 333447424
I0809 17:22:57.848151 22897 layer_factory.hpp:77] Creating layer block2_s2_conv1
I0809 17:22:57.848165 22897 net.cpp:100] Creating Layer block2_s2_conv1
I0809 17:22:57.848170 22897 net.cpp:434] block2_s2_conv1 <- pool1_pool1_0_split_1
I0809 17:22:57.848177 22897 net.cpp:408] block2_s2_conv1 -> block2_s2_conv1
I0809 17:22:57.852596 22897 net.cpp:150] Setting up block2_s2_conv1
I0809 17:22:57.852617 22897 net.cpp:157] Top shape: 64 62 64 64 (16252928)
I0809 17:22:57.852622 22897 net.cpp:165] Memory required for data: 398459136
I0809 17:22:57.852633 22897 layer_factory.hpp:77] Creating layer block2_s2_conv1_ReLU
I0809 17:22:57.852643 22897 net.cpp:100] Creating Layer block2_s2_conv1_ReLU
I0809 17:22:57.852648 22897 net.cpp:434] block2_s2_conv1_ReLU <- block2_s2_conv1
I0809 17:22:57.852656 22897 net.cpp:395] block2_s2_conv1_ReLU -> block2_s2_conv1 (in-place)
I0809 17:22:57.852789 22897 net.cpp:150] Setting up block2_s2_conv1_ReLU
I0809 17:22:57.852802 22897 net.cpp:157] Top shape: 64 62 64 64 (16252928)
I0809 17:22:57.852808 22897 net.cpp:165] Memory required for data: 463470848
I0809 17:22:57.852813 22897 layer_factory.hpp:77] Creating layer shuffle_block2_s2
I0809 17:22:57.852823 22897 net.cpp:100] Creating Layer shuffle_block2_s2
I0809 17:22:57.852828 22897 net.cpp:434] shuffle_block2_s2 <- block2_s2_conv1
I0809 17:22:57.852835 22897 net.cpp:408] shuffle_block2_s2 -> shuffle_block2_s2
I0809 17:22:57.852862 22897 net.cpp:150] Setting up shuffle_block2_s2
I0809 17:22:57.852870 22897 net.cpp:157] Top shape: 64 62 64 64 (16252928)
I0809 17:22:57.852875 22897 net.cpp:165] Memory required for data: 528482560
I0809 17:22:57.852881 22897 layer_factory.hpp:77] Creating layer block2_s2_conv2
I0809 17:22:57.852890 22897 net.cpp:100] Creating Layer block2_s2_conv2
I0809 17:22:57.852895 22897 net.cpp:434] block2_s2_conv2 <- shuffle_block2_s2
I0809 17:22:57.852902 22897 net.cpp:408] block2_s2_conv2 -> block2_s2_conv2
I0809 17:22:57.853127 22897 net.cpp:150] Setting up block2_s2_conv2
I0809 17:22:57.853143 22897 net.cpp:157] Top shape: 64 62 32 32 (4063232)
I0809 17:22:57.853149 22897 net.cpp:165] Memory required for data: 544735488
I0809 17:22:57.853160 22897 layer_factory.hpp:77] Creating layer block2_s2_conv2_ReLU
I0809 17:22:57.853169 22897 net.cpp:100] Creating Layer block2_s2_conv2_ReLU
I0809 17:22:57.853175 22897 net.cpp:434] block2_s2_conv2_ReLU <- block2_s2_conv2
I0809 17:22:57.853183 22897 net.cpp:395] block2_s2_conv2_ReLU -> block2_s2_conv2 (in-place)
I0809 17:22:57.853889 22897 net.cpp:150] Setting up block2_s2_conv2_ReLU
I0809 17:22:57.853909 22897 net.cpp:157] Top shape: 64 62 32 32 (4063232)
I0809 17:22:57.853924 22897 net.cpp:165] Memory required for data: 560988416
I0809 17:22:57.853931 22897 layer_factory.hpp:77] Creating layer block2_s2_conv3
I0809 17:22:57.853943 22897 net.cpp:100] Creating Layer block2_s2_conv3
I0809 17:22:57.853950 22897 net.cpp:434] block2_s2_conv3 <- block2_s2_conv2
I0809 17:22:57.853956 22897 net.cpp:408] block2_s2_conv3 -> block2_s2_conv3
I0809 17:22:57.855495 22897 net.cpp:150] Setting up block2_s2_conv3
I0809 17:22:57.855516 22897 net.cpp:157] Top shape: 64 248 32 32 (16252928)
I0809 17:22:57.855522 22897 net.cpp:165] Memory required for data: 626000128
I0809 17:22:57.855530 22897 layer_factory.hpp:77] Creating layer block2_s2_concat
I0809 17:22:57.855540 22897 net.cpp:100] Creating Layer block2_s2_concat
I0809 17:22:57.855545 22897 net.cpp:434] block2_s2_concat <- block2_s2_pool
I0809 17:22:57.855552 22897 net.cpp:434] block2_s2_concat <- block2_s2_conv3
I0809 17:22:57.855558 22897 net.cpp:408] block2_s2_concat -> block2_s2_concat
I0809 17:22:57.855582 22897 net.cpp:150] Setting up block2_s2_concat
I0809 17:22:57.855590 22897 net.cpp:157] Top shape: 64 272 32 32 (17825792)
I0809 17:22:57.855595 22897 net.cpp:165] Memory required for data: 697303296
I0809 17:22:57.855600 22897 layer_factory.hpp:77] Creating layer block2_s2_concat_ReLU
I0809 17:22:57.855607 22897 net.cpp:100] Creating Layer block2_s2_concat_ReLU
I0809 17:22:57.855613 22897 net.cpp:434] block2_s2_concat_ReLU <- block2_s2_concat
I0809 17:22:57.855619 22897 net.cpp:395] block2_s2_concat_ReLU -> block2_s2_concat (in-place)
I0809 17:22:57.856273 22897 net.cpp:150] Setting up block2_s2_concat_ReLU
I0809 17:22:57.856292 22897 net.cpp:157] Top shape: 64 272 32 32 (17825792)
I0809 17:22:57.856298 22897 net.cpp:165] Memory required for data: 768606464
I0809 17:22:57.856303 22897 layer_factory.hpp:77] Creating layer block2_s2_concat_block2_s2_concat_ReLU_0_split
I0809 17:22:57.856312 22897 net.cpp:100] Creating Layer block2_s2_concat_block2_s2_concat_ReLU_0_split
I0809 17:22:57.856317 22897 net.cpp:434] block2_s2_concat_block2_s2_concat_ReLU_0_split <- block2_s2_concat
I0809 17:22:57.856323 22897 net.cpp:408] block2_s2_concat_block2_s2_concat_ReLU_0_split -> block2_s2_concat_block2_s2_concat_ReLU_0_split_0
I0809 17:22:57.856333 22897 net.cpp:408] block2_s2_concat_block2_s2_concat_ReLU_0_split -> block2_s2_concat_block2_s2_concat_ReLU_0_split_1
I0809 17:22:57.856364 22897 net.cpp:150] Setting up block2_s2_concat_block2_s2_concat_ReLU_0_split
I0809 17:22:57.856372 22897 net.cpp:157] Top shape: 64 272 32 32 (17825792)
I0809 17:22:57.856379 22897 net.cpp:157] Top shape: 64 272 32 32 (17825792)
I0809 17:22:57.856384 22897 net.cpp:165] Memory required for data: 911212800
I0809 17:22:57.856387 22897 layer_factory.hpp:77] Creating layer block2_s1_1_conv1
I0809 17:22:57.856398 22897 net.cpp:100] Creating Layer block2_s1_1_conv1
I0809 17:22:57.856403 22897 net.cpp:434] block2_s1_1_conv1 <- block2_s2_concat_block2_s2_concat_ReLU_0_split_0
I0809 17:22:57.856410 22897 net.cpp:408] block2_s1_1_conv1 -> block2_s1_1_conv1
I0809 17:22:57.859814 22897 net.cpp:150] Setting up block2_s1_1_conv1
I0809 17:22:57.859853 22897 net.cpp:157] Top shape: 64 68 32 32 (4456448)
I0809 17:22:57.859859 22897 net.cpp:165] Memory required for data: 929038592
I0809 17:22:57.859870 22897 layer_factory.hpp:77] Creating layer block2_s1_1_conv1_ReLU
I0809 17:22:57.859880 22897 net.cpp:100] Creating Layer block2_s1_1_conv1_ReLU
I0809 17:22:57.859887 22897 net.cpp:434] block2_s1_1_conv1_ReLU <- block2_s1_1_conv1
I0809 17:22:57.859896 22897 net.cpp:395] block2_s1_1_conv1_ReLU -> block2_s1_1_conv1 (in-place)
I0809 17:22:57.860581 22897 net.cpp:150] Setting up block2_s1_1_conv1_ReLU
I0809 17:22:57.860599 22897 net.cpp:157] Top shape: 64 68 32 32 (4456448)
I0809 17:22:57.860605 22897 net.cpp:165] Memory required for data: 946864384
I0809 17:22:57.860611 22897 layer_factory.hpp:77] Creating layer shuffle_block2_s1_1
I0809 17:22:57.860620 22897 net.cpp:100] Creating Layer shuffle_block2_s1_1
I0809 17:22:57.860625 22897 net.cpp:434] shuffle_block2_s1_1 <- block2_s1_1_conv1
I0809 17:22:57.860646 22897 net.cpp:408] shuffle_block2_s1_1 -> shuffle_block2_s1_1
I0809 17:22:57.860672 22897 net.cpp:150] Setting up shuffle_block2_s1_1
I0809 17:22:57.860682 22897 net.cpp:157] Top shape: 64 68 32 32 (4456448)
I0809 17:22:57.860687 22897 net.cpp:165] Memory required for data: 964690176
I0809 17:22:57.860690 22897 layer_factory.hpp:77] Creating layer block2_s1_1_conv2
I0809 17:22:57.860702 22897 net.cpp:100] Creating Layer block2_s1_1_conv2
I0809 17:22:57.860708 22897 net.cpp:434] block2_s1_1_conv2 <- shuffle_block2_s1_1
I0809 17:22:57.860715 22897 net.cpp:408] block2_s1_1_conv2 -> block2_s1_1_conv2
I0809 17:22:57.860880 22897 net.cpp:150] Setting up block2_s1_1_conv2
I0809 17:22:57.860895 22897 net.cpp:157] Top shape: 64 68 32 32 (4456448)
I0809 17:22:57.860903 22897 net.cpp:165] Memory required for data: 982515968
I0809 17:22:57.860909 22897 layer_factory.hpp:77] Creating layer block2_s1_1_conv2_ReLU
I0809 17:22:57.860918 22897 net.cpp:100] Creating Layer block2_s1_1_conv2_ReLU
I0809 17:22:57.860924 22897 net.cpp:434] block2_s1_1_conv2_ReLU <- block2_s1_1_conv2
I0809 17:22:57.860932 22897 net.cpp:395] block2_s1_1_conv2_ReLU -> block2_s1_1_conv2 (in-place)
I0809 17:22:57.861093 22897 net.cpp:150] Setting up block2_s1_1_conv2_ReLU
I0809 17:22:57.861106 22897 net.cpp:157] Top shape: 64 68 32 32 (4456448)
I0809 17:22:57.861129 22897 net.cpp:165] Memory required for data: 1000341760
I0809 17:22:57.861135 22897 layer_factory.hpp:77] Creating layer block2_s1_1_conv3
I0809 17:22:57.861146 22897 net.cpp:100] Creating Layer block2_s1_1_conv3
I0809 17:22:57.861155 22897 net.cpp:434] block2_s1_1_conv3 <- block2_s1_1_conv2
I0809 17:22:57.861165 22897 net.cpp:408] block2_s1_1_conv3 -> block2_s1_1_conv3
I0809 17:22:57.864624 22897 net.cpp:150] Setting up block2_s1_1_conv3
I0809 17:22:57.864645 22897 net.cpp:157] Top shape: 64 272 32 32 (17825792)
I0809 17:22:57.864651 22897 net.cpp:165] Memory required for data: 1071644928
I0809 17:22:57.864660 22897 layer_factory.hpp:77] Creating layer block2_s1_1_eltwise
I0809 17:22:57.864675 22897 net.cpp:100] Creating Layer block2_s1_1_eltwise
I0809 17:22:57.864682 22897 net.cpp:434] block2_s1_1_eltwise <- block2_s2_concat_block2_s2_concat_ReLU_0_split_1
I0809 17:22:57.864689 22897 net.cpp:434] block2_s1_1_eltwise <- block2_s1_1_conv3
I0809 17:22:57.864696 22897 net.cpp:408] block2_s1_1_eltwise -> block2_s1_1_eltwise
I0809 17:22:57.864725 22897 net.cpp:150] Setting up block2_s1_1_eltwise
I0809 17:22:57.864735 22897 net.cpp:157] Top shape: 64 272 32 32 (17825792)
I0809 17:22:57.864742 22897 net.cpp:165] Memory required for data: 1142948096
I0809 17:22:57.864745 22897 layer_factory.hpp:77] Creating layer block2_s1_1_eltwise_ReLU
I0809 17:22:57.864753 22897 net.cpp:100] Creating Layer block2_s1_1_eltwise_ReLU
I0809 17:22:57.864758 22897 net.cpp:434] block2_s1_1_eltwise_ReLU <- block2_s1_1_eltwise
I0809 17:22:57.864765 22897 net.cpp:395] block2_s1_1_eltwise_ReLU -> block2_s1_1_eltwise (in-place)
I0809 17:22:57.865500 22897 net.cpp:150] Setting up block2_s1_1_eltwise_ReLU
I0809 17:22:57.865519 22897 net.cpp:157] Top shape: 64 272 32 32 (17825792)
I0809 17:22:57.865525 22897 net.cpp:165] Memory required for data: 1214251264
I0809 17:22:57.865530 22897 layer_factory.hpp:77] Creating layer block2_s1_1_eltwise_block2_s1_1_eltwise_ReLU_0_split
I0809 17:22:57.865537 22897 net.cpp:100] Creating Layer block2_s1_1_eltwise_block2_s1_1_eltwise_ReLU_0_split
I0809 17:22:57.865542 22897 net.cpp:434] block2_s1_1_eltwise_block2_s1_1_eltwise_ReLU_0_split <- block2_s1_1_eltwise
I0809 17:22:57.865553 22897 net.cpp:408] block2_s1_1_eltwise_block2_s1_1_eltwise_ReLU_0_split -> block2_s1_1_eltwise_block2_s1_1_eltwise_ReLU_0_split_0
I0809 17:22:57.865562 22897 net.cpp:408] block2_s1_1_eltwise_block2_s1_1_eltwise_ReLU_0_split -> block2_s1_1_eltwise_block2_s1_1_eltwise_ReLU_0_split_1
I0809 17:22:57.865598 22897 net.cpp:150] Setting up block2_s1_1_eltwise_block2_s1_1_eltwise_ReLU_0_split
I0809 17:22:57.865607 22897 net.cpp:157] Top shape: 64 272 32 32 (17825792)
I0809 17:22:57.865613 22897 net.cpp:157] Top shape: 64 272 32 32 (17825792)
I0809 17:22:57.865628 22897 net.cpp:165] Memory required for data: 1356857600
I0809 17:22:57.865633 22897 layer_factory.hpp:77] Creating layer block2_s1_2_conv1
I0809 17:22:57.865646 22897 net.cpp:100] Creating Layer block2_s1_2_conv1
I0809 17:22:57.865653 22897 net.cpp:434] block2_s1_2_conv1 <- block2_s1_1_eltwise_block2_s1_1_eltwise_ReLU_0_split_0
I0809 17:22:57.865660 22897 net.cpp:408] block2_s1_2_conv1 -> block2_s1_2_conv1
I0809 17:22:57.869120 22897 net.cpp:150] Setting up block2_s1_2_conv1
I0809 17:22:57.869155 22897 net.cpp:157] Top shape: 64 68 32 32 (4456448)
I0809 17:22:57.869163 22897 net.cpp:165] Memory required for data: 1374683392
I0809 17:22:57.869171 22897 layer_factory.hpp:77] Creating layer block2_s1_2_conv1_ReLU
I0809 17:22:57.869184 22897 net.cpp:100] Creating Layer block2_s1_2_conv1_ReLU
I0809 17:22:57.869191 22897 net.cpp:434] block2_s1_2_conv1_ReLU <- block2_s1_2_conv1
I0809 17:22:57.869199 22897 net.cpp:395] block2_s1_2_conv1_ReLU -> block2_s1_2_conv1 (in-place)
I0809 17:22:57.869971 22897 net.cpp:150] Setting up block2_s1_2_conv1_ReLU
I0809 17:22:57.869990 22897 net.cpp:157] Top shape: 64 68 32 32 (4456448)
I0809 17:22:57.869999 22897 net.cpp:165] Memory required for data: 1392509184
I0809 17:22:57.870005 22897 layer_factory.hpp:77] Creating layer shuffle_block2_s1_2
I0809 17:22:57.870013 22897 net.cpp:100] Creating Layer shuffle_block2_s1_2
I0809 17:22:57.870019 22897 net.cpp:434] shuffle_block2_s1_2 <- block2_s1_2_conv1
I0809 17:22:57.870026 22897 net.cpp:408] shuffle_block2_s1_2 -> shuffle_block2_s1_2
I0809 17:22:57.870055 22897 net.cpp:150] Setting up shuffle_block2_s1_2
I0809 17:22:57.870065 22897 net.cpp:157] Top shape: 64 68 32 32 (4456448)
I0809 17:22:57.870070 22897 net.cpp:165] Memory required for data: 1410334976
I0809 17:22:57.870076 22897 layer_factory.hpp:77] Creating layer block2_s1_2_conv2
I0809 17:22:57.870086 22897 net.cpp:100] Creating Layer block2_s1_2_conv2
I0809 17:22:57.870092 22897 net.cpp:434] block2_s1_2_conv2 <- shuffle_block2_s1_2
I0809 17:22:57.870100 22897 net.cpp:408] block2_s1_2_conv2 -> block2_s1_2_conv2
I0809 17:22:57.870281 22897 net.cpp:150] Setting up block2_s1_2_conv2
I0809 17:22:57.870296 22897 net.cpp:157] Top shape: 64 68 32 32 (4456448)
I0809 17:22:57.870301 22897 net.cpp:165] Memory required for data: 1428160768
I0809 17:22:57.870313 22897 layer_factory.hpp:77] Creating layer block2_s1_2_conv2_ReLU
I0809 17:22:57.870322 22897 net.cpp:100] Creating Layer block2_s1_2_conv2_ReLU
I0809 17:22:57.870328 22897 net.cpp:434] block2_s1_2_conv2_ReLU <- block2_s1_2_conv2
I0809 17:22:57.870334 22897 net.cpp:395] block2_s1_2_conv2_ReLU -> block2_s1_2_conv2 (in-place)
I0809 17:22:57.870999 22897 net.cpp:150] Setting up block2_s1_2_conv2_ReLU
I0809 17:22:57.871016 22897 net.cpp:157] Top shape: 64 68 32 32 (4456448)
I0809 17:22:57.871022 22897 net.cpp:165] Memory required for data: 1445986560
I0809 17:22:57.871028 22897 layer_factory.hpp:77] Creating layer block2_s1_2_conv3
I0809 17:22:57.871042 22897 net.cpp:100] Creating Layer block2_s1_2_conv3
I0809 17:22:57.871047 22897 net.cpp:434] block2_s1_2_conv3 <- block2_s1_2_conv2
I0809 17:22:57.871057 22897 net.cpp:408] block2_s1_2_conv3 -> block2_s1_2_conv3
I0809 17:22:57.874994 22897 net.cpp:150] Setting up block2_s1_2_conv3
I0809 17:22:57.875015 22897 net.cpp:157] Top shape: 64 272 32 32 (17825792)
I0809 17:22:57.875020 22897 net.cpp:165] Memory required for data: 1517289728
I0809 17:22:57.875030 22897 layer_factory.hpp:77] Creating layer block2_s1_2_eltwise
I0809 17:22:57.875038 22897 net.cpp:100] Creating Layer block2_s1_2_eltwise
I0809 17:22:57.875043 22897 net.cpp:434] block2_s1_2_eltwise <- block2_s1_1_eltwise_block2_s1_1_eltwise_ReLU_0_split_1
I0809 17:22:57.875051 22897 net.cpp:434] block2_s1_2_eltwise <- block2_s1_2_conv3
I0809 17:22:57.875059 22897 net.cpp:408] block2_s1_2_eltwise -> block2_s1_2_eltwise
I0809 17:22:57.875089 22897 net.cpp:150] Setting up block2_s1_2_eltwise
I0809 17:22:57.875098 22897 net.cpp:157] Top shape: 64 272 32 32 (17825792)
I0809 17:22:57.875103 22897 net.cpp:165] Memory required for data: 1588592896
I0809 17:22:57.875118 22897 layer_factory.hpp:77] Creating layer block2_s1_2_eltwise_ReLU
I0809 17:22:57.875126 22897 net.cpp:100] Creating Layer block2_s1_2_eltwise_ReLU
I0809 17:22:57.875133 22897 net.cpp:434] block2_s1_2_eltwise_ReLU <- block2_s1_2_eltwise
I0809 17:22:57.875138 22897 net.cpp:395] block2_s1_2_eltwise_ReLU -> block2_s1_2_eltwise (in-place)
I0809 17:22:57.875797 22897 net.cpp:150] Setting up block2_s1_2_eltwise_ReLU
I0809 17:22:57.875815 22897 net.cpp:157] Top shape: 64 272 32 32 (17825792)
I0809 17:22:57.875823 22897 net.cpp:165] Memory required for data: 1659896064
I0809 17:22:57.875828 22897 layer_factory.hpp:77] Creating layer block2_s1_2_eltwise_block2_s1_2_eltwise_ReLU_0_split
I0809 17:22:57.875841 22897 net.cpp:100] Creating Layer block2_s1_2_eltwise_block2_s1_2_eltwise_ReLU_0_split
I0809 17:22:57.875847 22897 net.cpp:434] block2_s1_2_eltwise_block2_s1_2_eltwise_ReLU_0_split <- block2_s1_2_eltwise
I0809 17:22:57.875855 22897 net.cpp:408] block2_s1_2_eltwise_block2_s1_2_eltwise_ReLU_0_split -> block2_s1_2_eltwise_block2_s1_2_eltwise_ReLU_0_split_0
I0809 17:22:57.875864 22897 net.cpp:408] block2_s1_2_eltwise_block2_s1_2_eltwise_ReLU_0_split -> block2_s1_2_eltwise_block2_s1_2_eltwise_ReLU_0_split_1
I0809 17:22:57.875901 22897 net.cpp:150] Setting up block2_s1_2_eltwise_block2_s1_2_eltwise_ReLU_0_split
I0809 17:22:57.875910 22897 net.cpp:157] Top shape: 64 272 32 32 (17825792)
I0809 17:22:57.875916 22897 net.cpp:157] Top shape: 64 272 32 32 (17825792)
I0809 17:22:57.875921 22897 net.cpp:165] Memory required for data: 1802502400
I0809 17:22:57.875926 22897 layer_factory.hpp:77] Creating layer block2_s1_3_conv1
I0809 17:22:57.875937 22897 net.cpp:100] Creating Layer block2_s1_3_conv1
I0809 17:22:57.875943 22897 net.cpp:434] block2_s1_3_conv1 <- block2_s1_2_eltwise_block2_s1_2_eltwise_ReLU_0_split_0
I0809 17:22:57.875952 22897 net.cpp:408] block2_s1_3_conv1 -> block2_s1_3_conv1
I0809 17:22:57.879516 22897 net.cpp:150] Setting up block2_s1_3_conv1
I0809 17:22:57.879540 22897 net.cpp:157] Top shape: 64 68 32 32 (4456448)
I0809 17:22:57.879547 22897 net.cpp:165] Memory required for data: 1820328192
I0809 17:22:57.879555 22897 layer_factory.hpp:77] Creating layer block2_s1_3_conv1_ReLU
I0809 17:22:57.879565 22897 net.cpp:100] Creating Layer block2_s1_3_conv1_ReLU
I0809 17:22:57.879585 22897 net.cpp:434] block2_s1_3_conv1_ReLU <- block2_s1_3_conv1
I0809 17:22:57.879592 22897 net.cpp:395] block2_s1_3_conv1_ReLU -> block2_s1_3_conv1 (in-place)
I0809 17:22:57.880336 22897 net.cpp:150] Setting up block2_s1_3_conv1_ReLU
I0809 17:22:57.880353 22897 net.cpp:157] Top shape: 64 68 32 32 (4456448)
I0809 17:22:57.880359 22897 net.cpp:165] Memory required for data: 1838153984
I0809 17:22:57.880365 22897 layer_factory.hpp:77] Creating layer shuffle_block2_s1_3
I0809 17:22:57.880375 22897 net.cpp:100] Creating Layer shuffle_block2_s1_3
I0809 17:22:57.880381 22897 net.cpp:434] shuffle_block2_s1_3 <- block2_s1_3_conv1
I0809 17:22:57.880390 22897 net.cpp:408] shuffle_block2_s1_3 -> shuffle_block2_s1_3
I0809 17:22:57.880416 22897 net.cpp:150] Setting up shuffle_block2_s1_3
I0809 17:22:57.880424 22897 net.cpp:157] Top shape: 64 68 32 32 (4456448)
I0809 17:22:57.880429 22897 net.cpp:165] Memory required for data: 1855979776
I0809 17:22:57.880434 22897 layer_factory.hpp:77] Creating layer block2_s1_3_conv2
I0809 17:22:57.880445 22897 net.cpp:100] Creating Layer block2_s1_3_conv2
I0809 17:22:57.880452 22897 net.cpp:434] block2_s1_3_conv2 <- shuffle_block2_s1_3
I0809 17:22:57.880460 22897 net.cpp:408] block2_s1_3_conv2 -> block2_s1_3_conv2
I0809 17:22:57.880630 22897 net.cpp:150] Setting up block2_s1_3_conv2
I0809 17:22:57.880643 22897 net.cpp:157] Top shape: 64 68 32 32 (4456448)
I0809 17:22:57.880650 22897 net.cpp:165] Memory required for data: 1873805568
I0809 17:22:57.880657 22897 layer_factory.hpp:77] Creating layer block2_s1_3_conv2_ReLU
I0809 17:22:57.880666 22897 net.cpp:100] Creating Layer block2_s1_3_conv2_ReLU
I0809 17:22:57.880672 22897 net.cpp:434] block2_s1_3_conv2_ReLU <- block2_s1_3_conv2
I0809 17:22:57.880689 22897 net.cpp:395] block2_s1_3_conv2_ReLU -> block2_s1_3_conv2 (in-place)
I0809 17:22:57.880830 22897 net.cpp:150] Setting up block2_s1_3_conv2_ReLU
I0809 17:22:57.880842 22897 net.cpp:157] Top shape: 64 68 32 32 (4456448)
I0809 17:22:57.880847 22897 net.cpp:165] Memory required for data: 1891631360
I0809 17:22:57.880852 22897 layer_factory.hpp:77] Creating layer block2_s1_3_conv3
I0809 17:22:57.880866 22897 net.cpp:100] Creating Layer block2_s1_3_conv3
I0809 17:22:57.880872 22897 net.cpp:434] block2_s1_3_conv3 <- block2_s1_3_conv2
I0809 17:22:57.880879 22897 net.cpp:408] block2_s1_3_conv3 -> block2_s1_3_conv3
I0809 17:22:57.884351 22897 net.cpp:150] Setting up block2_s1_3_conv3
I0809 17:22:57.884371 22897 net.cpp:157] Top shape: 64 272 32 32 (17825792)
I0809 17:22:57.884377 22897 net.cpp:165] Memory required for data: 1962934528
I0809 17:22:57.884385 22897 layer_factory.hpp:77] Creating layer block2_s1_3_eltwise
I0809 17:22:57.884397 22897 net.cpp:100] Creating Layer block2_s1_3_eltwise
I0809 17:22:57.884402 22897 net.cpp:434] block2_s1_3_eltwise <- block2_s1_2_eltwise_block2_s1_2_eltwise_ReLU_0_split_1
I0809 17:22:57.884409 22897 net.cpp:434] block2_s1_3_eltwise <- block2_s1_3_conv3
I0809 17:22:57.884418 22897 net.cpp:408] block2_s1_3_eltwise -> block2_s1_3_eltwise
I0809 17:22:57.884445 22897 net.cpp:150] Setting up block2_s1_3_eltwise
I0809 17:22:57.884456 22897 net.cpp:157] Top shape: 64 272 32 32 (17825792)
I0809 17:22:57.884461 22897 net.cpp:165] Memory required for data: 2034237696
I0809 17:22:57.884466 22897 layer_factory.hpp:77] Creating layer block2_s1_3_eltwise_ReLU
I0809 17:22:57.884474 22897 net.cpp:100] Creating Layer block2_s1_3_eltwise_ReLU
I0809 17:22:57.884479 22897 net.cpp:434] block2_s1_3_eltwise_ReLU <- block2_s1_3_eltwise
I0809 17:22:57.884486 22897 net.cpp:395] block2_s1_3_eltwise_ReLU -> block2_s1_3_eltwise (in-place)
I0809 17:22:57.885198 22897 net.cpp:150] Setting up block2_s1_3_eltwise_ReLU
I0809 17:22:57.885217 22897 net.cpp:157] Top shape: 64 272 32 32 (17825792)
I0809 17:22:57.885224 22897 net.cpp:165] Memory required for data: 2105540864
I0809 17:22:57.885231 22897 layer_factory.hpp:77] Creating layer block2_s1_3_eltwise_block2_s1_3_eltwise_ReLU_0_split
I0809 17:22:57.885239 22897 net.cpp:100] Creating Layer block2_s1_3_eltwise_block2_s1_3_eltwise_ReLU_0_split
I0809 17:22:57.885246 22897 net.cpp:434] block2_s1_3_eltwise_block2_s1_3_eltwise_ReLU_0_split <- block2_s1_3_eltwise
I0809 17:22:57.885255 22897 net.cpp:408] block2_s1_3_eltwise_block2_s1_3_eltwise_ReLU_0_split -> block2_s1_3_eltwise_block2_s1_3_eltwise_ReLU_0_split_0
I0809 17:22:57.885264 22897 net.cpp:408] block2_s1_3_eltwise_block2_s1_3_eltwise_ReLU_0_split -> block2_s1_3_eltwise_block2_s1_3_eltwise_ReLU_0_split_1
I0809 17:22:57.885304 22897 net.cpp:150] Setting up block2_s1_3_eltwise_block2_s1_3_eltwise_ReLU_0_split
I0809 17:22:57.885314 22897 net.cpp:157] Top shape: 64 272 32 32 (17825792)
I0809 17:22:57.885320 22897 net.cpp:157] Top shape: 64 272 32 32 (17825792)
I0809 17:22:57.885325 22897 net.cpp:165] Memory required for data: 2248147200
I0809 17:22:57.885330 22897 layer_factory.hpp:77] Creating layer block3_s2_pool
I0809 17:22:57.885340 22897 net.cpp:100] Creating Layer block3_s2_pool
I0809 17:22:57.885347 22897 net.cpp:434] block3_s2_pool <- block2_s1_3_eltwise_block2_s1_3_eltwise_ReLU_0_split_0
I0809 17:22:57.885354 22897 net.cpp:408] block3_s2_pool -> block3_s2_pool
I0809 17:22:57.885390 22897 net.cpp:150] Setting up block3_s2_pool
I0809 17:22:57.885399 22897 net.cpp:157] Top shape: 64 272 16 16 (4456448)
I0809 17:22:57.885404 22897 net.cpp:165] Memory required for data: 2265972992
I0809 17:22:57.885424 22897 layer_factory.hpp:77] Creating layer block3_s2_conv1
I0809 17:22:57.885437 22897 net.cpp:100] Creating Layer block3_s2_conv1
I0809 17:22:57.885458 22897 net.cpp:434] block3_s2_conv1 <- block2_s1_3_eltwise_block2_s1_3_eltwise_ReLU_0_split_1
I0809 17:22:57.885468 22897 net.cpp:408] block3_s2_conv1 -> block3_s2_conv1
I0809 17:22:57.888927 22897 net.cpp:150] Setting up block3_s2_conv1
I0809 17:22:57.888959 22897 net.cpp:157] Top shape: 64 68 32 32 (4456448)
I0809 17:22:57.888967 22897 net.cpp:165] Memory required for data: 2283798784
I0809 17:22:57.888974 22897 layer_factory.hpp:77] Creating layer block3_s2_conv1_ReLU
I0809 17:22:57.888983 22897 net.cpp:100] Creating Layer block3_s2_conv1_ReLU
I0809 17:22:57.888989 22897 net.cpp:434] block3_s2_conv1_ReLU <- block3_s2_conv1
I0809 17:22:57.888998 22897 net.cpp:395] block3_s2_conv1_ReLU -> block3_s2_conv1 (in-place)
I0809 17:22:57.889757 22897 net.cpp:150] Setting up block3_s2_conv1_ReLU
I0809 17:22:57.889792 22897 net.cpp:157] Top shape: 64 68 32 32 (4456448)
I0809 17:22:57.889798 22897 net.cpp:165] Memory required for data: 2301624576
I0809 17:22:57.889804 22897 layer_factory.hpp:77] Creating layer shuffle_block3_s2
I0809 17:22:57.889812 22897 net.cpp:100] Creating Layer shuffle_block3_s2
I0809 17:22:57.889819 22897 net.cpp:434] shuffle_block3_s2 <- block3_s2_conv1
I0809 17:22:57.889828 22897 net.cpp:408] shuffle_block3_s2 -> shuffle_block3_s2
I0809 17:22:57.889856 22897 net.cpp:150] Setting up shuffle_block3_s2
I0809 17:22:57.889868 22897 net.cpp:157] Top shape: 64 68 32 32 (4456448)
I0809 17:22:57.889873 22897 net.cpp:165] Memory required for data: 2319450368
I0809 17:22:57.889878 22897 layer_factory.hpp:77] Creating layer block3_s2_conv2
I0809 17:22:57.889886 22897 net.cpp:100] Creating Layer block3_s2_conv2
I0809 17:22:57.889891 22897 net.cpp:434] block3_s2_conv2 <- shuffle_block3_s2
I0809 17:22:57.889900 22897 net.cpp:408] block3_s2_conv2 -> block3_s2_conv2
I0809 17:22:57.890105 22897 net.cpp:150] Setting up block3_s2_conv2
I0809 17:22:57.890121 22897 net.cpp:157] Top shape: 64 68 16 16 (1114112)
I0809 17:22:57.890127 22897 net.cpp:165] Memory required for data: 2323906816
I0809 17:22:57.890136 22897 layer_factory.hpp:77] Creating layer block3_s2_conv2_ReLU
I0809 17:22:57.890143 22897 net.cpp:100] Creating Layer block3_s2_conv2_ReLU
I0809 17:22:57.890151 22897 net.cpp:434] block3_s2_conv2_ReLU <- block3_s2_conv2
I0809 17:22:57.890157 22897 net.cpp:395] block3_s2_conv2_ReLU -> block3_s2_conv2 (in-place)
I0809 17:22:57.890323 22897 net.cpp:150] Setting up block3_s2_conv2_ReLU
I0809 17:22:57.890337 22897 net.cpp:157] Top shape: 64 68 16 16 (1114112)
I0809 17:22:57.890343 22897 net.cpp:165] Memory required for data: 2328363264
I0809 17:22:57.890348 22897 layer_factory.hpp:77] Creating layer block3_s2_conv3
I0809 17:22:57.890359 22897 net.cpp:100] Creating Layer block3_s2_conv3
I0809 17:22:57.890367 22897 net.cpp:434] block3_s2_conv3 <- block3_s2_conv2
I0809 17:22:57.890373 22897 net.cpp:408] block3_s2_conv3 -> block3_s2_conv3
I0809 17:22:57.894507 22897 net.cpp:150] Setting up block3_s2_conv3
I0809 17:22:57.894527 22897 net.cpp:157] Top shape: 64 272 16 16 (4456448)
I0809 17:22:57.894533 22897 net.cpp:165] Memory required for data: 2346189056
I0809 17:22:57.894541 22897 layer_factory.hpp:77] Creating layer block3_s2_concat
I0809 17:22:57.894551 22897 net.cpp:100] Creating Layer block3_s2_concat
I0809 17:22:57.894557 22897 net.cpp:434] block3_s2_concat <- block3_s2_pool
I0809 17:22:57.894564 22897 net.cpp:434] block3_s2_concat <- block3_s2_conv3
I0809 17:22:57.894572 22897 net.cpp:408] block3_s2_concat -> block3_s2_concat
I0809 17:22:57.894596 22897 net.cpp:150] Setting up block3_s2_concat
I0809 17:22:57.894604 22897 net.cpp:157] Top shape: 64 544 16 16 (8912896)
I0809 17:22:57.894609 22897 net.cpp:165] Memory required for data: 2381840640
I0809 17:22:57.894614 22897 layer_factory.hpp:77] Creating layer block3_s2_concat_ReLU
I0809 17:22:57.894621 22897 net.cpp:100] Creating Layer block3_s2_concat_ReLU
I0809 17:22:57.894626 22897 net.cpp:434] block3_s2_concat_ReLU <- block3_s2_concat
I0809 17:22:57.894634 22897 net.cpp:395] block3_s2_concat_ReLU -> block3_s2_concat (in-place)
I0809 17:22:57.895301 22897 net.cpp:150] Setting up block3_s2_concat_ReLU
I0809 17:22:57.895320 22897 net.cpp:157] Top shape: 64 544 16 16 (8912896)
I0809 17:22:57.895325 22897 net.cpp:165] Memory required for data: 2417492224
I0809 17:22:57.895331 22897 layer_factory.hpp:77] Creating layer block3_s2_concat_block3_s2_concat_ReLU_0_split
I0809 17:22:57.895350 22897 net.cpp:100] Creating Layer block3_s2_concat_block3_s2_concat_ReLU_0_split
I0809 17:22:57.895359 22897 net.cpp:434] block3_s2_concat_block3_s2_concat_ReLU_0_split <- block3_s2_concat
I0809 17:22:57.895364 22897 net.cpp:408] block3_s2_concat_block3_s2_concat_ReLU_0_split -> block3_s2_concat_block3_s2_concat_ReLU_0_split_0
I0809 17:22:57.895372 22897 net.cpp:408] block3_s2_concat_block3_s2_concat_ReLU_0_split -> block3_s2_concat_block3_s2_concat_ReLU_0_split_1
I0809 17:22:57.895412 22897 net.cpp:150] Setting up block3_s2_concat_block3_s2_concat_ReLU_0_split
I0809 17:22:57.895421 22897 net.cpp:157] Top shape: 64 544 16 16 (8912896)
I0809 17:22:57.895427 22897 net.cpp:157] Top shape: 64 544 16 16 (8912896)
I0809 17:22:57.895431 22897 net.cpp:165] Memory required for data: 2488795392
I0809 17:22:57.895437 22897 layer_factory.hpp:77] Creating layer block3_s1_1_conv1
I0809 17:22:57.895448 22897 net.cpp:100] Creating Layer block3_s1_1_conv1
I0809 17:22:57.895454 22897 net.cpp:434] block3_s1_1_conv1 <- block3_s2_concat_block3_s2_concat_ReLU_0_split_0
I0809 17:22:57.895463 22897 net.cpp:408] block3_s1_1_conv1 -> block3_s1_1_conv1
I0809 17:22:57.900192 22897 net.cpp:150] Setting up block3_s1_1_conv1
I0809 17:22:57.900228 22897 net.cpp:157] Top shape: 64 136 16 16 (2228224)
I0809 17:22:57.900234 22897 net.cpp:165] Memory required for data: 2497708288
I0809 17:22:57.900249 22897 layer_factory.hpp:77] Creating layer block3_s1_1_conv1_ReLU
I0809 17:22:57.900259 22897 net.cpp:100] Creating Layer block3_s1_1_conv1_ReLU
I0809 17:22:57.900266 22897 net.cpp:434] block3_s1_1_conv1_ReLU <- block3_s1_1_conv1
I0809 17:22:57.900274 22897 net.cpp:395] block3_s1_1_conv1_ReLU -> block3_s1_1_conv1 (in-place)
I0809 17:22:57.900967 22897 net.cpp:150] Setting up block3_s1_1_conv1_ReLU
I0809 17:22:57.900985 22897 net.cpp:157] Top shape: 64 136 16 16 (2228224)
I0809 17:22:57.900991 22897 net.cpp:165] Memory required for data: 2506621184
I0809 17:22:57.900996 22897 layer_factory.hpp:77] Creating layer shuffle_block3_s1_1
I0809 17:22:57.901006 22897 net.cpp:100] Creating Layer shuffle_block3_s1_1
I0809 17:22:57.901012 22897 net.cpp:434] shuffle_block3_s1_1 <- block3_s1_1_conv1
I0809 17:22:57.901021 22897 net.cpp:408] shuffle_block3_s1_1 -> shuffle_block3_s1_1
I0809 17:22:57.901046 22897 net.cpp:150] Setting up shuffle_block3_s1_1
I0809 17:22:57.901054 22897 net.cpp:157] Top shape: 64 136 16 16 (2228224)
I0809 17:22:57.901082 22897 net.cpp:165] Memory required for data: 2515534080
I0809 17:22:57.901088 22897 layer_factory.hpp:77] Creating layer block3_s1_1_conv2
I0809 17:22:57.901099 22897 net.cpp:100] Creating Layer block3_s1_1_conv2
I0809 17:22:57.901123 22897 net.cpp:434] block3_s1_1_conv2 <- shuffle_block3_s1_1
I0809 17:22:57.901131 22897 net.cpp:408] block3_s1_1_conv2 -> block3_s1_1_conv2
I0809 17:22:57.901334 22897 net.cpp:150] Setting up block3_s1_1_conv2
I0809 17:22:57.901350 22897 net.cpp:157] Top shape: 64 136 16 16 (2228224)
I0809 17:22:57.901355 22897 net.cpp:165] Memory required for data: 2524446976
I0809 17:22:57.901363 22897 layer_factory.hpp:77] Creating layer block3_s1_1_conv2_ReLU
I0809 17:22:57.901372 22897 net.cpp:100] Creating Layer block3_s1_1_conv2_ReLU
I0809 17:22:57.901378 22897 net.cpp:434] block3_s1_1_conv2_ReLU <- block3_s1_1_conv2
I0809 17:22:57.901387 22897 net.cpp:395] block3_s1_1_conv2_ReLU -> block3_s1_1_conv2 (in-place)
I0809 17:22:57.901566 22897 net.cpp:150] Setting up block3_s1_1_conv2_ReLU
I0809 17:22:57.901578 22897 net.cpp:157] Top shape: 64 136 16 16 (2228224)
I0809 17:22:57.901584 22897 net.cpp:165] Memory required for data: 2533359872
I0809 17:22:57.901589 22897 layer_factory.hpp:77] Creating layer block3_s1_1_conv3
I0809 17:22:57.901602 22897 net.cpp:100] Creating Layer block3_s1_1_conv3
I0809 17:22:57.901607 22897 net.cpp:434] block3_s1_1_conv3 <- block3_s1_1_conv2
I0809 17:22:57.901617 22897 net.cpp:408] block3_s1_1_conv3 -> block3_s1_1_conv3
I0809 17:22:57.905380 22897 net.cpp:150] Setting up block3_s1_1_conv3
I0809 17:22:57.905411 22897 net.cpp:157] Top shape: 64 544 16 16 (8912896)
I0809 17:22:57.905418 22897 net.cpp:165] Memory required for data: 2569011456
I0809 17:22:57.905426 22897 layer_factory.hpp:77] Creating layer block3_s1_1_eltwise
I0809 17:22:57.905434 22897 net.cpp:100] Creating Layer block3_s1_1_eltwise
I0809 17:22:57.905441 22897 net.cpp:434] block3_s1_1_eltwise <- block3_s2_concat_block3_s2_concat_ReLU_0_split_1
I0809 17:22:57.905450 22897 net.cpp:434] block3_s1_1_eltwise <- block3_s1_1_conv3
I0809 17:22:57.905457 22897 net.cpp:408] block3_s1_1_eltwise -> block3_s1_1_eltwise
I0809 17:22:57.905481 22897 net.cpp:150] Setting up block3_s1_1_eltwise
I0809 17:22:57.905491 22897 net.cpp:157] Top shape: 64 544 16 16 (8912896)
I0809 17:22:57.905496 22897 net.cpp:165] Memory required for data: 2604663040
I0809 17:22:57.905501 22897 layer_factory.hpp:77] Creating layer block3_s1_1_eltwise_ReLU
I0809 17:22:57.905508 22897 net.cpp:100] Creating Layer block3_s1_1_eltwise_ReLU
I0809 17:22:57.905514 22897 net.cpp:434] block3_s1_1_eltwise_ReLU <- block3_s1_1_eltwise
I0809 17:22:57.905519 22897 net.cpp:395] block3_s1_1_eltwise_ReLU -> block3_s1_1_eltwise (in-place)
I0809 17:22:57.906194 22897 net.cpp:150] Setting up block3_s1_1_eltwise_ReLU
I0809 17:22:57.906213 22897 net.cpp:157] Top shape: 64 544 16 16 (8912896)
I0809 17:22:57.906219 22897 net.cpp:165] Memory required for data: 2640314624
I0809 17:22:57.906224 22897 layer_factory.hpp:77] Creating layer block3_s1_1_eltwise_block3_s1_1_eltwise_ReLU_0_split
I0809 17:22:57.906232 22897 net.cpp:100] Creating Layer block3_s1_1_eltwise_block3_s1_1_eltwise_ReLU_0_split
I0809 17:22:57.906237 22897 net.cpp:434] block3_s1_1_eltwise_block3_s1_1_eltwise_ReLU_0_split <- block3_s1_1_eltwise
I0809 17:22:57.906246 22897 net.cpp:408] block3_s1_1_eltwise_block3_s1_1_eltwise_ReLU_0_split -> block3_s1_1_eltwise_block3_s1_1_eltwise_ReLU_0_split_0
I0809 17:22:57.906255 22897 net.cpp:408] block3_s1_1_eltwise_block3_s1_1_eltwise_ReLU_0_split -> block3_s1_1_eltwise_block3_s1_1_eltwise_ReLU_0_split_1
I0809 17:22:57.906294 22897 net.cpp:150] Setting up block3_s1_1_eltwise_block3_s1_1_eltwise_ReLU_0_split
I0809 17:22:57.906306 22897 net.cpp:157] Top shape: 64 544 16 16 (8912896)
I0809 17:22:57.906311 22897 net.cpp:157] Top shape: 64 544 16 16 (8912896)
I0809 17:22:57.906316 22897 net.cpp:165] Memory required for data: 2711617792
I0809 17:22:57.906321 22897 layer_factory.hpp:77] Creating layer block3_s1_2_conv1
I0809 17:22:57.906332 22897 net.cpp:100] Creating Layer block3_s1_2_conv1
I0809 17:22:57.906339 22897 net.cpp:434] block3_s1_2_conv1 <- block3_s1_1_eltwise_block3_s1_1_eltwise_ReLU_0_split_0
I0809 17:22:57.906347 22897 net.cpp:408] block3_s1_2_conv1 -> block3_s1_2_conv1
I0809 17:22:57.910276 22897 net.cpp:150] Setting up block3_s1_2_conv1
I0809 17:22:57.910300 22897 net.cpp:157] Top shape: 64 136 16 16 (2228224)
I0809 17:22:57.910305 22897 net.cpp:165] Memory required for data: 2720530688
I0809 17:22:57.910315 22897 layer_factory.hpp:77] Creating layer block3_s1_2_conv1_ReLU
I0809 17:22:57.910326 22897 net.cpp:100] Creating Layer block3_s1_2_conv1_ReLU
I0809 17:22:57.910331 22897 net.cpp:434] block3_s1_2_conv1_ReLU <- block3_s1_2_conv1
I0809 17:22:57.910338 22897 net.cpp:395] block3_s1_2_conv1_ReLU -> block3_s1_2_conv1 (in-place)
I0809 17:22:57.911061 22897 net.cpp:150] Setting up block3_s1_2_conv1_ReLU
I0809 17:22:57.911079 22897 net.cpp:157] Top shape: 64 136 16 16 (2228224)
I0809 17:22:57.911087 22897 net.cpp:165] Memory required for data: 2729443584
I0809 17:22:57.911092 22897 layer_factory.hpp:77] Creating layer shuffle_block3_s1_2
I0809 17:22:57.911103 22897 net.cpp:100] Creating Layer shuffle_block3_s1_2
I0809 17:22:57.911108 22897 net.cpp:434] shuffle_block3_s1_2 <- block3_s1_2_conv1
I0809 17:22:57.911116 22897 net.cpp:408] shuffle_block3_s1_2 -> shuffle_block3_s1_2
I0809 17:22:57.911144 22897 net.cpp:150] Setting up shuffle_block3_s1_2
I0809 17:22:57.911154 22897 net.cpp:157] Top shape: 64 136 16 16 (2228224)
I0809 17:22:57.911157 22897 net.cpp:165] Memory required for data: 2738356480
I0809 17:22:57.911175 22897 layer_factory.hpp:77] Creating layer block3_s1_2_conv2
I0809 17:22:57.911206 22897 net.cpp:100] Creating Layer block3_s1_2_conv2
I0809 17:22:57.911212 22897 net.cpp:434] block3_s1_2_conv2 <- shuffle_block3_s1_2
I0809 17:22:57.911221 22897 net.cpp:408] block3_s1_2_conv2 -> block3_s1_2_conv2
I0809 17:22:57.911417 22897 net.cpp:150] Setting up block3_s1_2_conv2
I0809 17:22:57.911432 22897 net.cpp:157] Top shape: 64 136 16 16 (2228224)
I0809 17:22:57.911437 22897 net.cpp:165] Memory required for data: 2747269376
I0809 17:22:57.911444 22897 layer_factory.hpp:77] Creating layer block3_s1_2_conv2_ReLU
I0809 17:22:57.911453 22897 net.cpp:100] Creating Layer block3_s1_2_conv2_ReLU
I0809 17:22:57.911458 22897 net.cpp:434] block3_s1_2_conv2_ReLU <- block3_s1_2_conv2
I0809 17:22:57.911464 22897 net.cpp:395] block3_s1_2_conv2_ReLU -> block3_s1_2_conv2 (in-place)
I0809 17:22:57.911612 22897 net.cpp:150] Setting up block3_s1_2_conv2_ReLU
I0809 17:22:57.911625 22897 net.cpp:157] Top shape: 64 136 16 16 (2228224)
I0809 17:22:57.911631 22897 net.cpp:165] Memory required for data: 2756182272
I0809 17:22:57.911636 22897 layer_factory.hpp:77] Creating layer block3_s1_2_conv3
I0809 17:22:57.911648 22897 net.cpp:100] Creating Layer block3_s1_2_conv3
I0809 17:22:57.911654 22897 net.cpp:434] block3_s1_2_conv3 <- block3_s1_2_conv2
I0809 17:22:57.911664 22897 net.cpp:408] block3_s1_2_conv3 -> block3_s1_2_conv3
I0809 17:22:57.915973 22897 net.cpp:150] Setting up block3_s1_2_conv3
I0809 17:22:57.915993 22897 net.cpp:157] Top shape: 64 544 16 16 (8912896)
I0809 17:22:57.915999 22897 net.cpp:165] Memory required for data: 2791833856
I0809 17:22:57.916008 22897 layer_factory.hpp:77] Creating layer block3_s1_2_eltwise
I0809 17:22:57.916018 22897 net.cpp:100] Creating Layer block3_s1_2_eltwise
I0809 17:22:57.916024 22897 net.cpp:434] block3_s1_2_eltwise <- block3_s1_1_eltwise_block3_s1_1_eltwise_ReLU_0_split_1
I0809 17:22:57.916033 22897 net.cpp:434] block3_s1_2_eltwise <- block3_s1_2_conv3
I0809 17:22:57.916039 22897 net.cpp:408] block3_s1_2_eltwise -> block3_s1_2_eltwise
I0809 17:22:57.916064 22897 net.cpp:150] Setting up block3_s1_2_eltwise
I0809 17:22:57.916074 22897 net.cpp:157] Top shape: 64 544 16 16 (8912896)
I0809 17:22:57.916079 22897 net.cpp:165] Memory required for data: 2827485440
I0809 17:22:57.916084 22897 layer_factory.hpp:77] Creating layer block3_s1_2_eltwise_ReLU
I0809 17:22:57.916090 22897 net.cpp:100] Creating Layer block3_s1_2_eltwise_ReLU
I0809 17:22:57.916096 22897 net.cpp:434] block3_s1_2_eltwise_ReLU <- block3_s1_2_eltwise
I0809 17:22:57.916102 22897 net.cpp:395] block3_s1_2_eltwise_ReLU -> block3_s1_2_eltwise (in-place)
I0809 17:22:57.916776 22897 net.cpp:150] Setting up block3_s1_2_eltwise_ReLU
I0809 17:22:57.916795 22897 net.cpp:157] Top shape: 64 544 16 16 (8912896)
I0809 17:22:57.916800 22897 net.cpp:165] Memory required for data: 2863137024
I0809 17:22:57.916806 22897 layer_factory.hpp:77] Creating layer block3_s1_2_eltwise_block3_s1_2_eltwise_ReLU_0_split
I0809 17:22:57.916815 22897 net.cpp:100] Creating Layer block3_s1_2_eltwise_block3_s1_2_eltwise_ReLU_0_split
I0809 17:22:57.916820 22897 net.cpp:434] block3_s1_2_eltwise_block3_s1_2_eltwise_ReLU_0_split <- block3_s1_2_eltwise
I0809 17:22:57.916828 22897 net.cpp:408] block3_s1_2_eltwise_block3_s1_2_eltwise_ReLU_0_split -> block3_s1_2_eltwise_block3_s1_2_eltwise_ReLU_0_split_0
I0809 17:22:57.916837 22897 net.cpp:408] block3_s1_2_eltwise_block3_s1_2_eltwise_ReLU_0_split -> block3_s1_2_eltwise_block3_s1_2_eltwise_ReLU_0_split_1
I0809 17:22:57.916877 22897 net.cpp:150] Setting up block3_s1_2_eltwise_block3_s1_2_eltwise_ReLU_0_split
I0809 17:22:57.916887 22897 net.cpp:157] Top shape: 64 544 16 16 (8912896)
I0809 17:22:57.916893 22897 net.cpp:157] Top shape: 64 544 16 16 (8912896)
I0809 17:22:57.916898 22897 net.cpp:165] Memory required for data: 2934440192
I0809 17:22:57.916903 22897 layer_factory.hpp:77] Creating layer block3_s1_3_conv1
I0809 17:22:57.916914 22897 net.cpp:100] Creating Layer block3_s1_3_conv1
I0809 17:22:57.916920 22897 net.cpp:434] block3_s1_3_conv1 <- block3_s1_2_eltwise_block3_s1_2_eltwise_ReLU_0_split_0
I0809 17:22:57.916939 22897 net.cpp:408] block3_s1_3_conv1 -> block3_s1_3_conv1
I0809 17:22:57.920819 22897 net.cpp:150] Setting up block3_s1_3_conv1
I0809 17:22:57.920840 22897 net.cpp:157] Top shape: 64 136 16 16 (2228224)
I0809 17:22:57.920846 22897 net.cpp:165] Memory required for data: 2943353088
I0809 17:22:57.920855 22897 layer_factory.hpp:77] Creating layer block3_s1_3_conv1_ReLU
I0809 17:22:57.920864 22897 net.cpp:100] Creating Layer block3_s1_3_conv1_ReLU
I0809 17:22:57.920871 22897 net.cpp:434] block3_s1_3_conv1_ReLU <- block3_s1_3_conv1
I0809 17:22:57.920878 22897 net.cpp:395] block3_s1_3_conv1_ReLU -> block3_s1_3_conv1 (in-place)
I0809 17:22:57.921604 22897 net.cpp:150] Setting up block3_s1_3_conv1_ReLU
I0809 17:22:57.921622 22897 net.cpp:157] Top shape: 64 136 16 16 (2228224)
I0809 17:22:57.921629 22897 net.cpp:165] Memory required for data: 2952265984
I0809 17:22:57.921634 22897 layer_factory.hpp:77] Creating layer shuffle_block3_s1_3
I0809 17:22:57.921645 22897 net.cpp:100] Creating Layer shuffle_block3_s1_3
I0809 17:22:57.921650 22897 net.cpp:434] shuffle_block3_s1_3 <- block3_s1_3_conv1
I0809 17:22:57.921659 22897 net.cpp:408] shuffle_block3_s1_3 -> shuffle_block3_s1_3
I0809 17:22:57.921684 22897 net.cpp:150] Setting up shuffle_block3_s1_3
I0809 17:22:57.921694 22897 net.cpp:157] Top shape: 64 136 16 16 (2228224)
I0809 17:22:57.921697 22897 net.cpp:165] Memory required for data: 2961178880
I0809 17:22:57.921702 22897 layer_factory.hpp:77] Creating layer block3_s1_3_conv2
I0809 17:22:57.921715 22897 net.cpp:100] Creating Layer block3_s1_3_conv2
I0809 17:22:57.921721 22897 net.cpp:434] block3_s1_3_conv2 <- shuffle_block3_s1_3
I0809 17:22:57.921730 22897 net.cpp:408] block3_s1_3_conv2 -> block3_s1_3_conv2
I0809 17:22:57.921926 22897 net.cpp:150] Setting up block3_s1_3_conv2
I0809 17:22:57.921941 22897 net.cpp:157] Top shape: 64 136 16 16 (2228224)
I0809 17:22:57.921947 22897 net.cpp:165] Memory required for data: 2970091776
I0809 17:22:57.921953 22897 layer_factory.hpp:77] Creating layer block3_s1_3_conv2_ReLU
I0809 17:22:57.921962 22897 net.cpp:100] Creating Layer block3_s1_3_conv2_ReLU
I0809 17:22:57.921967 22897 net.cpp:434] block3_s1_3_conv2_ReLU <- block3_s1_3_conv2
I0809 17:22:57.921975 22897 net.cpp:395] block3_s1_3_conv2_ReLU -> block3_s1_3_conv2 (in-place)
I0809 17:22:57.922119 22897 net.cpp:150] Setting up block3_s1_3_conv2_ReLU
I0809 17:22:57.922133 22897 net.cpp:157] Top shape: 64 136 16 16 (2228224)
I0809 17:22:57.922138 22897 net.cpp:165] Memory required for data: 2979004672
I0809 17:22:57.922143 22897 layer_factory.hpp:77] Creating layer block3_s1_3_conv3
I0809 17:22:57.922157 22897 net.cpp:100] Creating Layer block3_s1_3_conv3
I0809 17:22:57.922163 22897 net.cpp:434] block3_s1_3_conv3 <- block3_s1_3_conv2
I0809 17:22:57.922170 22897 net.cpp:408] block3_s1_3_conv3 -> block3_s1_3_conv3
I0809 17:22:57.926060 22897 net.cpp:150] Setting up block3_s1_3_conv3
I0809 17:22:57.926081 22897 net.cpp:157] Top shape: 64 544 16 16 (8912896)
I0809 17:22:57.926087 22897 net.cpp:165] Memory required for data: 3014656256
I0809 17:22:57.926095 22897 layer_factory.hpp:77] Creating layer block3_s1_3_eltwise
I0809 17:22:57.926106 22897 net.cpp:100] Creating Layer block3_s1_3_eltwise
I0809 17:22:57.926112 22897 net.cpp:434] block3_s1_3_eltwise <- block3_s1_2_eltwise_block3_s1_2_eltwise_ReLU_0_split_1
I0809 17:22:57.926120 22897 net.cpp:434] block3_s1_3_eltwise <- block3_s1_3_conv3
I0809 17:22:57.926126 22897 net.cpp:408] block3_s1_3_eltwise -> block3_s1_3_eltwise
I0809 17:22:57.926151 22897 net.cpp:150] Setting up block3_s1_3_eltwise
I0809 17:22:57.926161 22897 net.cpp:157] Top shape: 64 544 16 16 (8912896)
I0809 17:22:57.926165 22897 net.cpp:165] Memory required for data: 3050307840
I0809 17:22:57.926170 22897 layer_factory.hpp:77] Creating layer block3_s1_3_eltwise_ReLU
I0809 17:22:57.926177 22897 net.cpp:100] Creating Layer block3_s1_3_eltwise_ReLU
I0809 17:22:57.926183 22897 net.cpp:434] block3_s1_3_eltwise_ReLU <- block3_s1_3_eltwise
I0809 17:22:57.926199 22897 net.cpp:395] block3_s1_3_eltwise_ReLU -> block3_s1_3_eltwise (in-place)
I0809 17:22:57.926874 22897 net.cpp:150] Setting up block3_s1_3_eltwise_ReLU
I0809 17:22:57.926892 22897 net.cpp:157] Top shape: 64 544 16 16 (8912896)
I0809 17:22:57.926898 22897 net.cpp:165] Memory required for data: 3085959424
I0809 17:22:57.926904 22897 layer_factory.hpp:77] Creating layer block3_s1_3_eltwise_block3_s1_3_eltwise_ReLU_0_split
I0809 17:22:57.926911 22897 net.cpp:100] Creating Layer block3_s1_3_eltwise_block3_s1_3_eltwise_ReLU_0_split
I0809 17:22:57.926919 22897 net.cpp:434] block3_s1_3_eltwise_block3_s1_3_eltwise_ReLU_0_split <- block3_s1_3_eltwise
I0809 17:22:57.926928 22897 net.cpp:408] block3_s1_3_eltwise_block3_s1_3_eltwise_ReLU_0_split -> block3_s1_3_eltwise_block3_s1_3_eltwise_ReLU_0_split_0
I0809 17:22:57.926935 22897 net.cpp:408] block3_s1_3_eltwise_block3_s1_3_eltwise_ReLU_0_split -> block3_s1_3_eltwise_block3_s1_3_eltwise_ReLU_0_split_1
I0809 17:22:57.926976 22897 net.cpp:150] Setting up block3_s1_3_eltwise_block3_s1_3_eltwise_ReLU_0_split
I0809 17:22:57.926985 22897 net.cpp:157] Top shape: 64 544 16 16 (8912896)
I0809 17:22:57.926991 22897 net.cpp:157] Top shape: 64 544 16 16 (8912896)
I0809 17:22:57.926995 22897 net.cpp:165] Memory required for data: 3157262592
I0809 17:22:57.927000 22897 layer_factory.hpp:77] Creating layer block3_s1_4_conv1
I0809 17:22:57.927012 22897 net.cpp:100] Creating Layer block3_s1_4_conv1
I0809 17:22:57.927018 22897 net.cpp:434] block3_s1_4_conv1 <- block3_s1_3_eltwise_block3_s1_3_eltwise_ReLU_0_split_0
I0809 17:22:57.927027 22897 net.cpp:408] block3_s1_4_conv1 -> block3_s1_4_conv1
I0809 17:22:57.930838 22897 net.cpp:150] Setting up block3_s1_4_conv1
I0809 17:22:57.930858 22897 net.cpp:157] Top shape: 64 136 16 16 (2228224)
I0809 17:22:57.930866 22897 net.cpp:165] Memory required for data: 3166175488
I0809 17:22:57.930873 22897 layer_factory.hpp:77] Creating layer block3_s1_4_conv1_ReLU
I0809 17:22:57.930883 22897 net.cpp:100] Creating Layer block3_s1_4_conv1_ReLU
I0809 17:22:57.930891 22897 net.cpp:434] block3_s1_4_conv1_ReLU <- block3_s1_4_conv1
I0809 17:22:57.930897 22897 net.cpp:395] block3_s1_4_conv1_ReLU -> block3_s1_4_conv1 (in-place)
I0809 17:22:57.931581 22897 net.cpp:150] Setting up block3_s1_4_conv1_ReLU
I0809 17:22:57.931599 22897 net.cpp:157] Top shape: 64 136 16 16 (2228224)
I0809 17:22:57.931605 22897 net.cpp:165] Memory required for data: 3175088384
I0809 17:22:57.931612 22897 layer_factory.hpp:77] Creating layer shuffle_block3_s1_4
I0809 17:22:57.931619 22897 net.cpp:100] Creating Layer shuffle_block3_s1_4
I0809 17:22:57.931625 22897 net.cpp:434] shuffle_block3_s1_4 <- block3_s1_4_conv1
I0809 17:22:57.931632 22897 net.cpp:408] shuffle_block3_s1_4 -> shuffle_block3_s1_4
I0809 17:22:57.931658 22897 net.cpp:150] Setting up shuffle_block3_s1_4
I0809 17:22:57.931668 22897 net.cpp:157] Top shape: 64 136 16 16 (2228224)
I0809 17:22:57.931674 22897 net.cpp:165] Memory required for data: 3184001280
I0809 17:22:57.931677 22897 layer_factory.hpp:77] Creating layer block3_s1_4_conv2
I0809 17:22:57.931687 22897 net.cpp:100] Creating Layer block3_s1_4_conv2
I0809 17:22:57.931694 22897 net.cpp:434] block3_s1_4_conv2 <- shuffle_block3_s1_4
I0809 17:22:57.931701 22897 net.cpp:408] block3_s1_4_conv2 -> block3_s1_4_conv2
I0809 17:22:57.932430 22897 net.cpp:150] Setting up block3_s1_4_conv2
I0809 17:22:57.932449 22897 net.cpp:157] Top shape: 64 136 16 16 (2228224)
I0809 17:22:57.932471 22897 net.cpp:165] Memory required for data: 3192914176
I0809 17:22:57.932479 22897 layer_factory.hpp:77] Creating layer block3_s1_4_conv2_ReLU
I0809 17:22:57.932490 22897 net.cpp:100] Creating Layer block3_s1_4_conv2_ReLU
I0809 17:22:57.932497 22897 net.cpp:434] block3_s1_4_conv2_ReLU <- block3_s1_4_conv2
I0809 17:22:57.932503 22897 net.cpp:395] block3_s1_4_conv2_ReLU -> block3_s1_4_conv2 (in-place)
I0809 17:22:57.932663 22897 net.cpp:150] Setting up block3_s1_4_conv2_ReLU
I0809 17:22:57.932677 22897 net.cpp:157] Top shape: 64 136 16 16 (2228224)
I0809 17:22:57.932682 22897 net.cpp:165] Memory required for data: 3201827072
I0809 17:22:57.932698 22897 layer_factory.hpp:77] Creating layer block3_s1_4_conv3
I0809 17:22:57.932713 22897 net.cpp:100] Creating Layer block3_s1_4_conv3
I0809 17:22:57.932720 22897 net.cpp:434] block3_s1_4_conv3 <- block3_s1_4_conv2
I0809 17:22:57.932729 22897 net.cpp:408] block3_s1_4_conv3 -> block3_s1_4_conv3
I0809 17:22:57.936709 22897 net.cpp:150] Setting up block3_s1_4_conv3
I0809 17:22:57.936730 22897 net.cpp:157] Top shape: 64 544 16 16 (8912896)
I0809 17:22:57.936736 22897 net.cpp:165] Memory required for data: 3237478656
I0809 17:22:57.936744 22897 layer_factory.hpp:77] Creating layer block3_s1_4_eltwise
I0809 17:22:57.936756 22897 net.cpp:100] Creating Layer block3_s1_4_eltwise
I0809 17:22:57.936770 22897 net.cpp:434] block3_s1_4_eltwise <- block3_s1_3_eltwise_block3_s1_3_eltwise_ReLU_0_split_1
I0809 17:22:57.936777 22897 net.cpp:434] block3_s1_4_eltwise <- block3_s1_4_conv3
I0809 17:22:57.936784 22897 net.cpp:408] block3_s1_4_eltwise -> block3_s1_4_eltwise
I0809 17:22:57.936811 22897 net.cpp:150] Setting up block3_s1_4_eltwise
I0809 17:22:57.936820 22897 net.cpp:157] Top shape: 64 544 16 16 (8912896)
I0809 17:22:57.936825 22897 net.cpp:165] Memory required for data: 3273130240
I0809 17:22:57.936830 22897 layer_factory.hpp:77] Creating layer block3_s1_4_eltwise_ReLU
I0809 17:22:57.936836 22897 net.cpp:100] Creating Layer block3_s1_4_eltwise_ReLU
I0809 17:22:57.936842 22897 net.cpp:434] block3_s1_4_eltwise_ReLU <- block3_s1_4_eltwise
I0809 17:22:57.936851 22897 net.cpp:395] block3_s1_4_eltwise_ReLU -> block3_s1_4_eltwise (in-place)
I0809 17:22:57.937580 22897 net.cpp:150] Setting up block3_s1_4_eltwise_ReLU
I0809 17:22:57.937599 22897 net.cpp:157] Top shape: 64 544 16 16 (8912896)
I0809 17:22:57.937607 22897 net.cpp:165] Memory required for data: 3308781824
I0809 17:22:57.937613 22897 layer_factory.hpp:77] Creating layer block3_s1_4_eltwise_block3_s1_4_eltwise_ReLU_0_split
I0809 17:22:57.937621 22897 net.cpp:100] Creating Layer block3_s1_4_eltwise_block3_s1_4_eltwise_ReLU_0_split
I0809 17:22:57.937628 22897 net.cpp:434] block3_s1_4_eltwise_block3_s1_4_eltwise_ReLU_0_split <- block3_s1_4_eltwise
I0809 17:22:57.937635 22897 net.cpp:408] block3_s1_4_eltwise_block3_s1_4_eltwise_ReLU_0_split -> block3_s1_4_eltwise_block3_s1_4_eltwise_ReLU_0_split_0
I0809 17:22:57.937644 22897 net.cpp:408] block3_s1_4_eltwise_block3_s1_4_eltwise_ReLU_0_split -> block3_s1_4_eltwise_block3_s1_4_eltwise_ReLU_0_split_1
I0809 17:22:57.937686 22897 net.cpp:150] Setting up block3_s1_4_eltwise_block3_s1_4_eltwise_ReLU_0_split
I0809 17:22:57.937696 22897 net.cpp:157] Top shape: 64 544 16 16 (8912896)
I0809 17:22:57.937701 22897 net.cpp:157] Top shape: 64 544 16 16 (8912896)
I0809 17:22:57.937706 22897 net.cpp:165] Memory required for data: 3380084992
I0809 17:22:57.937711 22897 layer_factory.hpp:77] Creating layer block3_s1_5_conv1
I0809 17:22:57.937723 22897 net.cpp:100] Creating Layer block3_s1_5_conv1
I0809 17:22:57.937729 22897 net.cpp:434] block3_s1_5_conv1 <- block3_s1_4_eltwise_block3_s1_4_eltwise_ReLU_0_split_0
I0809 17:22:57.937738 22897 net.cpp:408] block3_s1_5_conv1 -> block3_s1_5_conv1
I0809 17:22:57.941643 22897 net.cpp:150] Setting up block3_s1_5_conv1
I0809 17:22:57.941664 22897 net.cpp:157] Top shape: 64 136 16 16 (2228224)
I0809 17:22:57.941670 22897 net.cpp:165] Memory required for data: 3388997888
I0809 17:22:57.941679 22897 layer_factory.hpp:77] Creating layer block3_s1_5_conv1_ReLU
I0809 17:22:57.941686 22897 net.cpp:100] Creating Layer block3_s1_5_conv1_ReLU
I0809 17:22:57.941694 22897 net.cpp:434] block3_s1_5_conv1_ReLU <- block3_s1_5_conv1
I0809 17:22:57.941699 22897 net.cpp:395] block3_s1_5_conv1_ReLU -> block3_s1_5_conv1 (in-place)
I0809 17:22:57.942385 22897 net.cpp:150] Setting up block3_s1_5_conv1_ReLU
I0809 17:22:57.942404 22897 net.cpp:157] Top shape: 64 136 16 16 (2228224)
I0809 17:22:57.942410 22897 net.cpp:165] Memory required for data: 3397910784
I0809 17:22:57.942416 22897 layer_factory.hpp:77] Creating layer shuffle_block3_s1_5
I0809 17:22:57.942425 22897 net.cpp:100] Creating Layer shuffle_block3_s1_5
I0809 17:22:57.942441 22897 net.cpp:434] shuffle_block3_s1_5 <- block3_s1_5_conv1
I0809 17:22:57.942451 22897 net.cpp:408] shuffle_block3_s1_5 -> shuffle_block3_s1_5
I0809 17:22:57.942477 22897 net.cpp:150] Setting up shuffle_block3_s1_5
I0809 17:22:57.942487 22897 net.cpp:157] Top shape: 64 136 16 16 (2228224)
I0809 17:22:57.942492 22897 net.cpp:165] Memory required for data: 3406823680
I0809 17:22:57.942495 22897 layer_factory.hpp:77] Creating layer block3_s1_5_conv2
I0809 17:22:57.942507 22897 net.cpp:100] Creating Layer block3_s1_5_conv2
I0809 17:22:57.942513 22897 net.cpp:434] block3_s1_5_conv2 <- shuffle_block3_s1_5
I0809 17:22:57.942522 22897 net.cpp:408] block3_s1_5_conv2 -> block3_s1_5_conv2
I0809 17:22:57.942723 22897 net.cpp:150] Setting up block3_s1_5_conv2
I0809 17:22:57.942736 22897 net.cpp:157] Top shape: 64 136 16 16 (2228224)
I0809 17:22:57.942742 22897 net.cpp:165] Memory required for data: 3415736576
I0809 17:22:57.942749 22897 layer_factory.hpp:77] Creating layer block3_s1_5_conv2_ReLU
I0809 17:22:57.942759 22897 net.cpp:100] Creating Layer block3_s1_5_conv2_ReLU
I0809 17:22:57.942764 22897 net.cpp:434] block3_s1_5_conv2_ReLU <- block3_s1_5_conv2
I0809 17:22:57.942771 22897 net.cpp:395] block3_s1_5_conv2_ReLU -> block3_s1_5_conv2 (in-place)
I0809 17:22:57.942917 22897 net.cpp:150] Setting up block3_s1_5_conv2_ReLU
I0809 17:22:57.942930 22897 net.cpp:157] Top shape: 64 136 16 16 (2228224)
I0809 17:22:57.942936 22897 net.cpp:165] Memory required for data: 3424649472
I0809 17:22:57.942941 22897 layer_factory.hpp:77] Creating layer block3_s1_5_conv3
I0809 17:22:57.942953 22897 net.cpp:100] Creating Layer block3_s1_5_conv3
I0809 17:22:57.942960 22897 net.cpp:434] block3_s1_5_conv3 <- block3_s1_5_conv2
I0809 17:22:57.942967 22897 net.cpp:408] block3_s1_5_conv3 -> block3_s1_5_conv3
I0809 17:22:57.946887 22897 net.cpp:150] Setting up block3_s1_5_conv3
I0809 17:22:57.946907 22897 net.cpp:157] Top shape: 64 544 16 16 (8912896)
I0809 17:22:57.946913 22897 net.cpp:165] Memory required for data: 3460301056
I0809 17:22:57.946921 22897 layer_factory.hpp:77] Creating layer block3_s1_5_eltwise
I0809 17:22:57.946933 22897 net.cpp:100] Creating Layer block3_s1_5_eltwise
I0809 17:22:57.946939 22897 net.cpp:434] block3_s1_5_eltwise <- block3_s1_4_eltwise_block3_s1_4_eltwise_ReLU_0_split_1
I0809 17:22:57.946945 22897 net.cpp:434] block3_s1_5_eltwise <- block3_s1_5_conv3
I0809 17:22:57.946954 22897 net.cpp:408] block3_s1_5_eltwise -> block3_s1_5_eltwise
I0809 17:22:57.946979 22897 net.cpp:150] Setting up block3_s1_5_eltwise
I0809 17:22:57.946988 22897 net.cpp:157] Top shape: 64 544 16 16 (8912896)
I0809 17:22:57.946993 22897 net.cpp:165] Memory required for data: 3495952640
I0809 17:22:57.946998 22897 layer_factory.hpp:77] Creating layer block3_s1_5_eltwise_ReLU
I0809 17:22:57.947005 22897 net.cpp:100] Creating Layer block3_s1_5_eltwise_ReLU
I0809 17:22:57.947010 22897 net.cpp:434] block3_s1_5_eltwise_ReLU <- block3_s1_5_eltwise
I0809 17:22:57.947018 22897 net.cpp:395] block3_s1_5_eltwise_ReLU -> block3_s1_5_eltwise (in-place)
I0809 17:22:57.947700 22897 net.cpp:150] Setting up block3_s1_5_eltwise_ReLU
I0809 17:22:57.947720 22897 net.cpp:157] Top shape: 64 544 16 16 (8912896)
I0809 17:22:57.947726 22897 net.cpp:165] Memory required for data: 3531604224
I0809 17:22:57.947731 22897 layer_factory.hpp:77] Creating layer block3_s1_5_eltwise_block3_s1_5_eltwise_ReLU_0_split
I0809 17:22:57.947738 22897 net.cpp:100] Creating Layer block3_s1_5_eltwise_block3_s1_5_eltwise_ReLU_0_split
I0809 17:22:57.947746 22897 net.cpp:434] block3_s1_5_eltwise_block3_s1_5_eltwise_ReLU_0_split <- block3_s1_5_eltwise
I0809 17:22:57.947752 22897 net.cpp:408] block3_s1_5_eltwise_block3_s1_5_eltwise_ReLU_0_split -> block3_s1_5_eltwise_block3_s1_5_eltwise_ReLU_0_split_0
I0809 17:22:57.947760 22897 net.cpp:408] block3_s1_5_eltwise_block3_s1_5_eltwise_ReLU_0_split -> block3_s1_5_eltwise_block3_s1_5_eltwise_ReLU_0_split_1
I0809 17:22:57.947803 22897 net.cpp:150] Setting up block3_s1_5_eltwise_block3_s1_5_eltwise_ReLU_0_split
I0809 17:22:57.947824 22897 net.cpp:157] Top shape: 64 544 16 16 (8912896)
I0809 17:22:57.947830 22897 net.cpp:157] Top shape: 64 544 16 16 (8912896)
I0809 17:22:57.947835 22897 net.cpp:165] Memory required for data: 3602907392
I0809 17:22:57.947840 22897 layer_factory.hpp:77] Creating layer block3_s1_6_conv1
I0809 17:22:57.947851 22897 net.cpp:100] Creating Layer block3_s1_6_conv1
I0809 17:22:57.947859 22897 net.cpp:434] block3_s1_6_conv1 <- block3_s1_5_eltwise_block3_s1_5_eltwise_ReLU_0_split_0
I0809 17:22:57.947867 22897 net.cpp:408] block3_s1_6_conv1 -> block3_s1_6_conv1
I0809 17:22:57.952308 22897 net.cpp:150] Setting up block3_s1_6_conv1
I0809 17:22:57.952329 22897 net.cpp:157] Top shape: 64 136 16 16 (2228224)
I0809 17:22:57.952335 22897 net.cpp:165] Memory required for data: 3611820288
I0809 17:22:57.952343 22897 layer_factory.hpp:77] Creating layer block3_s1_6_conv1_ReLU
I0809 17:22:57.952353 22897 net.cpp:100] Creating Layer block3_s1_6_conv1_ReLU
I0809 17:22:57.952358 22897 net.cpp:434] block3_s1_6_conv1_ReLU <- block3_s1_6_conv1
I0809 17:22:57.952368 22897 net.cpp:395] block3_s1_6_conv1_ReLU -> block3_s1_6_conv1 (in-place)
I0809 17:22:57.953054 22897 net.cpp:150] Setting up block3_s1_6_conv1_ReLU
I0809 17:22:57.953078 22897 net.cpp:157] Top shape: 64 136 16 16 (2228224)
I0809 17:22:57.953096 22897 net.cpp:165] Memory required for data: 3620733184
I0809 17:22:57.953102 22897 layer_factory.hpp:77] Creating layer shuffle_block3_s1_6
I0809 17:22:57.953112 22897 net.cpp:100] Creating Layer shuffle_block3_s1_6
I0809 17:22:57.953119 22897 net.cpp:434] shuffle_block3_s1_6 <- block3_s1_6_conv1
I0809 17:22:57.953127 22897 net.cpp:408] shuffle_block3_s1_6 -> shuffle_block3_s1_6
I0809 17:22:57.953156 22897 net.cpp:150] Setting up shuffle_block3_s1_6
I0809 17:22:57.953166 22897 net.cpp:157] Top shape: 64 136 16 16 (2228224)
I0809 17:22:57.953171 22897 net.cpp:165] Memory required for data: 3629646080
I0809 17:22:57.953176 22897 layer_factory.hpp:77] Creating layer block3_s1_6_conv2
I0809 17:22:57.953186 22897 net.cpp:100] Creating Layer block3_s1_6_conv2
I0809 17:22:57.953191 22897 net.cpp:434] block3_s1_6_conv2 <- shuffle_block3_s1_6
I0809 17:22:57.953200 22897 net.cpp:408] block3_s1_6_conv2 -> block3_s1_6_conv2
I0809 17:22:57.953430 22897 net.cpp:150] Setting up block3_s1_6_conv2
I0809 17:22:57.953446 22897 net.cpp:157] Top shape: 64 136 16 16 (2228224)
I0809 17:22:57.953451 22897 net.cpp:165] Memory required for data: 3638558976
I0809 17:22:57.953466 22897 layer_factory.hpp:77] Creating layer block3_s1_6_conv2_ReLU
I0809 17:22:57.953475 22897 net.cpp:100] Creating Layer block3_s1_6_conv2_ReLU
I0809 17:22:57.953481 22897 net.cpp:434] block3_s1_6_conv2_ReLU <- block3_s1_6_conv2
I0809 17:22:57.953487 22897 net.cpp:395] block3_s1_6_conv2_ReLU -> block3_s1_6_conv2 (in-place)
I0809 17:22:57.953636 22897 net.cpp:150] Setting up block3_s1_6_conv2_ReLU
I0809 17:22:57.953649 22897 net.cpp:157] Top shape: 64 136 16 16 (2228224)
I0809 17:22:57.953655 22897 net.cpp:165] Memory required for data: 3647471872
I0809 17:22:57.953660 22897 layer_factory.hpp:77] Creating layer block3_s1_6_conv3
I0809 17:22:57.953671 22897 net.cpp:100] Creating Layer block3_s1_6_conv3
I0809 17:22:57.953678 22897 net.cpp:434] block3_s1_6_conv3 <- block3_s1_6_conv2
I0809 17:22:57.953687 22897 net.cpp:408] block3_s1_6_conv3 -> block3_s1_6_conv3
I0809 17:22:57.960505 22897 net.cpp:150] Setting up block3_s1_6_conv3
I0809 17:22:57.960542 22897 net.cpp:157] Top shape: 64 544 16 16 (8912896)
I0809 17:22:57.960566 22897 net.cpp:165] Memory required for data: 3683123456
I0809 17:22:57.960577 22897 layer_factory.hpp:77] Creating layer block3_s1_6_eltwise
I0809 17:22:57.960590 22897 net.cpp:100] Creating Layer block3_s1_6_eltwise
I0809 17:22:57.960599 22897 net.cpp:434] block3_s1_6_eltwise <- block3_s1_5_eltwise_block3_s1_5_eltwise_ReLU_0_split_1
I0809 17:22:57.960623 22897 net.cpp:434] block3_s1_6_eltwise <- block3_s1_6_conv3
I0809 17:22:57.960633 22897 net.cpp:408] block3_s1_6_eltwise -> block3_s1_6_eltwise
I0809 17:22:57.960660 22897 net.cpp:150] Setting up block3_s1_6_eltwise
I0809 17:22:57.960681 22897 net.cpp:157] Top shape: 64 544 16 16 (8912896)
I0809 17:22:57.960686 22897 net.cpp:165] Memory required for data: 3718775040
I0809 17:22:57.960692 22897 layer_factory.hpp:77] Creating layer block3_s1_6_eltwise_ReLU
I0809 17:22:57.960703 22897 net.cpp:100] Creating Layer block3_s1_6_eltwise_ReLU
I0809 17:22:57.960710 22897 net.cpp:434] block3_s1_6_eltwise_ReLU <- block3_s1_6_eltwise
I0809 17:22:57.960716 22897 net.cpp:395] block3_s1_6_eltwise_ReLU -> block3_s1_6_eltwise (in-place)
I0809 17:22:57.961513 22897 net.cpp:150] Setting up block3_s1_6_eltwise_ReLU
I0809 17:22:57.961532 22897 net.cpp:157] Top shape: 64 544 16 16 (8912896)
I0809 17:22:57.961539 22897 net.cpp:165] Memory required for data: 3754426624
I0809 17:22:57.961544 22897 layer_factory.hpp:77] Creating layer block3_s1_6_eltwise_block3_s1_6_eltwise_ReLU_0_split
I0809 17:22:57.961554 22897 net.cpp:100] Creating Layer block3_s1_6_eltwise_block3_s1_6_eltwise_ReLU_0_split
I0809 17:22:57.961560 22897 net.cpp:434] block3_s1_6_eltwise_block3_s1_6_eltwise_ReLU_0_split <- block3_s1_6_eltwise
I0809 17:22:57.961568 22897 net.cpp:408] block3_s1_6_eltwise_block3_s1_6_eltwise_ReLU_0_split -> block3_s1_6_eltwise_block3_s1_6_eltwise_ReLU_0_split_0
I0809 17:22:57.961578 22897 net.cpp:408] block3_s1_6_eltwise_block3_s1_6_eltwise_ReLU_0_split -> block3_s1_6_eltwise_block3_s1_6_eltwise_ReLU_0_split_1
I0809 17:22:57.961622 22897 net.cpp:150] Setting up block3_s1_6_eltwise_block3_s1_6_eltwise_ReLU_0_split
I0809 17:22:57.961632 22897 net.cpp:157] Top shape: 64 544 16 16 (8912896)
I0809 17:22:57.961637 22897 net.cpp:157] Top shape: 64 544 16 16 (8912896)
I0809 17:22:57.961642 22897 net.cpp:165] Memory required for data: 3825729792
I0809 17:22:57.961648 22897 layer_factory.hpp:77] Creating layer block3_s1_7_conv1
I0809 17:22:57.961660 22897 net.cpp:100] Creating Layer block3_s1_7_conv1
I0809 17:22:57.961666 22897 net.cpp:434] block3_s1_7_conv1 <- block3_s1_6_eltwise_block3_s1_6_eltwise_ReLU_0_split_0
I0809 17:22:57.961678 22897 net.cpp:408] block3_s1_7_conv1 -> block3_s1_7_conv1
I0809 17:22:57.965629 22897 net.cpp:150] Setting up block3_s1_7_conv1
I0809 17:22:57.965649 22897 net.cpp:157] Top shape: 64 136 16 16 (2228224)
I0809 17:22:57.965656 22897 net.cpp:165] Memory required for data: 3834642688
I0809 17:22:57.965663 22897 layer_factory.hpp:77] Creating layer block3_s1_7_conv1_ReLU
I0809 17:22:57.965672 22897 net.cpp:100] Creating Layer block3_s1_7_conv1_ReLU
I0809 17:22:57.965678 22897 net.cpp:434] block3_s1_7_conv1_ReLU <- block3_s1_7_conv1
I0809 17:22:57.965687 22897 net.cpp:395] block3_s1_7_conv1_ReLU -> block3_s1_7_conv1 (in-place)
I0809 17:22:57.966377 22897 net.cpp:150] Setting up block3_s1_7_conv1_ReLU
I0809 17:22:57.966395 22897 net.cpp:157] Top shape: 64 136 16 16 (2228224)
I0809 17:22:57.966401 22897 net.cpp:165] Memory required for data: 3843555584
I0809 17:22:57.966408 22897 layer_factory.hpp:77] Creating layer shuffle_block3_s1_7
I0809 17:22:57.966416 22897 net.cpp:100] Creating Layer shuffle_block3_s1_7
I0809 17:22:57.966423 22897 net.cpp:434] shuffle_block3_s1_7 <- block3_s1_7_conv1
I0809 17:22:57.966433 22897 net.cpp:408] shuffle_block3_s1_7 -> shuffle_block3_s1_7
I0809 17:22:57.966460 22897 net.cpp:150] Setting up shuffle_block3_s1_7
I0809 17:22:57.966470 22897 net.cpp:157] Top shape: 64 136 16 16 (2228224)
I0809 17:22:57.966475 22897 net.cpp:165] Memory required for data: 3852468480
I0809 17:22:57.966480 22897 layer_factory.hpp:77] Creating layer block3_s1_7_conv2
I0809 17:22:57.966490 22897 net.cpp:100] Creating Layer block3_s1_7_conv2
I0809 17:22:57.966495 22897 net.cpp:434] block3_s1_7_conv2 <- shuffle_block3_s1_7
I0809 17:22:57.966505 22897 net.cpp:408] block3_s1_7_conv2 -> block3_s1_7_conv2
I0809 17:22:57.966724 22897 net.cpp:150] Setting up block3_s1_7_conv2
I0809 17:22:57.966739 22897 net.cpp:157] Top shape: 64 136 16 16 (2228224)
I0809 17:22:57.966744 22897 net.cpp:165] Memory required for data: 3861381376
I0809 17:22:57.966753 22897 layer_factory.hpp:77] Creating layer block3_s1_7_conv2_ReLU
I0809 17:22:57.966759 22897 net.cpp:100] Creating Layer block3_s1_7_conv2_ReLU
I0809 17:22:57.966776 22897 net.cpp:434] block3_s1_7_conv2_ReLU <- block3_s1_7_conv2
I0809 17:22:57.966784 22897 net.cpp:395] block3_s1_7_conv2_ReLU -> block3_s1_7_conv2 (in-place)
I0809 17:22:57.966934 22897 net.cpp:150] Setting up block3_s1_7_conv2_ReLU
I0809 17:22:57.966948 22897 net.cpp:157] Top shape: 64 136 16 16 (2228224)
I0809 17:22:57.966953 22897 net.cpp:165] Memory required for data: 3870294272
I0809 17:22:57.966958 22897 layer_factory.hpp:77] Creating layer block3_s1_7_conv3
I0809 17:22:57.966970 22897 net.cpp:100] Creating Layer block3_s1_7_conv3
I0809 17:22:57.966977 22897 net.cpp:434] block3_s1_7_conv3 <- block3_s1_7_conv2
I0809 17:22:57.966985 22897 net.cpp:408] block3_s1_7_conv3 -> block3_s1_7_conv3
I0809 17:22:57.970871 22897 net.cpp:150] Setting up block3_s1_7_conv3
I0809 17:22:57.970907 22897 net.cpp:157] Top shape: 64 544 16 16 (8912896)
I0809 17:22:57.970914 22897 net.cpp:165] Memory required for data: 3905945856
I0809 17:22:57.970922 22897 layer_factory.hpp:77] Creating layer block3_s1_7_eltwise
I0809 17:22:57.970934 22897 net.cpp:100] Creating Layer block3_s1_7_eltwise
I0809 17:22:57.970940 22897 net.cpp:434] block3_s1_7_eltwise <- block3_s1_6_eltwise_block3_s1_6_eltwise_ReLU_0_split_1
I0809 17:22:57.970947 22897 net.cpp:434] block3_s1_7_eltwise <- block3_s1_7_conv3
I0809 17:22:57.970957 22897 net.cpp:408] block3_s1_7_eltwise -> block3_s1_7_eltwise
I0809 17:22:57.970983 22897 net.cpp:150] Setting up block3_s1_7_eltwise
I0809 17:22:57.970998 22897 net.cpp:157] Top shape: 64 544 16 16 (8912896)
I0809 17:22:57.971019 22897 net.cpp:165] Memory required for data: 3941597440
I0809 17:22:57.971024 22897 layer_factory.hpp:77] Creating layer block3_s1_7_eltwise_ReLU
I0809 17:22:57.971032 22897 net.cpp:100] Creating Layer block3_s1_7_eltwise_ReLU
I0809 17:22:57.971038 22897 net.cpp:434] block3_s1_7_eltwise_ReLU <- block3_s1_7_eltwise
I0809 17:22:57.971045 22897 net.cpp:395] block3_s1_7_eltwise_ReLU -> block3_s1_7_eltwise (in-place)
I0809 17:22:57.971729 22897 net.cpp:150] Setting up block3_s1_7_eltwise_ReLU
I0809 17:22:57.971747 22897 net.cpp:157] Top shape: 64 544 16 16 (8912896)
I0809 17:22:57.971755 22897 net.cpp:165] Memory required for data: 3977249024
I0809 17:22:57.971760 22897 layer_factory.hpp:77] Creating layer block3_s1_7_eltwise_block3_s1_7_eltwise_ReLU_0_split
I0809 17:22:57.971768 22897 net.cpp:100] Creating Layer block3_s1_7_eltwise_block3_s1_7_eltwise_ReLU_0_split
I0809 17:22:57.971776 22897 net.cpp:434] block3_s1_7_eltwise_block3_s1_7_eltwise_ReLU_0_split <- block3_s1_7_eltwise
I0809 17:22:57.971783 22897 net.cpp:408] block3_s1_7_eltwise_block3_s1_7_eltwise_ReLU_0_split -> block3_s1_7_eltwise_block3_s1_7_eltwise_ReLU_0_split_0
I0809 17:22:57.971792 22897 net.cpp:408] block3_s1_7_eltwise_block3_s1_7_eltwise_ReLU_0_split -> block3_s1_7_eltwise_block3_s1_7_eltwise_ReLU_0_split_1
I0809 17:22:57.971835 22897 net.cpp:150] Setting up block3_s1_7_eltwise_block3_s1_7_eltwise_ReLU_0_split
I0809 17:22:57.971845 22897 net.cpp:157] Top shape: 64 544 16 16 (8912896)
I0809 17:22:57.971850 22897 net.cpp:157] Top shape: 64 544 16 16 (8912896)
I0809 17:22:57.971855 22897 net.cpp:165] Memory required for data: 4048552192
I0809 17:22:57.971860 22897 layer_factory.hpp:77] Creating layer block4_s2_pool
I0809 17:22:57.971869 22897 net.cpp:100] Creating Layer block4_s2_pool
I0809 17:22:57.971876 22897 net.cpp:434] block4_s2_pool <- block3_s1_7_eltwise_block3_s1_7_eltwise_ReLU_0_split_0
I0809 17:22:57.971884 22897 net.cpp:408] block4_s2_pool -> block4_s2_pool
I0809 17:22:57.971922 22897 net.cpp:150] Setting up block4_s2_pool
I0809 17:22:57.971931 22897 net.cpp:157] Top shape: 64 544 8 8 (2228224)
I0809 17:22:57.971935 22897 net.cpp:165] Memory required for data: 4057465088
I0809 17:22:57.971941 22897 layer_factory.hpp:77] Creating layer block4_s2_conv1
I0809 17:22:57.971954 22897 net.cpp:100] Creating Layer block4_s2_conv1
I0809 17:22:57.971961 22897 net.cpp:434] block4_s2_conv1 <- block3_s1_7_eltwise_block3_s1_7_eltwise_ReLU_0_split_1
I0809 17:22:57.971969 22897 net.cpp:408] block4_s2_conv1 -> block4_s2_conv1
I0809 17:22:57.976444 22897 net.cpp:150] Setting up block4_s2_conv1
I0809 17:22:57.976464 22897 net.cpp:157] Top shape: 64 136 16 16 (2228224)
I0809 17:22:57.976470 22897 net.cpp:165] Memory required for data: 4066377984
I0809 17:22:57.976478 22897 layer_factory.hpp:77] Creating layer block4_s2_conv1_ReLU
I0809 17:22:57.976487 22897 net.cpp:100] Creating Layer block4_s2_conv1_ReLU
I0809 17:22:57.976493 22897 net.cpp:434] block4_s2_conv1_ReLU <- block4_s2_conv1
I0809 17:22:57.976501 22897 net.cpp:395] block4_s2_conv1_ReLU -> block4_s2_conv1 (in-place)
I0809 17:22:57.977206 22897 net.cpp:150] Setting up block4_s2_conv1_ReLU
I0809 17:22:57.977226 22897 net.cpp:157] Top shape: 64 136 16 16 (2228224)
I0809 17:22:57.977233 22897 net.cpp:165] Memory required for data: 4075290880
I0809 17:22:57.977239 22897 layer_factory.hpp:77] Creating layer shuffle_block4_s2
I0809 17:22:57.977247 22897 net.cpp:100] Creating Layer shuffle_block4_s2
I0809 17:22:57.977253 22897 net.cpp:434] shuffle_block4_s2 <- block4_s2_conv1
I0809 17:22:57.977262 22897 net.cpp:408] shuffle_block4_s2 -> shuffle_block4_s2
I0809 17:22:57.977291 22897 net.cpp:150] Setting up shuffle_block4_s2
I0809 17:22:57.977303 22897 net.cpp:157] Top shape: 64 136 16 16 (2228224)
I0809 17:22:57.977308 22897 net.cpp:165] Memory required for data: 4084203776
I0809 17:22:57.977313 22897 layer_factory.hpp:77] Creating layer block4_s2_conv2
I0809 17:22:57.977322 22897 net.cpp:100] Creating Layer block4_s2_conv2
I0809 17:22:57.977329 22897 net.cpp:434] block4_s2_conv2 <- shuffle_block4_s2
I0809 17:22:57.977339 22897 net.cpp:408] block4_s2_conv2 -> block4_s2_conv2
I0809 17:22:57.978091 22897 net.cpp:150] Setting up block4_s2_conv2
I0809 17:22:57.978109 22897 net.cpp:157] Top shape: 64 136 8 8 (557056)
I0809 17:22:57.978116 22897 net.cpp:165] Memory required for data: 4086432000
I0809 17:22:57.978124 22897 layer_factory.hpp:77] Creating layer block4_s2_conv2_ReLU
I0809 17:22:57.978132 22897 net.cpp:100] Creating Layer block4_s2_conv2_ReLU
I0809 17:22:57.978138 22897 net.cpp:434] block4_s2_conv2_ReLU <- block4_s2_conv2
I0809 17:22:57.978145 22897 net.cpp:395] block4_s2_conv2_ReLU -> block4_s2_conv2 (in-place)
I0809 17:22:57.978305 22897 net.cpp:150] Setting up block4_s2_conv2_ReLU
I0809 17:22:57.978318 22897 net.cpp:157] Top shape: 64 136 8 8 (557056)
I0809 17:22:57.978323 22897 net.cpp:165] Memory required for data: 4088660224
I0809 17:22:57.978328 22897 layer_factory.hpp:77] Creating layer block4_s2_conv3
I0809 17:22:57.978340 22897 net.cpp:100] Creating Layer block4_s2_conv3
I0809 17:22:57.978346 22897 net.cpp:434] block4_s2_conv3 <- block4_s2_conv2
I0809 17:22:57.978358 22897 net.cpp:408] block4_s2_conv3 -> block4_s2_conv3
I0809 17:22:57.982403 22897 net.cpp:150] Setting up block4_s2_conv3
I0809 17:22:57.982422 22897 net.cpp:157] Top shape: 64 544 8 8 (2228224)
I0809 17:22:57.982429 22897 net.cpp:165] Memory required for data: 4097573120
I0809 17:22:57.982437 22897 layer_factory.hpp:77] Creating layer block4_s2_concat
I0809 17:22:57.982448 22897 net.cpp:100] Creating Layer block4_s2_concat
I0809 17:22:57.982455 22897 net.cpp:434] block4_s2_concat <- block4_s2_pool
I0809 17:22:57.982461 22897 net.cpp:434] block4_s2_concat <- block4_s2_conv3
I0809 17:22:57.982468 22897 net.cpp:408] block4_s2_concat -> block4_s2_concat
I0809 17:22:57.982498 22897 net.cpp:150] Setting up block4_s2_concat
I0809 17:22:57.982507 22897 net.cpp:157] Top shape: 64 1088 8 8 (4456448)
I0809 17:22:57.982512 22897 net.cpp:165] Memory required for data: 4115398912
I0809 17:22:57.982517 22897 layer_factory.hpp:77] Creating layer block4_s2_concat_ReLU
I0809 17:22:57.982527 22897 net.cpp:100] Creating Layer block4_s2_concat_ReLU
I0809 17:22:57.982532 22897 net.cpp:434] block4_s2_concat_ReLU <- block4_s2_concat
I0809 17:22:57.982538 22897 net.cpp:395] block4_s2_concat_ReLU -> block4_s2_concat (in-place)
I0809 17:22:57.983223 22897 net.cpp:150] Setting up block4_s2_concat_ReLU
I0809 17:22:57.983242 22897 net.cpp:157] Top shape: 64 1088 8 8 (4456448)
I0809 17:22:57.983247 22897 net.cpp:165] Memory required for data: 4133224704
I0809 17:22:57.983264 22897 layer_factory.hpp:77] Creating layer block4_s2_concat_block4_s2_concat_ReLU_0_split
I0809 17:22:57.983273 22897 net.cpp:100] Creating Layer block4_s2_concat_block4_s2_concat_ReLU_0_split
I0809 17:22:57.983279 22897 net.cpp:434] block4_s2_concat_block4_s2_concat_ReLU_0_split <- block4_s2_concat
I0809 17:22:57.983288 22897 net.cpp:408] block4_s2_concat_block4_s2_concat_ReLU_0_split -> block4_s2_concat_block4_s2_concat_ReLU_0_split_0
I0809 17:22:57.983296 22897 net.cpp:408] block4_s2_concat_block4_s2_concat_ReLU_0_split -> block4_s2_concat_block4_s2_concat_ReLU_0_split_1
I0809 17:22:57.983342 22897 net.cpp:150] Setting up block4_s2_concat_block4_s2_concat_ReLU_0_split
I0809 17:22:57.983352 22897 net.cpp:157] Top shape: 64 1088 8 8 (4456448)
I0809 17:22:57.983358 22897 net.cpp:157] Top shape: 64 1088 8 8 (4456448)
I0809 17:22:57.983362 22897 net.cpp:165] Memory required for data: 4168876288
I0809 17:22:57.983368 22897 layer_factory.hpp:77] Creating layer block4_s1_1_conv1
I0809 17:22:57.983381 22897 net.cpp:100] Creating Layer block4_s1_1_conv1
I0809 17:22:57.983387 22897 net.cpp:434] block4_s1_1_conv1 <- block4_s2_concat_block4_s2_concat_ReLU_0_split_0
I0809 17:22:57.983394 22897 net.cpp:408] block4_s1_1_conv1 -> block4_s1_1_conv1
I0809 17:22:57.989404 22897 net.cpp:150] Setting up block4_s1_1_conv1
I0809 17:22:57.989441 22897 net.cpp:157] Top shape: 64 272 8 8 (1114112)
I0809 17:22:57.989449 22897 net.cpp:165] Memory required for data: 4173332736
I0809 17:22:57.989456 22897 layer_factory.hpp:77] Creating layer block4_s1_1_conv1_ReLU
I0809 17:22:57.989467 22897 net.cpp:100] Creating Layer block4_s1_1_conv1_ReLU
I0809 17:22:57.989475 22897 net.cpp:434] block4_s1_1_conv1_ReLU <- block4_s1_1_conv1
I0809 17:22:57.989481 22897 net.cpp:395] block4_s1_1_conv1_ReLU -> block4_s1_1_conv1 (in-place)
I0809 17:22:57.990175 22897 net.cpp:150] Setting up block4_s1_1_conv1_ReLU
I0809 17:22:57.990193 22897 net.cpp:157] Top shape: 64 272 8 8 (1114112)
I0809 17:22:57.990200 22897 net.cpp:165] Memory required for data: 4177789184
I0809 17:22:57.990206 22897 layer_factory.hpp:77] Creating layer shuffle_block4_s1_1
I0809 17:22:57.990216 22897 net.cpp:100] Creating Layer shuffle_block4_s1_1
I0809 17:22:57.990222 22897 net.cpp:434] shuffle_block4_s1_1 <- block4_s1_1_conv1
I0809 17:22:57.990231 22897 net.cpp:408] shuffle_block4_s1_1 -> shuffle_block4_s1_1
I0809 17:22:57.990263 22897 net.cpp:150] Setting up shuffle_block4_s1_1
I0809 17:22:57.990272 22897 net.cpp:157] Top shape: 64 272 8 8 (1114112)
I0809 17:22:57.990278 22897 net.cpp:165] Memory required for data: 4182245632
I0809 17:22:57.990283 22897 layer_factory.hpp:77] Creating layer block4_s1_1_conv2
I0809 17:22:57.990311 22897 net.cpp:100] Creating Layer block4_s1_1_conv2
I0809 17:22:57.990319 22897 net.cpp:434] block4_s1_1_conv2 <- shuffle_block4_s1_1
I0809 17:22:57.990326 22897 net.cpp:408] block4_s1_1_conv2 -> block4_s1_1_conv2
I0809 17:22:57.990586 22897 net.cpp:150] Setting up block4_s1_1_conv2
I0809 17:22:57.990602 22897 net.cpp:157] Top shape: 64 272 8 8 (1114112)
I0809 17:22:57.990608 22897 net.cpp:165] Memory required for data: 4186702080
I0809 17:22:57.990617 22897 layer_factory.hpp:77] Creating layer block4_s1_1_conv2_ReLU
I0809 17:22:57.990625 22897 net.cpp:100] Creating Layer block4_s1_1_conv2_ReLU
I0809 17:22:57.990631 22897 net.cpp:434] block4_s1_1_conv2_ReLU <- block4_s1_1_conv2
I0809 17:22:57.990640 22897 net.cpp:395] block4_s1_1_conv2_ReLU -> block4_s1_1_conv2 (in-place)
I0809 17:22:57.990802 22897 net.cpp:150] Setting up block4_s1_1_conv2_ReLU
I0809 17:22:57.990830 22897 net.cpp:157] Top shape: 64 272 8 8 (1114112)
I0809 17:22:57.990836 22897 net.cpp:165] Memory required for data: 4191158528
I0809 17:22:57.990841 22897 layer_factory.hpp:77] Creating layer block4_s1_1_conv3
I0809 17:22:57.990854 22897 net.cpp:100] Creating Layer block4_s1_1_conv3
I0809 17:22:57.990859 22897 net.cpp:434] block4_s1_1_conv3 <- block4_s1_1_conv2
I0809 17:22:57.990869 22897 net.cpp:408] block4_s1_1_conv3 -> block4_s1_1_conv3
I0809 17:22:57.995954 22897 net.cpp:150] Setting up block4_s1_1_conv3
I0809 17:22:57.995975 22897 net.cpp:157] Top shape: 64 1088 8 8 (4456448)
I0809 17:22:57.995980 22897 net.cpp:165] Memory required for data: 4208984320
I0809 17:22:57.995988 22897 layer_factory.hpp:77] Creating layer block4_s1_1_eltwise
I0809 17:22:57.995999 22897 net.cpp:100] Creating Layer block4_s1_1_eltwise
I0809 17:22:57.996006 22897 net.cpp:434] block4_s1_1_eltwise <- block4_s2_concat_block4_s2_concat_ReLU_0_split_1
I0809 17:22:57.996012 22897 net.cpp:434] block4_s1_1_eltwise <- block4_s1_1_conv3
I0809 17:22:57.996021 22897 net.cpp:408] block4_s1_1_eltwise -> block4_s1_1_eltwise
I0809 17:22:57.996052 22897 net.cpp:150] Setting up block4_s1_1_eltwise
I0809 17:22:57.996062 22897 net.cpp:157] Top shape: 64 1088 8 8 (4456448)
I0809 17:22:57.996068 22897 net.cpp:165] Memory required for data: 4226810112
I0809 17:22:57.996073 22897 layer_factory.hpp:77] Creating layer block4_s1_1_eltwise_ReLU
I0809 17:22:57.996080 22897 net.cpp:100] Creating Layer block4_s1_1_eltwise_ReLU
I0809 17:22:57.996086 22897 net.cpp:434] block4_s1_1_eltwise_ReLU <- block4_s1_1_eltwise
I0809 17:22:57.996093 22897 net.cpp:395] block4_s1_1_eltwise_ReLU -> block4_s1_1_eltwise (in-place)
I0809 17:22:57.996779 22897 net.cpp:150] Setting up block4_s1_1_eltwise_ReLU
I0809 17:22:57.996798 22897 net.cpp:157] Top shape: 64 1088 8 8 (4456448)
I0809 17:22:57.996803 22897 net.cpp:165] Memory required for data: 4244635904
I0809 17:22:57.996809 22897 layer_factory.hpp:77] Creating layer block4_s1_1_eltwise_block4_s1_1_eltwise_ReLU_0_split
I0809 17:22:57.996819 22897 net.cpp:100] Creating Layer block4_s1_1_eltwise_block4_s1_1_eltwise_ReLU_0_split
I0809 17:22:57.996824 22897 net.cpp:434] block4_s1_1_eltwise_block4_s1_1_eltwise_ReLU_0_split <- block4_s1_1_eltwise
I0809 17:22:57.996832 22897 net.cpp:408] block4_s1_1_eltwise_block4_s1_1_eltwise_ReLU_0_split -> block4_s1_1_eltwise_block4_s1_1_eltwise_ReLU_0_split_0
I0809 17:22:57.996841 22897 net.cpp:408] block4_s1_1_eltwise_block4_s1_1_eltwise_ReLU_0_split -> block4_s1_1_eltwise_block4_s1_1_eltwise_ReLU_0_split_1
I0809 17:22:57.996886 22897 net.cpp:150] Setting up block4_s1_1_eltwise_block4_s1_1_eltwise_ReLU_0_split
I0809 17:22:57.996897 22897 net.cpp:157] Top shape: 64 1088 8 8 (4456448)
I0809 17:22:57.996902 22897 net.cpp:157] Top shape: 64 1088 8 8 (4456448)
I0809 17:22:57.996907 22897 net.cpp:165] Memory required for data: 4280287488
I0809 17:22:57.996912 22897 layer_factory.hpp:77] Creating layer block4_s1_2_conv1
I0809 17:22:57.996925 22897 net.cpp:100] Creating Layer block4_s1_2_conv1
I0809 17:22:57.996932 22897 net.cpp:434] block4_s1_2_conv1 <- block4_s1_1_eltwise_block4_s1_1_eltwise_ReLU_0_split_0
I0809 17:22:57.996939 22897 net.cpp:408] block4_s1_2_conv1 -> block4_s1_2_conv1
I0809 17:22:58.002073 22897 net.cpp:150] Setting up block4_s1_2_conv1
I0809 17:22:58.002094 22897 net.cpp:157] Top shape: 64 272 8 8 (1114112)
I0809 17:22:58.002100 22897 net.cpp:165] Memory required for data: 4284743936
I0809 17:22:58.002110 22897 layer_factory.hpp:77] Creating layer block4_s1_2_conv1_ReLU
I0809 17:22:58.002117 22897 net.cpp:100] Creating Layer block4_s1_2_conv1_ReLU
I0809 17:22:58.002126 22897 net.cpp:434] block4_s1_2_conv1_ReLU <- block4_s1_2_conv1
I0809 17:22:58.002133 22897 net.cpp:395] block4_s1_2_conv1_ReLU -> block4_s1_2_conv1 (in-place)
I0809 17:22:58.003322 22897 net.cpp:150] Setting up block4_s1_2_conv1_ReLU
I0809 17:22:58.003340 22897 net.cpp:157] Top shape: 64 272 8 8 (1114112)
I0809 17:22:58.003346 22897 net.cpp:165] Memory required for data: 4289200384
I0809 17:22:58.003352 22897 layer_factory.hpp:77] Creating layer shuffle_block4_s1_2
I0809 17:22:58.003362 22897 net.cpp:100] Creating Layer shuffle_block4_s1_2
I0809 17:22:58.003370 22897 net.cpp:434] shuffle_block4_s1_2 <- block4_s1_2_conv1
I0809 17:22:58.003376 22897 net.cpp:408] shuffle_block4_s1_2 -> shuffle_block4_s1_2
I0809 17:22:58.003412 22897 net.cpp:150] Setting up shuffle_block4_s1_2
I0809 17:22:58.003422 22897 net.cpp:157] Top shape: 64 272 8 8 (1114112)
I0809 17:22:58.003437 22897 net.cpp:165] Memory required for data: 4293656832
I0809 17:22:58.003443 22897 layer_factory.hpp:77] Creating layer block4_s1_2_conv2
I0809 17:22:58.003453 22897 net.cpp:100] Creating Layer block4_s1_2_conv2
I0809 17:22:58.003459 22897 net.cpp:434] block4_s1_2_conv2 <- shuffle_block4_s1_2
I0809 17:22:58.003466 22897 net.cpp:408] block4_s1_2_conv2 -> block4_s1_2_conv2
I0809 17:22:58.003711 22897 net.cpp:150] Setting up block4_s1_2_conv2
I0809 17:22:58.003726 22897 net.cpp:157] Top shape: 64 272 8 8 (1114112)
I0809 17:22:58.003733 22897 net.cpp:165] Memory required for data: 4298113280
I0809 17:22:58.003741 22897 layer_factory.hpp:77] Creating layer block4_s1_2_conv2_ReLU
I0809 17:22:58.003752 22897 net.cpp:100] Creating Layer block4_s1_2_conv2_ReLU
I0809 17:22:58.003758 22897 net.cpp:434] block4_s1_2_conv2_ReLU <- block4_s1_2_conv2
I0809 17:22:58.003765 22897 net.cpp:395] block4_s1_2_conv2_ReLU -> block4_s1_2_conv2 (in-place)
I0809 17:22:58.003926 22897 net.cpp:150] Setting up block4_s1_2_conv2_ReLU
I0809 17:22:58.003940 22897 net.cpp:157] Top shape: 64 272 8 8 (1114112)
I0809 17:22:58.003945 22897 net.cpp:165] Memory required for data: 4302569728
I0809 17:22:58.003952 22897 layer_factory.hpp:77] Creating layer block4_s1_2_conv3
I0809 17:22:58.003963 22897 net.cpp:100] Creating Layer block4_s1_2_conv3
I0809 17:22:58.003970 22897 net.cpp:434] block4_s1_2_conv3 <- block4_s1_2_conv2
I0809 17:22:58.003979 22897 net.cpp:408] block4_s1_2_conv3 -> block4_s1_2_conv3
I0809 17:22:58.009050 22897 net.cpp:150] Setting up block4_s1_2_conv3
I0809 17:22:58.009080 22897 net.cpp:157] Top shape: 64 1088 8 8 (4456448)
I0809 17:22:58.009102 22897 net.cpp:165] Memory required for data: 4320395520
I0809 17:22:58.009111 22897 layer_factory.hpp:77] Creating layer block4_s1_2_eltwise
I0809 17:22:58.009122 22897 net.cpp:100] Creating Layer block4_s1_2_eltwise
I0809 17:22:58.009131 22897 net.cpp:434] block4_s1_2_eltwise <- block4_s1_1_eltwise_block4_s1_1_eltwise_ReLU_0_split_1
I0809 17:22:58.009138 22897 net.cpp:434] block4_s1_2_eltwise <- block4_s1_2_conv3
I0809 17:22:58.009145 22897 net.cpp:408] block4_s1_2_eltwise -> block4_s1_2_eltwise
I0809 17:22:58.009179 22897 net.cpp:150] Setting up block4_s1_2_eltwise
I0809 17:22:58.009188 22897 net.cpp:157] Top shape: 64 1088 8 8 (4456448)
I0809 17:22:58.009193 22897 net.cpp:165] Memory required for data: 4338221312
I0809 17:22:58.009199 22897 layer_factory.hpp:77] Creating layer block4_s1_2_eltwise_ReLU
I0809 17:22:58.009208 22897 net.cpp:100] Creating Layer block4_s1_2_eltwise_ReLU
I0809 17:22:58.009214 22897 net.cpp:434] block4_s1_2_eltwise_ReLU <- block4_s1_2_eltwise
I0809 17:22:58.009220 22897 net.cpp:395] block4_s1_2_eltwise_ReLU -> block4_s1_2_eltwise (in-place)
I0809 17:22:58.009932 22897 net.cpp:150] Setting up block4_s1_2_eltwise_ReLU
I0809 17:22:58.009950 22897 net.cpp:157] Top shape: 64 1088 8 8 (4456448)
I0809 17:22:58.009955 22897 net.cpp:165] Memory required for data: 4356047104
I0809 17:22:58.009961 22897 layer_factory.hpp:77] Creating layer block4_s1_2_eltwise_block4_s1_2_eltwise_ReLU_0_split
I0809 17:22:58.009969 22897 net.cpp:100] Creating Layer block4_s1_2_eltwise_block4_s1_2_eltwise_ReLU_0_split
I0809 17:22:58.009974 22897 net.cpp:434] block4_s1_2_eltwise_block4_s1_2_eltwise_ReLU_0_split <- block4_s1_2_eltwise
I0809 17:22:58.009984 22897 net.cpp:408] block4_s1_2_eltwise_block4_s1_2_eltwise_ReLU_0_split -> block4_s1_2_eltwise_block4_s1_2_eltwise_ReLU_0_split_0
I0809 17:22:58.009992 22897 net.cpp:408] block4_s1_2_eltwise_block4_s1_2_eltwise_ReLU_0_split -> block4_s1_2_eltwise_block4_s1_2_eltwise_ReLU_0_split_1
I0809 17:22:58.010040 22897 net.cpp:150] Setting up block4_s1_2_eltwise_block4_s1_2_eltwise_ReLU_0_split
I0809 17:22:58.010049 22897 net.cpp:157] Top shape: 64 1088 8 8 (4456448)
I0809 17:22:58.010056 22897 net.cpp:157] Top shape: 64 1088 8 8 (4456448)
I0809 17:22:58.010061 22897 net.cpp:165] Memory required for data: 4391698688
I0809 17:22:58.010064 22897 layer_factory.hpp:77] Creating layer block4_s1_3_conv1
I0809 17:22:58.010077 22897 net.cpp:100] Creating Layer block4_s1_3_conv1
I0809 17:22:58.010094 22897 net.cpp:434] block4_s1_3_conv1 <- block4_s1_2_eltwise_block4_s1_2_eltwise_ReLU_0_split_0
I0809 17:22:58.010102 22897 net.cpp:408] block4_s1_3_conv1 -> block4_s1_3_conv1
I0809 17:22:58.015220 22897 net.cpp:150] Setting up block4_s1_3_conv1
I0809 17:22:58.015241 22897 net.cpp:157] Top shape: 64 272 8 8 (1114112)
I0809 17:22:58.015247 22897 net.cpp:165] Memory required for data: 4396155136
I0809 17:22:58.015255 22897 layer_factory.hpp:77] Creating layer block4_s1_3_conv1_ReLU
I0809 17:22:58.015265 22897 net.cpp:100] Creating Layer block4_s1_3_conv1_ReLU
I0809 17:22:58.015271 22897 net.cpp:434] block4_s1_3_conv1_ReLU <- block4_s1_3_conv1
I0809 17:22:58.015280 22897 net.cpp:395] block4_s1_3_conv1_ReLU -> block4_s1_3_conv1 (in-place)
I0809 17:22:58.015974 22897 net.cpp:150] Setting up block4_s1_3_conv1_ReLU
I0809 17:22:58.015995 22897 net.cpp:157] Top shape: 64 272 8 8 (1114112)
I0809 17:22:58.016001 22897 net.cpp:165] Memory required for data: 4400611584
I0809 17:22:58.016006 22897 layer_factory.hpp:77] Creating layer shuffle_block4_s1_3
I0809 17:22:58.016016 22897 net.cpp:100] Creating Layer shuffle_block4_s1_3
I0809 17:22:58.016021 22897 net.cpp:434] shuffle_block4_s1_3 <- block4_s1_3_conv1
I0809 17:22:58.016029 22897 net.cpp:408] shuffle_block4_s1_3 -> shuffle_block4_s1_3
I0809 17:22:58.016065 22897 net.cpp:150] Setting up shuffle_block4_s1_3
I0809 17:22:58.016073 22897 net.cpp:157] Top shape: 64 272 8 8 (1114112)
I0809 17:22:58.016078 22897 net.cpp:165] Memory required for data: 4405068032
I0809 17:22:58.016083 22897 layer_factory.hpp:77] Creating layer block4_s1_3_conv2
I0809 17:22:58.016094 22897 net.cpp:100] Creating Layer block4_s1_3_conv2
I0809 17:22:58.016100 22897 net.cpp:434] block4_s1_3_conv2 <- shuffle_block4_s1_3
I0809 17:22:58.016109 22897 net.cpp:408] block4_s1_3_conv2 -> block4_s1_3_conv2
I0809 17:22:58.016353 22897 net.cpp:150] Setting up block4_s1_3_conv2
I0809 17:22:58.016368 22897 net.cpp:157] Top shape: 64 272 8 8 (1114112)
I0809 17:22:58.016374 22897 net.cpp:165] Memory required for data: 4409524480
I0809 17:22:58.016383 22897 layer_factory.hpp:77] Creating layer block4_s1_3_conv2_ReLU
I0809 17:22:58.016392 22897 net.cpp:100] Creating Layer block4_s1_3_conv2_ReLU
I0809 17:22:58.016398 22897 net.cpp:434] block4_s1_3_conv2_ReLU <- block4_s1_3_conv2
I0809 17:22:58.016405 22897 net.cpp:395] block4_s1_3_conv2_ReLU -> block4_s1_3_conv2 (in-place)
I0809 17:22:58.016564 22897 net.cpp:150] Setting up block4_s1_3_conv2_ReLU
I0809 17:22:58.016577 22897 net.cpp:157] Top shape: 64 272 8 8 (1114112)
I0809 17:22:58.016582 22897 net.cpp:165] Memory required for data: 4413980928
I0809 17:22:58.016587 22897 layer_factory.hpp:77] Creating layer block4_s1_3_conv3
I0809 17:22:58.016602 22897 net.cpp:100] Creating Layer block4_s1_3_conv3
I0809 17:22:58.016608 22897 net.cpp:434] block4_s1_3_conv3 <- block4_s1_3_conv2
I0809 17:22:58.016618 22897 net.cpp:408] block4_s1_3_conv3 -> block4_s1_3_conv3
I0809 17:22:58.021797 22897 net.cpp:150] Setting up block4_s1_3_conv3
I0809 17:22:58.021818 22897 net.cpp:157] Top shape: 64 1088 8 8 (4456448)
I0809 17:22:58.021824 22897 net.cpp:165] Memory required for data: 4431806720
I0809 17:22:58.021832 22897 layer_factory.hpp:77] Creating layer block4_s1_3_eltwise
I0809 17:22:58.021844 22897 net.cpp:100] Creating Layer block4_s1_3_eltwise
I0809 17:22:58.021852 22897 net.cpp:434] block4_s1_3_eltwise <- block4_s1_2_eltwise_block4_s1_2_eltwise_ReLU_0_split_1
I0809 17:22:58.021858 22897 net.cpp:434] block4_s1_3_eltwise <- block4_s1_3_conv3
I0809 17:22:58.021865 22897 net.cpp:408] block4_s1_3_eltwise -> block4_s1_3_eltwise
I0809 17:22:58.021898 22897 net.cpp:150] Setting up block4_s1_3_eltwise
I0809 17:22:58.021908 22897 net.cpp:157] Top shape: 64 1088 8 8 (4456448)
I0809 17:22:58.021914 22897 net.cpp:165] Memory required for data: 4449632512
I0809 17:22:58.021919 22897 layer_factory.hpp:77] Creating layer block4_s1_3_eltwise_ReLU
I0809 17:22:58.021925 22897 net.cpp:100] Creating Layer block4_s1_3_eltwise_ReLU
I0809 17:22:58.021930 22897 net.cpp:434] block4_s1_3_eltwise_ReLU <- block4_s1_3_eltwise
I0809 17:22:58.021948 22897 net.cpp:395] block4_s1_3_eltwise_ReLU -> block4_s1_3_eltwise (in-place)
I0809 17:22:58.022639 22897 net.cpp:150] Setting up block4_s1_3_eltwise_ReLU
I0809 17:22:58.022657 22897 net.cpp:157] Top shape: 64 1088 8 8 (4456448)
I0809 17:22:58.022663 22897 net.cpp:165] Memory required for data: 4467458304
I0809 17:22:58.022670 22897 layer_factory.hpp:77] Creating layer fc1
I0809 17:22:58.022681 22897 net.cpp:100] Creating Layer fc1
I0809 17:22:58.022688 22897 net.cpp:434] fc1 <- block4_s1_3_eltwise
I0809 17:22:58.022696 22897 net.cpp:408] fc1 -> fc1
I0809 17:22:58.210777 22897 net.cpp:150] Setting up fc1
I0809 17:22:58.210835 22897 net.cpp:157] Top shape: 64 512 (32768)
I0809 17:22:58.210841 22897 net.cpp:165] Memory required for data: 4467589376
I0809 17:22:58.210856 22897 layer_factory.hpp:77] Creating layer fc2
I0809 17:22:58.210873 22897 net.cpp:100] Creating Layer fc2
I0809 17:22:58.210882 22897 net.cpp:434] fc2 <- fc1
I0809 17:22:58.210891 22897 net.cpp:408] fc2 -> fc2
I0809 17:22:58.417815 22897 net.cpp:150] Setting up fc2
I0809 17:22:58.417870 22897 net.cpp:157] Top shape: 64 76544 (4898816)
I0809 17:22:58.417876 22897 net.cpp:165] Memory required for data: 4487184640
I0809 17:22:58.417887 22897 layer_factory.hpp:77] Creating layer softmax_loss
I0809 17:22:58.417901 22897 net.cpp:100] Creating Layer softmax_loss
I0809 17:22:58.417908 22897 net.cpp:434] softmax_loss <- fc2
I0809 17:22:58.417917 22897 net.cpp:434] softmax_loss <- label
I0809 17:22:58.417927 22897 net.cpp:408] softmax_loss -> softmax_loss
…
I0809 17:22:58.431843 22897 net.cpp:322] The NetState phase (1) differed from the phase (0) specified by a rule in layer data
I0809 17:22:58.432466 22897 net.cpp:58] Initializing net from parameters: 
state {
  phase: TEST
}
layer {
  name: "data"
  type: "Data"
  top: "data"
  top: "label"
  include {
    phase: TEST
  }
  transform_param {
    scale: 0.0078125
    mirror: true
    mean_value: 127.5
    mean_value: 127.5
    mean_value: 127.5
  }
  data_param {
    source: "/data/zeng/MsCeleb_256x256_val_lmdb"
    batch_size: 20
    backend: LMDB
  }
}
layer {
  name: "conv1"
  type: "Convolution"
  bottom: "data"
  top: "conv1"
  param {
    lr_mult: 1
    decay_mult: 1
  }
  param {
    lr_mult: 1
    decay_mult: 0
  }
  convolution_param {
    num_output: 24
    pad: 3
    kernel_size: 8
    group: 1
    stride: 2
    weight_filler {
      type: "msra"
      std: 0.01
    }
    bias_filler {
      type: "constant"
      value: 0
    }
  }
}
layer {
  name: "conv1_relu"
  type: "ReLU"
  bottom: "conv1"
  top: "conv1"
}
layer {
  name: "pool1"
  type: "Pooling"
  bottom: "conv1"
  top: "pool1"
  pooling_param {
    pool: MAX
    kernel_size: 3
    stride: 2
  }
}
layer {
  name: "block2_s2_pool"
  type: "Pooling"
  bottom: "pool1"
  top: "block2_s2_pool"
  pooling_param {
    pool: MAX
    kernel_size: 3
    stride: 2
  }
}
layer {
  name: "block2_s2_conv1"
  type: "Convolution"
  bottom: "pool1"
  top: "block2_s2_conv1"
  param {
    lr_mult: 1
    decay_mult: 1
  }
  param {
    lr_mult: 1
    decay_mult: 0
  }
  convolution_param {
    num_output: 62
    pad: 0
    kernel_size: 1
    group: 2
    stride: 1
    weight_filler {
      type: "gaussian"
      std: 0.01
    }
    bias_filler {
      type: "constant"
      value: 0
    }
  }
}
layer {
  name: "block2_s2_conv1_ReLU"
  type: "ReLU"
  bottom: "block2_s2_conv1"
  top: "block2_s2_conv1"
}
layer {
  name: "shuffle_block2_s2"
  type: "ShuffleChannel"
  bottom: "block2_s2_conv1"
  top: "shuffle_block2_s2"
  shuffle_channel_param {
    group: 2
  }
}
layer {
  name: "block2_s2_conv2"
  type: "ConvolutionDepthwise"
  bottom: "shuffle_block2_s2"
  top: "block2_s2_conv2"
  param {
    lr_mult: 1
    decay_mult: 1
  }
  param {
    lr_mult: 1
    decay_mult: 0
  }
  convolution_param {
    num_output: 62
    pad: 1
    kernel_size: 3
    stride: 2
    weight_filler {
      type: "gaussian"
      std: 0.01
    }
    bias_filler {
      type: "constant"
      value: 0
    }
  }
}
layer {
  name: "block2_s2_conv2_ReLU"
  type: "ReLU"
  bottom: "block2_s2_conv2"
  top: "block2_s2_conv2"
}
layer {
  name: "block2_s2_conv3"
  type: "Convolution"
  bottom: "block2_s2_conv2"
  top: "block2_s2_conv3"
  param {
    lr_mult: 1
    decay_mult: 1
  }
  param {
    lr_mult: 1
    decay_mult: 0
  }
  convolution_param {
    num_output: 248
    pad: 0
    kernel_size: 1
    group: 2
    stride: 1
    weight_filler {
      type: "gaussian"
      std: 0.01
    }
    bias_filler {
      type: "constant"
      value: 0
    }
  }
}
layer {
  name: "block2_s2_concat"
  type: "Concat"
  bottom: "block2_s2_pool"
  bottom: "block2_s2_conv3"
  top: "block2_s2_concat"
}
layer {
  name: "block2_s2_concat_ReLU"
  type: "ReLU"
  bottom: "block2_s2_concat"
  top: "block2_s2_concat"
}
layer {
  name: "block2_s1_1_conv1"
  type: "Convolution"
  bottom: "block2_s2_concat"
  top: "block2_s1_1_conv1"
  param {
    lr_mult: 1
    decay_mult: 1
  }
  param {
    lr_mult: 1
    decay_mult: 0
  }
  convolution_param {
    num_output: 68
    pad: 0
    kernel_size: 1
    group: 4
    stride: 1
    weight_filler {
      type: "gaussian"
      std: 0.01
    }
    bias_filler {
      type: "constant"
      value: 0
    }
  }
}
layer {
  name: "block2_s1_1_conv1_ReLU"
  type: "ReLU"
  bottom: "block2_s1_1_conv1"
  top: "block2_s1_1_conv1"
}
layer {
  name: "shuffle_block2_s1_1"
  type: "ShuffleChannel"
  bottom: "block2_s1_1_conv1"
  top: "shuffle_block2_s1_1"
  shuffle_channel_param {
    group: 4
  }
}
layer {
  name: "block2_s1_1_conv2"
  type: "ConvolutionDepthwise"
  bottom: "shuffle_block2_s1_1"
  top: "block2_s1_1_conv2"
  param {
    lr_mult: 1
    decay_mult: 1
  }
  param {
    lr_mult: 1
    decay_mult: 0
  }
  convolution_param {
    num_output: 68
    pad: 1
    kernel_size: 3
    stride: 1
    weight_filler {
      type: "gaussian"
      std: 0.01
    }
    bias_filler {
      type: "constant"
      value: 0
    }
  }
}
layer {
  name: "block2_s1_1_conv2_ReLU"
  type: "ReLU"
  bottom: "block2_s1_1_conv2"
  top: "block2_s1_1_conv2"
}
layer {
  name: "block2_s1_1_conv3"
  type: "Convolution"
  bottom: "block2_s1_1_conv2"
  top: "block2_s1_1_conv3"
  param {
    lr_mult: 1
    decay_mult: 1
  }
  param {
    lr_mult: 1
    decay_mult: 0
  }
  convolution_param {
    num_output: 272
    pad: 0
    kernel_size: 1
    group: 4
    stride: 1
    weight_filler {
      type: "gaussian"
      std: 0.01
    }
    bias_filler {
      type: "constant"
      value: 0
    }
  }
}
layer {
  name: "block2_s1_1_eltwise"
  type: "Eltwise"
  bottom: "block2_s2_concat"
  bottom: "block2_s1_1_conv3"
  top: "block2_s1_1_eltwise"
  eltwise_param {
    operation: SUM
  }
}
layer {
  name: "block2_s1_1_eltwise_ReLU"
  type: "ReLU"
  bottom: "block2_s1_1_eltwise"
  top: "block2_s1_1_eltwise"
}
layer {
  name: "block2_s1_2_conv1"
  type: "Convolution"
  bottom: "block2_s1_1_eltwise"
  top: "block2_s1_2_conv1"
  param {
    lr_mult: 1
    decay_mult: 1
  }
  param {
    lr_mult: 1
    decay_mult: 0
  }
  convolution_param {
    num_output: 68
    pad: 0
    kernel_size: 1
    group: 4
    stride: 1
    weight_filler {
      type: "gaussian"
      std: 0.01
    }
    bias_filler {
      type: "constant"
      value: 0
    }
  }
}
layer {
  name: "block2_s1_2_conv1_ReLU"
  type: "ReLU"
  bottom: "block2_s1_2_conv1"
  top: "block2_s1_2_conv1"
}
layer {
  name: "shuffle_block2_s1_2"
  type: "ShuffleChannel"
  bottom: "block2_s1_2_conv1"
  top: "shuffle_block2_s1_2"
  shuffle_channel_param {
    group: 4
  }
}
layer {
  name: "block2_s1_2_conv2"
  type: "ConvolutionDepthwise"
  bottom: "shuffle_block2_s1_2"
  top: "block2_s1_2_conv2"
  param {
    lr_mult: 1
    decay_mult: 1
  }
  param {
    lr_mult: 1
    decay_mult: 0
  }
  convolution_param {
    num_output: 68
    pad: 1
    kernel_size: 3
    stride: 1
    weight_filler {
      type: "gaussian"
      std: 0.01
    }
    bias_filler {
      type: "constant"
      value: 0
    }
  }
}
layer {
  name: "block2_s1_2_conv2_ReLU"
  type: "ReLU"
  bottom: "block2_s1_2_conv2"
  top: "block2_s1_2_conv2"
}
layer {
  name: "block2_s1_2_conv3"
  type: "Convolution"
  bottom: "block2_s1_2_conv2"
  top: "block2_s1_2_conv3"
  param {
    lr_mult: 1
    decay_mult: 1
  }
  param {
    lr_mult: 1
    decay_mult: 0
  }
  convolution_param {
    num_output: 272
    pad: 0
    kernel_size: 1
    group: 4
    stride: 1
    weight_filler {
      type: "gaussian"
      std: 0.01
    }
    bias_filler {
      type: "constant"
      value: 0
    }
  }
}
layer {
  name: "block2_s1_2_eltwise"
  type: "Eltwise"
  bottom: "block2_s1_1_eltwise"
  bottom: "block2_s1_2_conv3"
  top: "block2_s1_2_eltwise"
  eltwise_param {
    operation: SUM
  }
}
layer {
  name: "block2_s1_2_eltwise_ReLU"
  type: "ReLU"
  bottom: "block2_s1_2_eltwise"
  top: "block2_s1_2_eltwise"
}
layer {
  name: "block2_s1_3_conv1"
  type: "Convolution"
  bottom: "block2_s1_2_eltwise"
  top: "block2_s1_3_conv1"
  param {
    lr_mult: 1
    decay_mult: 1
  }
  param {
    lr_mult: 1
    decay_mult: 0
  }
  convolution_param {
    num_output: 68
    pad: 0
    kernel_size: 1
    group: 4
    stride: 1
    weight_filler {
      type: "gaussian"
      std: 0.01
    }
    bias_filler {
      type: "constant"
      value: 0
    }
  }
}
layer {
  name: "block2_s1_3_conv1_ReLU"
  type: "ReLU"
  bottom: "block2_s1_3_conv1"
  top: "block2_s1_3_conv1"
}
layer {
  name: "shuffle_block2_s1_3"
  type: "ShuffleChannel"
  bottom: "block2_s1_3_conv1"
  top: "shuffle_block2_s1_3"
  shuffle_channel_param {
    group: 4
  }
}
layer {
  name: "block2_s1_3_conv2"
  type: "ConvolutionDepthwise"
  bottom: "shuffle_block2_s1_3"
  top: "block2_s1_3_conv2"
  param {
    lr_mult: 1
    decay_mult: 1
  }
  param {
    lr_mult: 1
    decay_mult: 0
  }
  convolution_param {
    num_output: 68
    pad: 1
    kernel_size: 3
    stride: 1
    weight_filler {
      type: "gaussian"
      std: 0.01
    }
    bias_filler {
      type: "constant"
      value: 0
    }
  }
}
layer {
  name: "block2_s1_3_conv2_ReLU"
  type: "ReLU"
  bottom: "block2_s1_3_conv2"
  top: "block2_s1_3_conv2"
}
layer {
  name: "block2_s1_3_conv3"
  type: "Convolution"
  bottom: "block2_s1_3_conv2"
  top: "block2_s1_3_conv3"
  param {
    lr_mult: 1
    decay_mult: 1
  }
  param {
    lr_mult: 1
    decay_mult: 0
  }
  convolution_param {
    num_output: 272
    pad: 0
    kernel_size: 1
    group: 4
    stride: 1
    weight_filler {
      type: "gaussian"
      std: 0.01
    }
    bias_filler {
      type: "constant"
      value: 0
    }
  }
}
layer {
  name: "block2_s1_3_eltwise"
  type: "Eltwise"
  bottom: "block2_s1_2_eltwise"
  bottom: "block2_s1_3_conv3"
  top: "block2_s1_3_eltwise"
  eltwise_param {
    operation: SUM
  }
}
layer {
  name: "block2_s1_3_eltwise_ReLU"
  type: "ReLU"
  bottom: "block2_s1_3_eltwise"
  top: "block2_s1_3_eltwise"
}
layer {
  name: "block3_s2_pool"
  type: "Pooling"
  bottom: "block2_s1_3_eltwise"
  top: "block3_s2_pool"
  pooling_param {
    pool: MAX
    kernel_size: 3
    stride: 2
  }
}
layer {
  name: "block3_s2_conv1"
  type: "Convolution"
  bottom: "block2_s1_3_eltwise"
  top: "block3_s2_conv1"
  param {
    lr_mult: 1
    decay_mult: 1
  }
  param {
    lr_mult: 1
    decay_mult: 0
  }
  convolution_param {
    num_output: 68
    pad: 0
    kernel_size: 1
    group: 4
    stride: 1
    weight_filler {
      type: "gaussian"
      std: 0.01
    }
    bias_filler {
      type: "constant"
      value: 0
    }
  }
}
layer {
  name: "block3_s2_conv1_ReLU"
  type: "ReLU"
  bottom: "block3_s2_conv1"
  top: "block3_s2_conv1"
}
layer {
  name: "shuffle_block3_s2"
  type: "ShuffleChannel"
  bottom: "block3_s2_conv1"
  top: "shuffle_block3_s2"
  shuffle_channel_param {
    group: 4
  }
}
layer {
  name: "block3_s2_conv2"
  type: "ConvolutionDepthwise"
  bottom: "shuffle_block3_s2"
  top: "block3_s2_conv2"
  param {
    lr_mult: 1
    decay_mult: 1
  }
  param {
    lr_mult: 1
    decay_mult: 0
  }
  convolution_param {
    num_output: 68
    pad: 1
    kernel_size: 3
    stride: 2
    weight_filler {
      type: "gaussian"
      std: 0.01
    }
    bias_filler {
      type: "constant"
      value: 0
    }
  }
}
layer {
  name: "block3_s2_conv2_ReLU"
  type: "ReLU"
  bottom: "block3_s2_conv2"
  top: "block3_s2_conv2"
}
layer {
  name: "block3_s2_conv3"
  type: "Convolution"
  bottom: "block3_s2_conv2"
  top: "block3_s2_conv3"
  param {
    lr_mult: 1
    decay_mult: 1
  }
  param {
    lr_mult: 1
    decay_mult: 0
  }
  convolution_param {
    num_output: 272
    pad: 0
    kernel_size: 1
    group: 4
    stride: 1
    weight_filler {
      type: "gaussian"
      std: 0.01
    }
    bias_filler {
      type: "constant"
      value: 0
    }
  }
}
layer {
  name: "block3_s2_concat"
  type: "Concat"
  bottom: "block3_s2_pool"
  bottom: "block3_s2_conv3"
  top: "block3_s2_concat"
}
layer {
  name: "block3_s2_concat_ReLU"
  type: "ReLU"
  bottom: "block3_s2_concat"
  top: "block3_s2_concat"
}
layer {
  name: "block3_s1_1_conv1"
  type: "Convolution"
  bottom: "block3_s2_concat"
  top: "block3_s1_1_conv1"
  param {
    lr_mult: 1
    decay_mult: 1
  }
  param {
    lr_mult: 1
    decay_mult: 0
  }
  convolution_param {
    num_output: 136
    pad: 0
    kernel_size: 1
    group: 4
    stride: 1
    weight_filler {
      type: "gaussian"
      std: 0.01
    }
    bias_filler {
      type: "constant"
      value: 0
    }
  }
}
layer {
  name: "block3_s1_1_conv1_ReLU"
  type: "ReLU"
  bottom: "block3_s1_1_conv1"
  top: "block3_s1_1_conv1"
}
layer {
  name: "shuffle_block3_s1_1"
  type: "ShuffleChannel"
  bottom: "block3_s1_1_conv1"
  top: "shuffle_block3_s1_1"
  shuffle_channel_param {
    group: 4
  }
}
layer {
  name: "block3_s1_1_conv2"
  type: "ConvolutionDepthwise"
  bottom: "shuffle_block3_s1_1"
  top: "block3_s1_1_conv2"
  param {
    lr_mult: 1
    decay_mult: 1
  }
  param {
    lr_mult: 1
    decay_mult: 0
  }
  convolution_param {
    num_output: 136
    pad: 1
    kernel_size: 3
    stride: 1
    weight_filler {
      type: "gaussian"
      std: 0.01
    }
    bias_filler {
      type: "constant"
      value: 0
    }
  }
}
layer {
  name: "block3_s1_1_conv2_ReLU"
  type: "ReLU"
  bottom: "block3_s1_1_conv2"
  top: "block3_s1_1_conv2"
}
layer {
  name: "block3_s1_1_conv3"
  type: "Convolution"
  bottom: "block3_s1_1_conv2"
  top: "block3_s1_1_conv3"
  param {
    lr_mult: 1
    decay_mult: 1
  }
  param {
    lr_mult: 1
    decay_mult: 0
  }
  convolution_param {
    num_output: 544
    pad: 0
    kernel_size: 1
    group: 4
    stride: 1
    weight_filler {
      type: "gaussian"
      std: 0.01
    }
    bias_filler {
      type: "constant"
      value: 0
    }
  }
}
layer {
  name: "block3_s1_1_eltwise"
  type: "Eltwise"
  bottom: "block3_s2_concat"
  bottom: "block3_s1_1_conv3"
  top: "block3_s1_1_eltwise"
  eltwise_param {
    operation: SUM
  }
}
layer {
  name: "block3_s1_1_eltwise_ReLU"
  type: "ReLU"
  bottom: "block3_s1_1_eltwise"
  top: "block3_s1_1_eltwise"
}
layer {
  name: "block3_s1_2_conv1"
  type: "Convolution"
  bottom: "block3_s1_1_eltwise"
  top: "block3_s1_2_conv1"
  param {
    lr_mult: 1
    decay_mult: 1
  }
  param {
    lr_mult: 1
    decay_mult: 0
  }
  convolution_param {
    num_output: 136
    pad: 0
    kernel_size: 1
    group: 4
    stride: 1
    weight_filler {
      type: "gaussian"
      std: 0.01
    }
    bias_filler {
      type: "constant"
      value: 0
    }
  }
}
layer {
  name: "block3_s1_2_conv1_ReLU"
  type: "ReLU"
  bottom: "block3_s1_2_conv1"
  top: "block3_s1_2_conv1"
}
layer {
  name: "shuffle_block3_s1_2"
  type: "ShuffleChannel"
  bottom: "block3_s1_2_conv1"
  top: "shuffle_block3_s1_2"
  shuffle_channel_param {
    group: 4
  }
}
layer {
  name: "block3_s1_2_conv2"
  type: "ConvolutionDepthwise"
  bottom: "shuffle_block3_s1_2"
  top: "block3_s1_2_conv2"
  param {
    lr_mult: 1
    decay_mult: 1
  }
  param {
    lr_mult: 1
    decay_mult: 0
  }
  convolution_param {
    num_output: 136
    pad: 1
    kernel_size: 3
    stride: 1
    weight_filler {
      type: "gaussian"
      std: 0.01
    }
    bias_filler {
      type: "constant"
      value: 0
    }
  }
}
layer {
  name: "block3_s1_2_conv2_ReLU"
  type: "ReLU"
  bottom: "block3_s1_2_conv2"
  top: "block3_s1_2_conv2"
}
layer {
  name: "block3_s1_2_conv3"
  type: "Convolution"
  bottom: "block3_s1_2_conv2"
  top: "block3_s1_2_conv3"
  param {
    lr_mult: 1
    decay_mult: 1
  }
  param {
    lr_mult: 1
    decay_mult: 0
  }
  convolution_param {
    num_output: 544
    pad: 0
    kernel_size: 1
    group: 4
    stride: 1
    weight_filler {
      type: "gaussian"
      std: 0.01
    }
    bias_filler {
      type: "constant"
      value: 0
    }
  }
}
layer {
  name: "block3_s1_2_eltwise"
  type: "Eltwise"
  bottom: "block3_s1_1_eltwise"
  bottom: "block3_s1_2_conv3"
  top: "block3_s1_2_eltwise"
  eltwise_param {
    operation: SUM
  }
}
layer {
  name: "block3_s1_2_eltwise_ReLU"
  type: "ReLU"
  bottom: "block3_s1_2_eltwise"
  top: "block3_s1_2_eltwise"
}
layer {
  name: "block3_s1_3_conv1"
  type: "Convolution"
  bottom: "block3_s1_2_eltwise"
  top: "block3_s1_3_conv1"
  param {
    lr_mult: 1
    decay_mult: 1
  }
  param {
    lr_mult: 1
    decay_mult: 0
  }
  convolution_param {
    num_output: 136
    pad: 0
    kernel_size: 1
    group: 4
    stride: 1
    weight_filler {
      type: "gaussian"
      std: 0.01
    }
    bias_filler {
      type: "constant"
      value: 0
    }
  }
}
layer {
  name: "block3_s1_3_conv1_ReLU"
  type: "ReLU"
  bottom: "block3_s1_3_conv1"
  top: "block3_s1_3_conv1"
}
layer {
  name: "shuffle_block3_s1_3"
  type: "ShuffleChannel"
  bottom: "block3_s1_3_conv1"
  top: "shuffle_block3_s1_3"
  shuffle_channel_param {
    group: 4
  }
}
layer {
  name: "block3_s1_3_conv2"
  type: "ConvolutionDepthwise"
  bottom: "shuffle_block3_s1_3"
  top: "block3_s1_3_conv2"
  param {
    lr_mult: 1
    decay_mult: 1
  }
  param {
    lr_mult: 1
    decay_mult: 0
  }
  convolution_param {
    num_output: 136
    pad: 1
    kernel_size: 3
    stride: 1
    weight_filler {
      type: "gaussian"
      std: 0.01
    }
    bias_filler {
      type: "constant"
      value: 0
    }
  }
}
layer {
  name: "block3_s1_3_conv2_ReLU"
  type: "ReLU"
  bottom: "block3_s1_3_conv2"
  top: "block3_s1_3_conv2"
}
layer {
  name: "block3_s1_3_conv3"
  type: "Convolution"
  bottom: "block3_s1_3_conv2"
  top: "block3_s1_3_conv3"
  param {
    lr_mult: 1
    decay_mult: 1
  }
  param {
    lr_mult: 1
    decay_mult: 0
  }
  convolution_param {
    num_output: 544
    pad: 0
    kernel_size: 1
    group: 4
    stride: 1
    weight_filler {
      type: "gaussian"
      std: 0.01
    }
    bias_filler {
      type: "constant"
      value: 0
    }
  }
}
layer {
  name: "block3_s1_3_eltwise"
  type: "Eltwise"
  bottom: "block3_s1_2_eltwise"
  bottom: "block3_s1_3_conv3"
  top: "block3_s1_3_eltwise"
  eltwise_param {
    operation: SUM
  }
}
layer {
  name: "block3_s1_3_eltwise_ReLU"
  type: "ReLU"
  bottom: "block3_s1_3_eltwise"
  top: "block3_s1_3_eltwise"
}
layer {
  name: "block3_s1_4_conv1"
  type: "Convolution"
  bottom: "block3_s1_3_eltwise"
  top: "block3_s1_4_conv1"
  param {
    lr_mult: 1
    decay_mult: 1
  }
  param {
    lr_mult: 1
    decay_mult: 0
  }
  convolution_param {
    num_output: 136
    pad: 0
    kernel_size: 1
    group: 4
    stride: 1
    weight_filler {
      type: "gaussian"
      std: 0.01
    }
    bias_filler {
      type: "constant"
      value: 0
    }
  }
}
layer {
  name: "block3_s1_4_conv1_ReLU"
  type: "ReLU"
  bottom: "block3_s1_4_conv1"
  top: "block3_s1_4_conv1"
}
layer {
  name: "shuffle_block3_s1_4"
  type: "ShuffleChannel"
  bottom: "block3_s1_4_conv1"
  top: "shuffle_block3_s1_4"
  shuffle_channel_param {
    group: 4
  }
}
layer {
  name: "block3_s1_4_conv2"
  type: "ConvolutionDepthwise"
  bottom: "shuffle_block3_s1_4"
  top: "block3_s1_4_conv2"
  param {
    lr_mult: 1
    decay_mult: 1
  }
  param {
    lr_mult: 1
    decay_mult: 0
  }
  convolution_param {
    num_output: 136
    pad: 1
    kernel_size: 3
    stride: 1
    weight_filler {
      type: "gaussian"
      std: 0.01
    }
    bias_filler {
      type: "constant"
      value: 0
    }
  }
}
layer {
  name: "block3_s1_4_conv2_ReLU"
  type: "ReLU"
  bottom: "block3_s1_4_conv2"
  top: "block3_s1_4_conv2"
}
layer {
  name: "block3_s1_4_conv3"
  type: "Convolution"
  bottom: "block3_s1_4_conv2"
  top: "block3_s1_4_conv3"
  param {
    lr_mult: 1
    decay_mult: 1
  }
  param {
    lr_mult: 1
    decay_mult: 0
  }
  convolution_param {
    num_output: 544
    pad: 0
    kernel_size: 1
    group: 4
    stride: 1
    weight_filler {
      type: "gaussian"
      std: 0.01
    }
    bias_filler {
      type: "constant"
      value: 0
    }
  }
}
layer {
  name: "block3_s1_4_eltwise"
  type: "Eltwise"
  bottom: "block3_s1_3_eltwise"
  bottom: "block3_s1_4_conv3"
  top: "block3_s1_4_eltwise"
  eltwise_param {
    operation: SUM
  }
}
layer {
  name: "block3_s1_4_eltwise_ReLU"
  type: "ReLU"
  bottom: "block3_s1_4_eltwise"
  top: "block3_s1_4_eltwise"
}
layer {
  name: "block3_s1_5_conv1"
  type: "Convolution"
  bottom: "block3_s1_4_eltwise"
  top: "block3_s1_5_conv1"
  param {
    lr_mult: 1
    decay_mult: 1
  }
  param {
    lr_mult: 1
    decay_mult: 0
  }
  convolution_param {
    num_output: 136
    pad: 0
    kernel_size: 1
    group: 4
    stride: 1
    weight_filler {
      type: "gaussian"
      std: 0.01
    }
    bias_filler {
      type: "constant"
      value: 0
    }
  }
}
layer {
  name: "block3_s1_5_conv1_ReLU"
  type: "ReLU"
  bottom: "block3_s1_5_conv1"
  top: "block3_s1_5_conv1"
}
layer {
  name: "shuffle_block3_s1_5"
  type: "ShuffleChannel"
  bottom: "block3_s1_5_conv1"
  top: "shuffle_block3_s1_5"
  shuffle_channel_param {
    group: 4
  }
}
layer {
  name: "block3_s1_5_conv2"
  type: "ConvolutionDepthwise"
  bottom: "shuffle_block3_s1_5"
  top: "block3_s1_5_conv2"
  param {
    lr_mult: 1
    decay_mult: 1
  }
  param {
    lr_mult: 1
    decay_mult: 0
  }
  convolution_param {
    num_output: 136
    pad: 1
    kernel_size: 3
    stride: 1
    weight_filler {
      type: "gaussian"
      std: 0.01
    }
    bias_filler {
      type: "constant"
      value: 0
    }
  }
}
layer {
  name: "block3_s1_5_conv2_ReLU"
  type: "ReLU"
  bottom: "block3_s1_5_conv2"
  top: "block3_s1_5_conv2"
}
layer {
  name: "block3_s1_5_conv3"
  type: "Convolution"
  bottom: "block3_s1_5_conv2"
  top: "block3_s1_5_conv3"
  param {
    lr_mult: 1
    decay_mult: 1
  }
  param {
    lr_mult: 1
    decay_mult: 0
  }
  convolution_param {
    num_output: 544
    pad: 0
    kernel_size: 1
    group: 4
    stride: 1
    weight_filler {
      type: "gaussian"
      std: 0.01
    }
    bias_filler {
      type: "constant"
      value: 0
    }
  }
}
layer {
  name: "block3_s1_5_eltwise"
  type: "Eltwise"
  bottom: "block3_s1_4_eltwise"
  bottom: "block3_s1_5_conv3"
  top: "block3_s1_5_eltwise"
  eltwise_param {
    operation: SUM
  }
}
layer {
  name: "block3_s1_5_eltwise_ReLU"
  type: "ReLU"
  bottom: "block3_s1_5_eltwise"
  top: "block3_s1_5_eltwise"
}
layer {
  name: "block3_s1_6_conv1"
  type: "Convolution"
  bottom: "block3_s1_5_eltwise"
  top: "block3_s1_6_conv1"
  param {
    lr_mult: 1
    decay_mult: 1
  }
  param {
    lr_mult: 1
    decay_mult: 0
  }
  convolution_param {
    num_output: 136
    pad: 0
    kernel_size: 1
    group: 4
    stride: 1
    weight_filler {
      type: "gaussian"
      std: 0.01
    }
    bias_filler {
      type: "constant"
      value: 0
    }
  }
}
layer {
  name: "block3_s1_6_conv1_ReLU"
  type: "ReLU"
  bottom: "block3_s1_6_conv1"
  top: "block3_s1_6_conv1"
}
layer {
  name: "shuffle_block3_s1_6"
  type: "ShuffleChannel"
  bottom: "block3_s1_6_conv1"
  top: "shuffle_block3_s1_6"
  shuffle_channel_param {
    group: 4
  }
}
layer {
  name: "block3_s1_6_conv2"
  type: "ConvolutionDepthwise"
  bottom: "shuffle_block3_s1_6"
  top: "block3_s1_6_conv2"
  param {
    lr_mult: 1
    decay_mult: 1
  }
  param {
    lr_mult: 1
    decay_mult: 0
  }
  convolution_param {
    num_output: 136
    pad: 1
    kernel_size: 3
    stride: 1
    weight_filler {
      type: "gaussian"
      std: 0.01
    }
    bias_filler {
      type: "constant"
      value: 0
    }
  }
}
layer {
  name: "block3_s1_6_conv2_ReLU"
  type: "ReLU"
  bottom: "block3_s1_6_conv2"
  top: "block3_s1_6_conv2"
}
layer {
  name: "block3_s1_6_conv3"
  type: "Convolution"
  bottom: "block3_s1_6_conv2"
  top: "block3_s1_6_conv3"
  param {
    lr_mult: 1
    decay_mult: 1
  }
  param {
    lr_mult: 1
    decay_mult: 0
  }
  convolution_param {
    num_output: 544
    pad: 0
    kernel_size: 1
    group: 4
    stride: 1
    weight_filler {
      type: "gaussian"
      std: 0.01
    }
    bias_filler {
      type: "constant"
      value: 0
    }
  }
}
layer {
  name: "block3_s1_6_eltwise"
  type: "Eltwise"
  bottom: "block3_s1_5_eltwise"
  bottom: "block3_s1_6_conv3"
  top: "block3_s1_6_eltwise"
  eltwise_param {
    operation: SUM
  }
}
layer {
  name: "block3_s1_6_eltwise_ReLU"
  type: "ReLU"
  bottom: "block3_s1_6_eltwise"
  top: "block3_s1_6_eltwise"
}
layer {
  name: "block3_s1_7_conv1"
  type: "Convolution"
  bottom: "block3_s1_6_eltwise"
  top: "block3_s1_7_conv1"
  param {
    lr_mult: 1
    decay_mult: 1
  }
  param {
    lr_mult: 1
    decay_mult: 0
  }
  convolution_param {
    num_output: 136
    pad: 0
    kernel_size: 1
    group: 4
    stride: 1
    weight_filler {
      type: "gaussian"
      std: 0.01
    }
    bias_filler {
      type: "constant"
      value: 0
    }
  }
}
layer {
  name: "block3_s1_7_conv1_ReLU"
  type: "ReLU"
  bottom: "block3_s1_7_conv1"
  top: "block3_s1_7_conv1"
}
layer {
  name: "shuffle_block3_s1_7"
  type: "ShuffleChannel"
  bottom: "block3_s1_7_conv1"
  top: "shuffle_block3_s1_7"
  shuffle_channel_param {
    group: 4
  }
}
layer {
  name: "block3_s1_7_conv2"
  type: "ConvolutionDepthwise"
  bottom: "shuffle_block3_s1_7"
  top: "block3_s1_7_conv2"
  param {
    lr_mult: 1
    decay_mult: 1
  }
  param {
    lr_mult: 1
    decay_mult: 0
  }
  convolution_param {
    num_output: 136
    pad: 1
    kernel_size: 3
    stride: 1
    weight_filler {
      type: "gaussian"
      std: 0.01
    }
    bias_filler {
      type: "constant"
      value: 0
    }
  }
}
layer {
  name: "block3_s1_7_conv2_ReLU"
  type: "ReLU"
  bottom: "block3_s1_7_conv2"
  top: "block3_s1_7_conv2"
}
layer {
  name: "block3_s1_7_conv3"
  type: "Convolution"
  bottom: "block3_s1_7_conv2"
  top: "block3_s1_7_conv3"
  param {
    lr_mult: 1
    decay_mult: 1
  }
  param {
    lr_mult: 1
    decay_mult: 0
  }
  convolution_param {
    num_output: 544
    pad: 0
    kernel_size: 1
    group: 4
    stride: 1
    weight_filler {
      type: "gaussian"
      std: 0.01
    }
    bias_filler {
      type: "constant"
      value: 0
    }
  }
}
layer {
  name: "block3_s1_7_eltwise"
  type: "Eltwise"
  bottom: "block3_s1_6_eltwise"
  bottom: "block3_s1_7_conv3"
  top: "block3_s1_7_eltwise"
  eltwise_param {
    operation: SUM
  }
}
layer {
  name: "block3_s1_7_eltwise_ReLU"
  type: "ReLU"
  bottom: "block3_s1_7_eltwise"
  top: "block3_s1_7_eltwise"
}
layer {
  name: "block4_s2_pool"
  type: "Pooling"
  bottom: "block3_s1_7_eltwise"
  top: "block4_s2_pool"
  pooling_param {
    pool: MAX
    kernel_size: 3
    stride: 2
  }
}
layer {
  name: "block4_s2_conv1"
  type: "Convolution"
  bottom: "block3_s1_7_eltwise"
  top: "block4_s2_conv1"
  param {
    lr_mult: 1
    decay_mult: 1
  }
  param {
    lr_mult: 1
    decay_mult: 0
  }
  convolution_param {
    num_output: 136
    pad: 0
    kernel_size: 1
    group: 4
    stride: 1
    weight_filler {
      type: "gaussian"
      std: 0.01
    }
    bias_filler {
…
I0809 17:22:58.549731 22897 net.cpp:395] block3_s1_3_conv1_ReLU -> block3_s1_3_conv1 (in-place)
I0809 17:22:58.550439 22897 net.cpp:150] Setting up block3_s1_3_conv1_ReLU
I0809 17:22:58.550457 22897 net.cpp:157] Top shape: 20 136 16 16 (696320)
I0809 17:22:58.550463 22897 net.cpp:165] Memory required for data: 922583120
I0809 17:22:58.550479 22897 layer_factory.hpp:77] Creating layer shuffle_block3_s1_3
I0809 17:22:58.550488 22897 net.cpp:100] Creating Layer shuffle_block3_s1_3
I0809 17:22:58.550494 22897 net.cpp:434] shuffle_block3_s1_3 <- block3_s1_3_conv1
I0809 17:22:58.550503 22897 net.cpp:408] shuffle_block3_s1_3 -> shuffle_block3_s1_3
I0809 17:22:58.550537 22897 net.cpp:150] Setting up shuffle_block3_s1_3
I0809 17:22:58.550546 22897 net.cpp:157] Top shape: 20 136 16 16 (696320)
I0809 17:22:58.550551 22897 net.cpp:165] Memory required for data: 925368400
I0809 17:22:58.550556 22897 layer_factory.hpp:77] Creating layer block3_s1_3_conv2
I0809 17:22:58.550566 22897 net.cpp:100] Creating Layer block3_s1_3_conv2
I0809 17:22:58.550572 22897 net.cpp:434] block3_s1_3_conv2 <- shuffle_block3_s1_3
I0809 17:22:58.550580 22897 net.cpp:408] block3_s1_3_conv2 -> block3_s1_3_conv2
I0809 17:22:58.550827 22897 net.cpp:150] Setting up block3_s1_3_conv2
I0809 17:22:58.550843 22897 net.cpp:157] Top shape: 20 136 16 16 (696320)
I0809 17:22:58.550848 22897 net.cpp:165] Memory required for data: 928153680
I0809 17:22:58.550855 22897 layer_factory.hpp:77] Creating layer block3_s1_3_conv2_ReLU
I0809 17:22:58.550865 22897 net.cpp:100] Creating Layer block3_s1_3_conv2_ReLU
I0809 17:22:58.550871 22897 net.cpp:434] block3_s1_3_conv2_ReLU <- block3_s1_3_conv2
I0809 17:22:58.550879 22897 net.cpp:395] block3_s1_3_conv2_ReLU -> block3_s1_3_conv2 (in-place)
I0809 17:22:58.551594 22897 net.cpp:150] Setting up block3_s1_3_conv2_ReLU
I0809 17:22:58.551614 22897 net.cpp:157] Top shape: 20 136 16 16 (696320)
I0809 17:22:58.551620 22897 net.cpp:165] Memory required for data: 930938960
I0809 17:22:58.551625 22897 layer_factory.hpp:77] Creating layer block3_s1_3_conv3
I0809 17:22:58.551636 22897 net.cpp:100] Creating Layer block3_s1_3_conv3
I0809 17:22:58.551643 22897 net.cpp:434] block3_s1_3_conv3 <- block3_s1_3_conv2
I0809 17:22:58.551652 22897 net.cpp:408] block3_s1_3_conv3 -> block3_s1_3_conv3
I0809 17:22:58.555840 22897 net.cpp:150] Setting up block3_s1_3_conv3
I0809 17:22:58.555874 22897 net.cpp:157] Top shape: 20 544 16 16 (2785280)
I0809 17:22:58.555883 22897 net.cpp:165] Memory required for data: 942080080
I0809 17:22:58.555896 22897 layer_factory.hpp:77] Creating layer block3_s1_3_eltwise
I0809 17:22:58.555904 22897 net.cpp:100] Creating Layer block3_s1_3_eltwise
I0809 17:22:58.555912 22897 net.cpp:434] block3_s1_3_eltwise <- block3_s1_2_eltwise_block3_s1_2_eltwise_ReLU_0_split_1
I0809 17:22:58.555918 22897 net.cpp:434] block3_s1_3_eltwise <- block3_s1_3_conv3
I0809 17:22:58.555925 22897 net.cpp:408] block3_s1_3_eltwise -> block3_s1_3_eltwise
I0809 17:22:58.555960 22897 net.cpp:150] Setting up block3_s1_3_eltwise
I0809 17:22:58.555970 22897 net.cpp:157] Top shape: 20 544 16 16 (2785280)
I0809 17:22:58.555975 22897 net.cpp:165] Memory required for data: 953221200
I0809 17:22:58.555980 22897 layer_factory.hpp:77] Creating layer block3_s1_3_eltwise_ReLU
I0809 17:22:58.555987 22897 net.cpp:100] Creating Layer block3_s1_3_eltwise_ReLU
I0809 17:22:58.555994 22897 net.cpp:434] block3_s1_3_eltwise_ReLU <- block3_s1_3_eltwise
I0809 17:22:58.556001 22897 net.cpp:395] block3_s1_3_eltwise_ReLU -> block3_s1_3_eltwise (in-place)
I0809 17:22:58.556744 22897 net.cpp:150] Setting up block3_s1_3_eltwise_ReLU
I0809 17:22:58.556762 22897 net.cpp:157] Top shape: 20 544 16 16 (2785280)
I0809 17:22:58.556768 22897 net.cpp:165] Memory required for data: 964362320
I0809 17:22:58.556774 22897 layer_factory.hpp:77] Creating layer block3_s1_3_eltwise_block3_s1_3_eltwise_ReLU_0_split
I0809 17:22:58.556782 22897 net.cpp:100] Creating Layer block3_s1_3_eltwise_block3_s1_3_eltwise_ReLU_0_split
I0809 17:22:58.556788 22897 net.cpp:434] block3_s1_3_eltwise_block3_s1_3_eltwise_ReLU_0_split <- block3_s1_3_eltwise
I0809 17:22:58.556797 22897 net.cpp:408] block3_s1_3_eltwise_block3_s1_3_eltwise_ReLU_0_split -> block3_s1_3_eltwise_block3_s1_3_eltwise_ReLU_0_split_0
I0809 17:22:58.556805 22897 net.cpp:408] block3_s1_3_eltwise_block3_s1_3_eltwise_ReLU_0_split -> block3_s1_3_eltwise_block3_s1_3_eltwise_ReLU_0_split_1
I0809 17:22:58.556874 22897 net.cpp:150] Setting up block3_s1_3_eltwise_block3_s1_3_eltwise_ReLU_0_split
I0809 17:22:58.556884 22897 net.cpp:157] Top shape: 20 544 16 16 (2785280)
I0809 17:22:58.556890 22897 net.cpp:157] Top shape: 20 544 16 16 (2785280)
I0809 17:22:58.556895 22897 net.cpp:165] Memory required for data: 986644560
I0809 17:22:58.556900 22897 layer_factory.hpp:77] Creating layer block3_s1_4_conv1
I0809 17:22:58.556910 22897 net.cpp:100] Creating Layer block3_s1_4_conv1
I0809 17:22:58.556917 22897 net.cpp:434] block3_s1_4_conv1 <- block3_s1_3_eltwise_block3_s1_3_eltwise_ReLU_0_split_0
I0809 17:22:58.556926 22897 net.cpp:408] block3_s1_4_conv1 -> block3_s1_4_conv1
I0809 17:22:58.561208 22897 net.cpp:150] Setting up block3_s1_4_conv1
I0809 17:22:58.561246 22897 net.cpp:157] Top shape: 20 136 16 16 (696320)
I0809 17:22:58.561252 22897 net.cpp:165] Memory required for data: 989429840
I0809 17:22:58.561262 22897 layer_factory.hpp:77] Creating layer block3_s1_4_conv1_ReLU
I0809 17:22:58.561271 22897 net.cpp:100] Creating Layer block3_s1_4_conv1_ReLU
I0809 17:22:58.561278 22897 net.cpp:434] block3_s1_4_conv1_ReLU <- block3_s1_4_conv1
I0809 17:22:58.561285 22897 net.cpp:395] block3_s1_4_conv1_ReLU -> block3_s1_4_conv1 (in-place)
I0809 17:22:58.561477 22897 net.cpp:150] Setting up block3_s1_4_conv1_ReLU
I0809 17:22:58.561489 22897 net.cpp:157] Top shape: 20 136 16 16 (696320)
I0809 17:22:58.561494 22897 net.cpp:165] Memory required for data: 992215120
I0809 17:22:58.561499 22897 layer_factory.hpp:77] Creating layer shuffle_block3_s1_4
I0809 17:22:58.561507 22897 net.cpp:100] Creating Layer shuffle_block3_s1_4
I0809 17:22:58.561512 22897 net.cpp:434] shuffle_block3_s1_4 <- block3_s1_4_conv1
I0809 17:22:58.561520 22897 net.cpp:408] shuffle_block3_s1_4 -> shuffle_block3_s1_4
I0809 17:22:58.561553 22897 net.cpp:150] Setting up shuffle_block3_s1_4
I0809 17:22:58.561561 22897 net.cpp:157] Top shape: 20 136 16 16 (696320)
I0809 17:22:58.561566 22897 net.cpp:165] Memory required for data: 995000400
I0809 17:22:58.561570 22897 layer_factory.hpp:77] Creating layer block3_s1_4_conv2
I0809 17:22:58.561581 22897 net.cpp:100] Creating Layer block3_s1_4_conv2
I0809 17:22:58.561586 22897 net.cpp:434] block3_s1_4_conv2 <- shuffle_block3_s1_4
I0809 17:22:58.561595 22897 net.cpp:408] block3_s1_4_conv2 -> block3_s1_4_conv2
I0809 17:22:58.561844 22897 net.cpp:150] Setting up block3_s1_4_conv2
I0809 17:22:58.561861 22897 net.cpp:157] Top shape: 20 136 16 16 (696320)
I0809 17:22:58.561866 22897 net.cpp:165] Memory required for data: 997785680
I0809 17:22:58.561873 22897 layer_factory.hpp:77] Creating layer block3_s1_4_conv2_ReLU
I0809 17:22:58.561882 22897 net.cpp:100] Creating Layer block3_s1_4_conv2_ReLU
I0809 17:22:58.561887 22897 net.cpp:434] block3_s1_4_conv2_ReLU <- block3_s1_4_conv2
I0809 17:22:58.561893 22897 net.cpp:395] block3_s1_4_conv2_ReLU -> block3_s1_4_conv2 (in-place)
I0809 17:22:58.562611 22897 net.cpp:150] Setting up block3_s1_4_conv2_ReLU
I0809 17:22:58.562629 22897 net.cpp:157] Top shape: 20 136 16 16 (696320)
I0809 17:22:58.562635 22897 net.cpp:165] Memory required for data: 1000570960
I0809 17:22:58.562640 22897 layer_factory.hpp:77] Creating layer block3_s1_4_conv3
I0809 17:22:58.562655 22897 net.cpp:100] Creating Layer block3_s1_4_conv3
I0809 17:22:58.562662 22897 net.cpp:434] block3_s1_4_conv3 <- block3_s1_4_conv2
I0809 17:22:58.562671 22897 net.cpp:408] block3_s1_4_conv3 -> block3_s1_4_conv3
I0809 17:22:58.566933 22897 net.cpp:150] Setting up block3_s1_4_conv3
I0809 17:22:58.566954 22897 net.cpp:157] Top shape: 20 544 16 16 (2785280)
I0809 17:22:58.566961 22897 net.cpp:165] Memory required for data: 1011712080
I0809 17:22:58.566968 22897 layer_factory.hpp:77] Creating layer block3_s1_4_eltwise
I0809 17:22:58.566979 22897 net.cpp:100] Creating Layer block3_s1_4_eltwise
I0809 17:22:58.566987 22897 net.cpp:434] block3_s1_4_eltwise <- block3_s1_3_eltwise_block3_s1_3_eltwise_ReLU_0_split_1
I0809 17:22:58.566993 22897 net.cpp:434] block3_s1_4_eltwise <- block3_s1_4_conv3
I0809 17:22:58.567000 22897 net.cpp:408] block3_s1_4_eltwise -> block3_s1_4_eltwise
I0809 17:22:58.567046 22897 net.cpp:150] Setting up block3_s1_4_eltwise
I0809 17:22:58.567057 22897 net.cpp:157] Top shape: 20 544 16 16 (2785280)
I0809 17:22:58.567062 22897 net.cpp:165] Memory required for data: 1022853200
I0809 17:22:58.567066 22897 layer_factory.hpp:77] Creating layer block3_s1_4_eltwise_ReLU
I0809 17:22:58.567073 22897 net.cpp:100] Creating Layer block3_s1_4_eltwise_ReLU
I0809 17:22:58.567080 22897 net.cpp:434] block3_s1_4_eltwise_ReLU <- block3_s1_4_eltwise
I0809 17:22:58.567087 22897 net.cpp:395] block3_s1_4_eltwise_ReLU -> block3_s1_4_eltwise (in-place)
I0809 17:22:58.567809 22897 net.cpp:150] Setting up block3_s1_4_eltwise_ReLU
I0809 17:22:58.567827 22897 net.cpp:157] Top shape: 20 544 16 16 (2785280)
I0809 17:22:58.567834 22897 net.cpp:165] Memory required for data: 1033994320
I0809 17:22:58.567840 22897 layer_factory.hpp:77] Creating layer block3_s1_4_eltwise_block3_s1_4_eltwise_ReLU_0_split
I0809 17:22:58.567849 22897 net.cpp:100] Creating Layer block3_s1_4_eltwise_block3_s1_4_eltwise_ReLU_0_split
I0809 17:22:58.567855 22897 net.cpp:434] block3_s1_4_eltwise_block3_s1_4_eltwise_ReLU_0_split <- block3_s1_4_eltwise
I0809 17:22:58.567862 22897 net.cpp:408] block3_s1_4_eltwise_block3_s1_4_eltwise_ReLU_0_split -> block3_s1_4_eltwise_block3_s1_4_eltwise_ReLU_0_split_0
I0809 17:22:58.567870 22897 net.cpp:408] block3_s1_4_eltwise_block3_s1_4_eltwise_ReLU_0_split -> block3_s1_4_eltwise_block3_s1_4_eltwise_ReLU_0_split_1
I0809 17:22:58.567925 22897 net.cpp:150] Setting up block3_s1_4_eltwise_block3_s1_4_eltwise_ReLU_0_split
I0809 17:22:58.567935 22897 net.cpp:157] Top shape: 20 544 16 16 (2785280)
I0809 17:22:58.567941 22897 net.cpp:157] Top shape: 20 544 16 16 (2785280)
I0809 17:22:58.567945 22897 net.cpp:165] Memory required for data: 1056276560
I0809 17:22:58.567950 22897 layer_factory.hpp:77] Creating layer block3_s1_5_conv1
I0809 17:22:58.567962 22897 net.cpp:100] Creating Layer block3_s1_5_conv1
I0809 17:22:58.567970 22897 net.cpp:434] block3_s1_5_conv1 <- block3_s1_4_eltwise_block3_s1_4_eltwise_ReLU_0_split_0
I0809 17:22:58.567978 22897 net.cpp:408] block3_s1_5_conv1 -> block3_s1_5_conv1
I0809 17:22:58.572206 22897 net.cpp:150] Setting up block3_s1_5_conv1
I0809 17:22:58.572227 22897 net.cpp:157] Top shape: 20 136 16 16 (696320)
I0809 17:22:58.572234 22897 net.cpp:165] Memory required for data: 1059061840
I0809 17:22:58.572242 22897 layer_factory.hpp:77] Creating layer block3_s1_5_conv1_ReLU
I0809 17:22:58.572250 22897 net.cpp:100] Creating Layer block3_s1_5_conv1_ReLU
I0809 17:22:58.572257 22897 net.cpp:434] block3_s1_5_conv1_ReLU <- block3_s1_5_conv1
I0809 17:22:58.572263 22897 net.cpp:395] block3_s1_5_conv1_ReLU -> block3_s1_5_conv1 (in-place)
I0809 17:22:58.572435 22897 net.cpp:150] Setting up block3_s1_5_conv1_ReLU
I0809 17:22:58.572448 22897 net.cpp:157] Top shape: 20 136 16 16 (696320)
I0809 17:22:58.572454 22897 net.cpp:165] Memory required for data: 1061847120
I0809 17:22:58.572459 22897 layer_factory.hpp:77] Creating layer shuffle_block3_s1_5
I0809 17:22:58.572468 22897 net.cpp:100] Creating Layer shuffle_block3_s1_5
I0809 17:22:58.572473 22897 net.cpp:434] shuffle_block3_s1_5 <- block3_s1_5_conv1
I0809 17:22:58.572480 22897 net.cpp:408] shuffle_block3_s1_5 -> shuffle_block3_s1_5
I0809 17:22:58.572512 22897 net.cpp:150] Setting up shuffle_block3_s1_5
I0809 17:22:58.572521 22897 net.cpp:157] Top shape: 20 136 16 16 (696320)
I0809 17:22:58.572526 22897 net.cpp:165] Memory required for data: 1064632400
I0809 17:22:58.572531 22897 layer_factory.hpp:77] Creating layer block3_s1_5_conv2
I0809 17:22:58.572541 22897 net.cpp:100] Creating Layer block3_s1_5_conv2
I0809 17:22:58.572547 22897 net.cpp:434] block3_s1_5_conv2 <- shuffle_block3_s1_5
I0809 17:22:58.572559 22897 net.cpp:408] block3_s1_5_conv2 -> block3_s1_5_conv2
I0809 17:22:58.572813 22897 net.cpp:150] Setting up block3_s1_5_conv2
I0809 17:22:58.572829 22897 net.cpp:157] Top shape: 20 136 16 16 (696320)
I0809 17:22:58.572835 22897 net.cpp:165] Memory required for data: 1067417680
I0809 17:22:58.572854 22897 layer_factory.hpp:77] Creating layer block3_s1_5_conv2_ReLU
I0809 17:22:58.572862 22897 net.cpp:100] Creating Layer block3_s1_5_conv2_ReLU
I0809 17:22:58.572868 22897 net.cpp:434] block3_s1_5_conv2_ReLU <- block3_s1_5_conv2
I0809 17:22:58.572875 22897 net.cpp:395] block3_s1_5_conv2_ReLU -> block3_s1_5_conv2 (in-place)
I0809 17:22:58.574276 22897 net.cpp:150] Setting up block3_s1_5_conv2_ReLU
I0809 17:22:58.574295 22897 net.cpp:157] Top shape: 20 136 16 16 (696320)
I0809 17:22:58.574301 22897 net.cpp:165] Memory required for data: 1070202960
I0809 17:22:58.574306 22897 layer_factory.hpp:77] Creating layer block3_s1_5_conv3
I0809 17:22:58.574319 22897 net.cpp:100] Creating Layer block3_s1_5_conv3
I0809 17:22:58.574326 22897 net.cpp:434] block3_s1_5_conv3 <- block3_s1_5_conv2
I0809 17:22:58.574337 22897 net.cpp:408] block3_s1_5_conv3 -> block3_s1_5_conv3
I0809 17:22:58.578558 22897 net.cpp:150] Setting up block3_s1_5_conv3
I0809 17:22:58.578578 22897 net.cpp:157] Top shape: 20 544 16 16 (2785280)
I0809 17:22:58.578584 22897 net.cpp:165] Memory required for data: 1081344080
I0809 17:22:58.578593 22897 layer_factory.hpp:77] Creating layer block3_s1_5_eltwise
I0809 17:22:58.578601 22897 net.cpp:100] Creating Layer block3_s1_5_eltwise
I0809 17:22:58.578608 22897 net.cpp:434] block3_s1_5_eltwise <- block3_s1_4_eltwise_block3_s1_4_eltwise_ReLU_0_split_1
I0809 17:22:58.578614 22897 net.cpp:434] block3_s1_5_eltwise <- block3_s1_5_conv3
I0809 17:22:58.578624 22897 net.cpp:408] block3_s1_5_eltwise -> block3_s1_5_eltwise
I0809 17:22:58.578657 22897 net.cpp:150] Setting up block3_s1_5_eltwise
I0809 17:22:58.578666 22897 net.cpp:157] Top shape: 20 544 16 16 (2785280)
I0809 17:22:58.578671 22897 net.cpp:165] Memory required for data: 1092485200
I0809 17:22:58.578676 22897 layer_factory.hpp:77] Creating layer block3_s1_5_eltwise_ReLU
I0809 17:22:58.578685 22897 net.cpp:100] Creating Layer block3_s1_5_eltwise_ReLU
I0809 17:22:58.578691 22897 net.cpp:434] block3_s1_5_eltwise_ReLU <- block3_s1_5_eltwise
I0809 17:22:58.578697 22897 net.cpp:395] block3_s1_5_eltwise_ReLU -> block3_s1_5_eltwise (in-place)
I0809 17:22:58.579423 22897 net.cpp:150] Setting up block3_s1_5_eltwise_ReLU
I0809 17:22:58.579442 22897 net.cpp:157] Top shape: 20 544 16 16 (2785280)
I0809 17:22:58.579447 22897 net.cpp:165] Memory required for data: 1103626320
I0809 17:22:58.579453 22897 layer_factory.hpp:77] Creating layer block3_s1_5_eltwise_block3_s1_5_eltwise_ReLU_0_split
I0809 17:22:58.579463 22897 net.cpp:100] Creating Layer block3_s1_5_eltwise_block3_s1_5_eltwise_ReLU_0_split
I0809 17:22:58.579469 22897 net.cpp:434] block3_s1_5_eltwise_block3_s1_5_eltwise_ReLU_0_split <- block3_s1_5_eltwise
I0809 17:22:58.579476 22897 net.cpp:408] block3_s1_5_eltwise_block3_s1_5_eltwise_ReLU_0_split -> block3_s1_5_eltwise_block3_s1_5_eltwise_ReLU_0_split_0
I0809 17:22:58.579484 22897 net.cpp:408] block3_s1_5_eltwise_block3_s1_5_eltwise_ReLU_0_split -> block3_s1_5_eltwise_block3_s1_5_eltwise_ReLU_0_split_1
I0809 17:22:58.579540 22897 net.cpp:150] Setting up block3_s1_5_eltwise_block3_s1_5_eltwise_ReLU_0_split
I0809 17:22:58.579551 22897 net.cpp:157] Top shape: 20 544 16 16 (2785280)
I0809 17:22:58.579556 22897 net.cpp:157] Top shape: 20 544 16 16 (2785280)
I0809 17:22:58.579561 22897 net.cpp:165] Memory required for data: 1125908560
I0809 17:22:58.579566 22897 layer_factory.hpp:77] Creating layer block3_s1_6_conv1
I0809 17:22:58.579577 22897 net.cpp:100] Creating Layer block3_s1_6_conv1
I0809 17:22:58.579583 22897 net.cpp:434] block3_s1_6_conv1 <- block3_s1_5_eltwise_block3_s1_5_eltwise_ReLU_0_split_0
I0809 17:22:58.579592 22897 net.cpp:408] block3_s1_6_conv1 -> block3_s1_6_conv1
I0809 17:22:58.583878 22897 net.cpp:150] Setting up block3_s1_6_conv1
I0809 17:22:58.583899 22897 net.cpp:157] Top shape: 20 136 16 16 (696320)
I0809 17:22:58.583905 22897 net.cpp:165] Memory required for data: 1128693840
I0809 17:22:58.583914 22897 layer_factory.hpp:77] Creating layer block3_s1_6_conv1_ReLU
I0809 17:22:58.583921 22897 net.cpp:100] Creating Layer block3_s1_6_conv1_ReLU
I0809 17:22:58.583940 22897 net.cpp:434] block3_s1_6_conv1_ReLU <- block3_s1_6_conv1
I0809 17:22:58.583950 22897 net.cpp:395] block3_s1_6_conv1_ReLU -> block3_s1_6_conv1 (in-place)
I0809 17:22:58.584123 22897 net.cpp:150] Setting up block3_s1_6_conv1_ReLU
I0809 17:22:58.584137 22897 net.cpp:157] Top shape: 20 136 16 16 (696320)
I0809 17:22:58.584143 22897 net.cpp:165] Memory required for data: 1131479120
I0809 17:22:58.584149 22897 layer_factory.hpp:77] Creating layer shuffle_block3_s1_6
I0809 17:22:58.584158 22897 net.cpp:100] Creating Layer shuffle_block3_s1_6
I0809 17:22:58.584164 22897 net.cpp:434] shuffle_block3_s1_6 <- block3_s1_6_conv1
I0809 17:22:58.584172 22897 net.cpp:408] shuffle_block3_s1_6 -> shuffle_block3_s1_6
I0809 17:22:58.584203 22897 net.cpp:150] Setting up shuffle_block3_s1_6
I0809 17:22:58.584213 22897 net.cpp:157] Top shape: 20 136 16 16 (696320)
I0809 17:22:58.584218 22897 net.cpp:165] Memory required for data: 1134264400
I0809 17:22:58.584223 22897 layer_factory.hpp:77] Creating layer block3_s1_6_conv2
I0809 17:22:58.584233 22897 net.cpp:100] Creating Layer block3_s1_6_conv2
I0809 17:22:58.584239 22897 net.cpp:434] block3_s1_6_conv2 <- shuffle_block3_s1_6
I0809 17:22:58.584247 22897 net.cpp:408] block3_s1_6_conv2 -> block3_s1_6_conv2
I0809 17:22:58.584499 22897 net.cpp:150] Setting up block3_s1_6_conv2
I0809 17:22:58.584513 22897 net.cpp:157] Top shape: 20 136 16 16 (696320)
I0809 17:22:58.584519 22897 net.cpp:165] Memory required for data: 1137049680
I0809 17:22:58.584535 22897 layer_factory.hpp:77] Creating layer block3_s1_6_conv2_ReLU
I0809 17:22:58.584545 22897 net.cpp:100] Creating Layer block3_s1_6_conv2_ReLU
I0809 17:22:58.584550 22897 net.cpp:434] block3_s1_6_conv2_ReLU <- block3_s1_6_conv2
I0809 17:22:58.584558 22897 net.cpp:395] block3_s1_6_conv2_ReLU -> block3_s1_6_conv2 (in-place)
I0809 17:22:58.585281 22897 net.cpp:150] Setting up block3_s1_6_conv2_ReLU
I0809 17:22:58.585317 22897 net.cpp:157] Top shape: 20 136 16 16 (696320)
I0809 17:22:58.585325 22897 net.cpp:165] Memory required for data: 1139834960
I0809 17:22:58.585330 22897 layer_factory.hpp:77] Creating layer block3_s1_6_conv3
I0809 17:22:58.585343 22897 net.cpp:100] Creating Layer block3_s1_6_conv3
I0809 17:22:58.585351 22897 net.cpp:434] block3_s1_6_conv3 <- block3_s1_6_conv2
I0809 17:22:58.585376 22897 net.cpp:408] block3_s1_6_conv3 -> block3_s1_6_conv3
I0809 17:22:58.589766 22897 net.cpp:150] Setting up block3_s1_6_conv3
I0809 17:22:58.589788 22897 net.cpp:157] Top shape: 20 544 16 16 (2785280)
I0809 17:22:58.589794 22897 net.cpp:165] Memory required for data: 1150976080
I0809 17:22:58.589802 22897 layer_factory.hpp:77] Creating layer block3_s1_6_eltwise
I0809 17:22:58.589812 22897 net.cpp:100] Creating Layer block3_s1_6_eltwise
I0809 17:22:58.589818 22897 net.cpp:434] block3_s1_6_eltwise <- block3_s1_5_eltwise_block3_s1_5_eltwise_ReLU_0_split_1
I0809 17:22:58.589824 22897 net.cpp:434] block3_s1_6_eltwise <- block3_s1_6_conv3
I0809 17:22:58.589831 22897 net.cpp:408] block3_s1_6_eltwise -> block3_s1_6_eltwise
I0809 17:22:58.589866 22897 net.cpp:150] Setting up block3_s1_6_eltwise
I0809 17:22:58.589876 22897 net.cpp:157] Top shape: 20 544 16 16 (2785280)
I0809 17:22:58.589880 22897 net.cpp:165] Memory required for data: 1162117200
I0809 17:22:58.589886 22897 layer_factory.hpp:77] Creating layer block3_s1_6_eltwise_ReLU
I0809 17:22:58.589895 22897 net.cpp:100] Creating Layer block3_s1_6_eltwise_ReLU
I0809 17:22:58.589900 22897 net.cpp:434] block3_s1_6_eltwise_ReLU <- block3_s1_6_eltwise
I0809 17:22:58.589906 22897 net.cpp:395] block3_s1_6_eltwise_ReLU -> block3_s1_6_eltwise (in-place)
I0809 17:22:58.590632 22897 net.cpp:150] Setting up block3_s1_6_eltwise_ReLU
I0809 17:22:58.590651 22897 net.cpp:157] Top shape: 20 544 16 16 (2785280)
I0809 17:22:58.590656 22897 net.cpp:165] Memory required for data: 1173258320
I0809 17:22:58.590662 22897 layer_factory.hpp:77] Creating layer block3_s1_6_eltwise_block3_s1_6_eltwise_ReLU_0_split
I0809 17:22:58.590672 22897 net.cpp:100] Creating Layer block3_s1_6_eltwise_block3_s1_6_eltwise_ReLU_0_split
I0809 17:22:58.590692 22897 net.cpp:434] block3_s1_6_eltwise_block3_s1_6_eltwise_ReLU_0_split <- block3_s1_6_eltwise
I0809 17:22:58.590700 22897 net.cpp:408] block3_s1_6_eltwise_block3_s1_6_eltwise_ReLU_0_split -> block3_s1_6_eltwise_block3_s1_6_eltwise_ReLU_0_split_0
I0809 17:22:58.590708 22897 net.cpp:408] block3_s1_6_eltwise_block3_s1_6_eltwise_ReLU_0_split -> block3_s1_6_eltwise_block3_s1_6_eltwise_ReLU_0_split_1
I0809 17:22:58.590768 22897 net.cpp:150] Setting up block3_s1_6_eltwise_block3_s1_6_eltwise_ReLU_0_split
I0809 17:22:58.590778 22897 net.cpp:157] Top shape: 20 544 16 16 (2785280)
I0809 17:22:58.590785 22897 net.cpp:157] Top shape: 20 544 16 16 (2785280)
I0809 17:22:58.590788 22897 net.cpp:165] Memory required for data: 1195540560
I0809 17:22:58.590793 22897 layer_factory.hpp:77] Creating layer block3_s1_7_conv1
I0809 17:22:58.590806 22897 net.cpp:100] Creating Layer block3_s1_7_conv1
I0809 17:22:58.590812 22897 net.cpp:434] block3_s1_7_conv1 <- block3_s1_6_eltwise_block3_s1_6_eltwise_ReLU_0_split_0
I0809 17:22:58.590821 22897 net.cpp:408] block3_s1_7_conv1 -> block3_s1_7_conv1
I0809 17:22:58.596046 22897 net.cpp:150] Setting up block3_s1_7_conv1
I0809 17:22:58.596068 22897 net.cpp:157] Top shape: 20 136 16 16 (696320)
I0809 17:22:58.596074 22897 net.cpp:165] Memory required for data: 1198325840
I0809 17:22:58.596082 22897 layer_factory.hpp:77] Creating layer block3_s1_7_conv1_ReLU
I0809 17:22:58.596091 22897 net.cpp:100] Creating Layer block3_s1_7_conv1_ReLU
I0809 17:22:58.596097 22897 net.cpp:434] block3_s1_7_conv1_ReLU <- block3_s1_7_conv1
I0809 17:22:58.596104 22897 net.cpp:395] block3_s1_7_conv1_ReLU -> block3_s1_7_conv1 (in-place)
I0809 17:22:58.596297 22897 net.cpp:150] Setting up block3_s1_7_conv1_ReLU
I0809 17:22:58.596312 22897 net.cpp:157] Top shape: 20 136 16 16 (696320)
I0809 17:22:58.596318 22897 net.cpp:165] Memory required for data: 1201111120
I0809 17:22:58.596323 22897 layer_factory.hpp:77] Creating layer shuffle_block3_s1_7
I0809 17:22:58.596331 22897 net.cpp:100] Creating Layer shuffle_block3_s1_7
I0809 17:22:58.596336 22897 net.cpp:434] shuffle_block3_s1_7 <- block3_s1_7_conv1
I0809 17:22:58.596345 22897 net.cpp:408] shuffle_block3_s1_7 -> shuffle_block3_s1_7
I0809 17:22:58.596380 22897 net.cpp:150] Setting up shuffle_block3_s1_7
I0809 17:22:58.596392 22897 net.cpp:157] Top shape: 20 136 16 16 (696320)
I0809 17:22:58.596397 22897 net.cpp:165] Memory required for data: 1203896400
I0809 17:22:58.596402 22897 layer_factory.hpp:77] Creating layer block3_s1_7_conv2
I0809 17:22:58.596411 22897 net.cpp:100] Creating Layer block3_s1_7_conv2
I0809 17:22:58.596418 22897 net.cpp:434] block3_s1_7_conv2 <- shuffle_block3_s1_7
I0809 17:22:58.596426 22897 net.cpp:408] block3_s1_7_conv2 -> block3_s1_7_conv2
I0809 17:22:58.596707 22897 net.cpp:150] Setting up block3_s1_7_conv2
I0809 17:22:58.596722 22897 net.cpp:157] Top shape: 20 136 16 16 (696320)
I0809 17:22:58.596729 22897 net.cpp:165] Memory required for data: 1206681680
I0809 17:22:58.596735 22897 layer_factory.hpp:77] Creating layer block3_s1_7_conv2_ReLU
I0809 17:22:58.596743 22897 net.cpp:100] Creating Layer block3_s1_7_conv2_ReLU
I0809 17:22:58.596750 22897 net.cpp:434] block3_s1_7_conv2_ReLU <- block3_s1_7_conv2
I0809 17:22:58.596756 22897 net.cpp:395] block3_s1_7_conv2_ReLU -> block3_s1_7_conv2 (in-place)
I0809 17:22:58.597568 22897 net.cpp:150] Setting up block3_s1_7_conv2_ReLU
I0809 17:22:58.597587 22897 net.cpp:157] Top shape: 20 136 16 16 (696320)
I0809 17:22:58.597594 22897 net.cpp:165] Memory required for data: 1209466960
I0809 17:22:58.597599 22897 layer_factory.hpp:77] Creating layer block3_s1_7_conv3
I0809 17:22:58.597614 22897 net.cpp:100] Creating Layer block3_s1_7_conv3
I0809 17:22:58.597620 22897 net.cpp:434] block3_s1_7_conv3 <- block3_s1_7_conv2
I0809 17:22:58.597630 22897 net.cpp:408] block3_s1_7_conv3 -> block3_s1_7_conv3
I0809 17:22:58.602375 22897 net.cpp:150] Setting up block3_s1_7_conv3
I0809 17:22:58.602396 22897 net.cpp:157] Top shape: 20 544 16 16 (2785280)
I0809 17:22:58.602401 22897 net.cpp:165] Memory required for data: 1220608080
I0809 17:22:58.602421 22897 layer_factory.hpp:77] Creating layer block3_s1_7_eltwise
I0809 17:22:58.602430 22897 net.cpp:100] Creating Layer block3_s1_7_eltwise
I0809 17:22:58.602437 22897 net.cpp:434] block3_s1_7_eltwise <- block3_s1_6_eltwise_block3_s1_6_eltwise_ReLU_0_split_1
I0809 17:22:58.602444 22897 net.cpp:434] block3_s1_7_eltwise <- block3_s1_7_conv3
I0809 17:22:58.602452 22897 net.cpp:408] block3_s1_7_eltwise -> block3_s1_7_eltwise
I0809 17:22:58.602488 22897 net.cpp:150] Setting up block3_s1_7_eltwise
I0809 17:22:58.602497 22897 net.cpp:157] Top shape: 20 544 16 16 (2785280)
I0809 17:22:58.602502 22897 net.cpp:165] Memory required for data: 1231749200
I0809 17:22:58.602507 22897 layer_factory.hpp:77] Creating layer block3_s1_7_eltwise_ReLU
I0809 17:22:58.602514 22897 net.cpp:100] Creating Layer block3_s1_7_eltwise_ReLU
I0809 17:22:58.602521 22897 net.cpp:434] block3_s1_7_eltwise_ReLU <- block3_s1_7_eltwise
I0809 17:22:58.602527 22897 net.cpp:395] block3_s1_7_eltwise_ReLU -> block3_s1_7_eltwise (in-place)
I0809 17:22:58.603255 22897 net.cpp:150] Setting up block3_s1_7_eltwise_ReLU
I0809 17:22:58.603274 22897 net.cpp:157] Top shape: 20 544 16 16 (2785280)
I0809 17:22:58.603281 22897 net.cpp:165] Memory required for data: 1242890320
I0809 17:22:58.603286 22897 layer_factory.hpp:77] Creating layer block3_s1_7_eltwise_block3_s1_7_eltwise_ReLU_0_split
I0809 17:22:58.603296 22897 net.cpp:100] Creating Layer block3_s1_7_eltwise_block3_s1_7_eltwise_ReLU_0_split
I0809 17:22:58.603302 22897 net.cpp:434] block3_s1_7_eltwise_block3_s1_7_eltwise_ReLU_0_split <- block3_s1_7_eltwise
I0809 17:22:58.603308 22897 net.cpp:408] block3_s1_7_eltwise_block3_s1_7_eltwise_ReLU_0_split -> block3_s1_7_eltwise_block3_s1_7_eltwise_ReLU_0_split_0
I0809 17:22:58.603317 22897 net.cpp:408] block3_s1_7_eltwise_block3_s1_7_eltwise_ReLU_0_split -> block3_s1_7_eltwise_block3_s1_7_eltwise_ReLU_0_split_1
I0809 17:22:58.603376 22897 net.cpp:150] Setting up block3_s1_7_eltwise_block3_s1_7_eltwise_ReLU_0_split
I0809 17:22:58.603385 22897 net.cpp:157] Top shape: 20 544 16 16 (2785280)
I0809 17:22:58.603391 22897 net.cpp:157] Top shape: 20 544 16 16 (2785280)
I0809 17:22:58.603396 22897 net.cpp:165] Memory required for data: 1265172560
I0809 17:22:58.603401 22897 layer_factory.hpp:77] Creating layer block4_s2_pool
I0809 17:22:58.603411 22897 net.cpp:100] Creating Layer block4_s2_pool
I0809 17:22:58.603417 22897 net.cpp:434] block4_s2_pool <- block3_s1_7_eltwise_block3_s1_7_eltwise_ReLU_0_split_0
I0809 17:22:58.603423 22897 net.cpp:408] block4_s2_pool -> block4_s2_pool
I0809 17:22:58.603474 22897 net.cpp:150] Setting up block4_s2_pool
I0809 17:22:58.603494 22897 net.cpp:157] Top shape: 20 544 8 8 (696320)
I0809 17:22:58.603499 22897 net.cpp:165] Memory required for data: 1267957840
I0809 17:22:58.603504 22897 layer_factory.hpp:77] Creating layer block4_s2_conv1
I0809 17:22:58.603516 22897 net.cpp:100] Creating Layer block4_s2_conv1
I0809 17:22:58.603523 22897 net.cpp:434] block4_s2_conv1 <- block3_s1_7_eltwise_block3_s1_7_eltwise_ReLU_0_split_1
I0809 17:22:58.603531 22897 net.cpp:408] block4_s2_conv1 -> block4_s2_conv1
I0809 17:22:58.607857 22897 net.cpp:150] Setting up block4_s2_conv1
I0809 17:22:58.607879 22897 net.cpp:157] Top shape: 20 136 16 16 (696320)
I0809 17:22:58.607887 22897 net.cpp:165] Memory required for data: 1270743120
I0809 17:22:58.607894 22897 layer_factory.hpp:77] Creating layer block4_s2_conv1_ReLU
I0809 17:22:58.607903 22897 net.cpp:100] Creating Layer block4_s2_conv1_ReLU
I0809 17:22:58.607909 22897 net.cpp:434] block4_s2_conv1_ReLU <- block4_s2_conv1
I0809 17:22:58.607916 22897 net.cpp:395] block4_s2_conv1_ReLU -> block4_s2_conv1 (in-place)
I0809 17:22:58.608095 22897 net.cpp:150] Setting up block4_s2_conv1_ReLU
I0809 17:22:58.608109 22897 net.cpp:157] Top shape: 20 136 16 16 (696320)
I0809 17:22:58.608115 22897 net.cpp:165] Memory required for data: 1273528400
I0809 17:22:58.608120 22897 layer_factory.hpp:77] Creating layer shuffle_block4_s2
I0809 17:22:58.608129 22897 net.cpp:100] Creating Layer shuffle_block4_s2
I0809 17:22:58.608144 22897 net.cpp:434] shuffle_block4_s2 <- block4_s2_conv1
I0809 17:22:58.608153 22897 net.cpp:408] shuffle_block4_s2 -> shuffle_block4_s2
I0809 17:22:58.608188 22897 net.cpp:150] Setting up shuffle_block4_s2
I0809 17:22:58.608197 22897 net.cpp:157] Top shape: 20 136 16 16 (696320)
I0809 17:22:58.608202 22897 net.cpp:165] Memory required for data: 1276313680
I0809 17:22:58.608206 22897 layer_factory.hpp:77] Creating layer block4_s2_conv2
I0809 17:22:58.608217 22897 net.cpp:100] Creating Layer block4_s2_conv2
I0809 17:22:58.608223 22897 net.cpp:434] block4_s2_conv2 <- shuffle_block4_s2
I0809 17:22:58.608232 22897 net.cpp:408] block4_s2_conv2 -> block4_s2_conv2
I0809 17:22:58.608501 22897 net.cpp:150] Setting up block4_s2_conv2
I0809 17:22:58.608517 22897 net.cpp:157] Top shape: 20 136 8 8 (174080)
I0809 17:22:58.608525 22897 net.cpp:165] Memory required for data: 1277010000
I0809 17:22:58.608531 22897 layer_factory.hpp:77] Creating layer block4_s2_conv2_ReLU
I0809 17:22:58.608539 22897 net.cpp:100] Creating Layer block4_s2_conv2_ReLU
I0809 17:22:58.608546 22897 net.cpp:434] block4_s2_conv2_ReLU <- block4_s2_conv2
I0809 17:22:58.608551 22897 net.cpp:395] block4_s2_conv2_ReLU -> block4_s2_conv2 (in-place)
I0809 17:22:58.609324 22897 net.cpp:150] Setting up block4_s2_conv2_ReLU
I0809 17:22:58.609359 22897 net.cpp:157] Top shape: 20 136 8 8 (174080)
I0809 17:22:58.609364 22897 net.cpp:165] Memory required for data: 1277706320
I0809 17:22:58.609386 22897 layer_factory.hpp:77] Creating layer block4_s2_conv3
I0809 17:22:58.609401 22897 net.cpp:100] Creating Layer block4_s2_conv3
I0809 17:22:58.609408 22897 net.cpp:434] block4_s2_conv3 <- block4_s2_conv2
I0809 17:22:58.609416 22897 net.cpp:408] block4_s2_conv3 -> block4_s2_conv3
I0809 17:22:58.613780 22897 net.cpp:150] Setting up block4_s2_conv3
I0809 17:22:58.613801 22897 net.cpp:157] Top shape: 20 544 8 8 (696320)
I0809 17:22:58.613806 22897 net.cpp:165] Memory required for data: 1280491600
I0809 17:22:58.613814 22897 layer_factory.hpp:77] Creating layer block4_s2_concat
I0809 17:22:58.613824 22897 net.cpp:100] Creating Layer block4_s2_concat
I0809 17:22:58.613831 22897 net.cpp:434] block4_s2_concat <- block4_s2_pool
I0809 17:22:58.613838 22897 net.cpp:434] block4_s2_concat <- block4_s2_conv3
I0809 17:22:58.613845 22897 net.cpp:408] block4_s2_concat -> block4_s2_concat
I0809 17:22:58.613886 22897 net.cpp:150] Setting up block4_s2_concat
I0809 17:22:58.613895 22897 net.cpp:157] Top shape: 20 1088 8 8 (1392640)
I0809 17:22:58.613900 22897 net.cpp:165] Memory required for data: 1286062160
I0809 17:22:58.613905 22897 layer_factory.hpp:77] Creating layer block4_s2_concat_ReLU
I0809 17:22:58.613912 22897 net.cpp:100] Creating Layer block4_s2_concat_ReLU
I0809 17:22:58.613919 22897 net.cpp:434] block4_s2_concat_ReLU <- block4_s2_concat
I0809 17:22:58.613925 22897 net.cpp:395] block4_s2_concat_ReLU -> block4_s2_concat (in-place)
I0809 17:22:58.614653 22897 net.cpp:150] Setting up block4_s2_concat_ReLU
I0809 17:22:58.614672 22897 net.cpp:157] Top shape: 20 1088 8 8 (1392640)
I0809 17:22:58.614681 22897 net.cpp:165] Memory required for data: 1291632720
I0809 17:22:58.614686 22897 layer_factory.hpp:77] Creating layer block4_s2_concat_block4_s2_concat_ReLU_0_split
I0809 17:22:58.614693 22897 net.cpp:100] Creating Layer block4_s2_concat_block4_s2_concat_ReLU_0_split
I0809 17:22:58.614698 22897 net.cpp:434] block4_s2_concat_block4_s2_concat_ReLU_0_split <- block4_s2_concat
I0809 17:22:58.614706 22897 net.cpp:408] block4_s2_concat_block4_s2_concat_ReLU_0_split -> block4_s2_concat_block4_s2_concat_ReLU_0_split_0
I0809 17:22:58.614714 22897 net.cpp:408] block4_s2_concat_block4_s2_concat_ReLU_0_split -> block4_s2_concat_block4_s2_concat_ReLU_0_split_1
I0809 17:22:58.614773 22897 net.cpp:150] Setting up block4_s2_concat_block4_s2_concat_ReLU_0_split
I0809 17:22:58.614783 22897 net.cpp:157] Top shape: 20 1088 8 8 (1392640)
I0809 17:22:58.614789 22897 net.cpp:157] Top shape: 20 1088 8 8 (1392640)
I0809 17:22:58.614794 22897 net.cpp:165] Memory required for data: 1302773840
I0809 17:22:58.614811 22897 layer_factory.hpp:77] Creating layer block4_s1_1_conv1
I0809 17:22:58.614823 22897 net.cpp:100] Creating Layer block4_s1_1_conv1
I0809 17:22:58.614830 22897 net.cpp:434] block4_s1_1_conv1 <- block4_s2_concat_block4_s2_concat_ReLU_0_split_0
I0809 17:22:58.614840 22897 net.cpp:408] block4_s1_1_conv1 -> block4_s1_1_conv1
I0809 17:22:58.620184 22897 net.cpp:150] Setting up block4_s1_1_conv1
I0809 17:22:58.620206 22897 net.cpp:157] Top shape: 20 272 8 8 (348160)
I0809 17:22:58.620213 22897 net.cpp:165] Memory required for data: 1304166480
I0809 17:22:58.620221 22897 layer_factory.hpp:77] Creating layer block4_s1_1_conv1_ReLU
I0809 17:22:58.620230 22897 net.cpp:100] Creating Layer block4_s1_1_conv1_ReLU
I0809 17:22:58.620237 22897 net.cpp:434] block4_s1_1_conv1_ReLU <- block4_s1_1_conv1
I0809 17:22:58.620244 22897 net.cpp:395] block4_s1_1_conv1_ReLU -> block4_s1_1_conv1 (in-place)
I0809 17:22:58.620424 22897 net.cpp:150] Setting up block4_s1_1_conv1_ReLU
I0809 17:22:58.620437 22897 net.cpp:157] Top shape: 20 272 8 8 (348160)
I0809 17:22:58.620442 22897 net.cpp:165] Memory required for data: 1305559120
I0809 17:22:58.620447 22897 layer_factory.hpp:77] Creating layer shuffle_block4_s1_1
I0809 17:22:58.620455 22897 net.cpp:100] Creating Layer shuffle_block4_s1_1
I0809 17:22:58.620461 22897 net.cpp:434] shuffle_block4_s1_1 <- block4_s1_1_conv1
I0809 17:22:58.620470 22897 net.cpp:408] shuffle_block4_s1_1 -> shuffle_block4_s1_1
I0809 17:22:58.620507 22897 net.cpp:150] Setting up shuffle_block4_s1_1
I0809 17:22:58.620518 22897 net.cpp:157] Top shape: 20 272 8 8 (348160)
I0809 17:22:58.620524 22897 net.cpp:165] Memory required for data: 1306951760
I0809 17:22:58.620529 22897 layer_factory.hpp:77] Creating layer block4_s1_1_conv2
I0809 17:22:58.620548 22897 net.cpp:100] Creating Layer block4_s1_1_conv2
I0809 17:22:58.620554 22897 net.cpp:434] block4_s1_1_conv2 <- shuffle_block4_s1_1
I0809 17:22:58.620563 22897 net.cpp:408] block4_s1_1_conv2 -> block4_s1_1_conv2
I0809 17:22:58.620862 22897 net.cpp:150] Setting up block4_s1_1_conv2
I0809 17:22:58.620877 22897 net.cpp:157] Top shape: 20 272 8 8 (348160)
I0809 17:22:58.620882 22897 net.cpp:165] Memory required for data: 1308344400
I0809 17:22:58.620890 22897 layer_factory.hpp:77] Creating layer block4_s1_1_conv2_ReLU
I0809 17:22:58.620898 22897 net.cpp:100] Creating Layer block4_s1_1_conv2_ReLU
I0809 17:22:58.620904 22897 net.cpp:434] block4_s1_1_conv2_ReLU <- block4_s1_1_conv2
I0809 17:22:58.620910 22897 net.cpp:395] block4_s1_1_conv2_ReLU -> block4_s1_1_conv2 (in-place)
I0809 17:22:58.621731 22897 net.cpp:150] Setting up block4_s1_1_conv2_ReLU
I0809 17:22:58.621750 22897 net.cpp:157] Top shape: 20 272 8 8 (348160)
I0809 17:22:58.621757 22897 net.cpp:165] Memory required for data: 1309737040
I0809 17:22:58.621762 22897 layer_factory.hpp:77] Creating layer block4_s1_1_conv3
I0809 17:22:58.621774 22897 net.cpp:100] Creating Layer block4_s1_1_conv3
I0809 17:22:58.621783 22897 net.cpp:434] block4_s1_1_conv3 <- block4_s1_1_conv2
I0809 17:22:58.621791 22897 net.cpp:408] block4_s1_1_conv3 -> block4_s1_1_conv3
I0809 17:22:58.627710 22897 net.cpp:150] Setting up block4_s1_1_conv3
I0809 17:22:58.627730 22897 net.cpp:157] Top shape: 20 1088 8 8 (1392640)
I0809 17:22:58.627737 22897 net.cpp:165] Memory required for data: 1315307600
I0809 17:22:58.627744 22897 layer_factory.hpp:77] Creating layer block4_s1_1_eltwise
I0809 17:22:58.627754 22897 net.cpp:100] Creating Layer block4_s1_1_eltwise
I0809 17:22:58.627761 22897 net.cpp:434] block4_s1_1_eltwise <- block4_s2_concat_block4_s2_concat_ReLU_0_split_1
I0809 17:22:58.627770 22897 net.cpp:434] block4_s1_1_eltwise <- block4_s1_1_conv3
I0809 17:22:58.627777 22897 net.cpp:408] block4_s1_1_eltwise -> block4_s1_1_eltwise
I0809 17:22:58.627818 22897 net.cpp:150] Setting up block4_s1_1_eltwise
I0809 17:22:58.627827 22897 net.cpp:157] Top shape: 20 1088 8 8 (1392640)
I0809 17:22:58.627832 22897 net.cpp:165] Memory required for data: 1320878160
I0809 17:22:58.627837 22897 layer_factory.hpp:77] Creating layer block4_s1_1_eltwise_ReLU
I0809 17:22:58.627854 22897 net.cpp:100] Creating Layer block4_s1_1_eltwise_ReLU
I0809 17:22:58.627861 22897 net.cpp:434] block4_s1_1_eltwise_ReLU <- block4_s1_1_eltwise
I0809 17:22:58.627871 22897 net.cpp:395] block4_s1_1_eltwise_ReLU -> block4_s1_1_eltwise (in-place)
I0809 17:22:58.628607 22897 net.cpp:150] Setting up block4_s1_1_eltwise_ReLU
I0809 17:22:58.628625 22897 net.cpp:157] Top shape: 20 1088 8 8 (1392640)
I0809 17:22:58.628633 22897 net.cpp:165] Memory required for data: 1326448720
I0809 17:22:58.628638 22897 layer_factory.hpp:77] Creating layer block4_s1_1_eltwise_block4_s1_1_eltwise_ReLU_0_split
I0809 17:22:58.628646 22897 net.cpp:100] Creating Layer block4_s1_1_eltwise_block4_s1_1_eltwise_ReLU_0_split
I0809 17:22:58.628653 22897 net.cpp:434] block4_s1_1_eltwise_block4_s1_1_eltwise_ReLU_0_split <- block4_s1_1_eltwise
I0809 17:22:58.628660 22897 net.cpp:408] block4_s1_1_eltwise_block4_s1_1_eltwise_ReLU_0_split -> block4_s1_1_eltwise_block4_s1_1_eltwise_ReLU_0_split_0
I0809 17:22:58.628669 22897 net.cpp:408] block4_s1_1_eltwise_block4_s1_1_eltwise_ReLU_0_split -> block4_s1_1_eltwise_block4_s1_1_eltwise_ReLU_0_split_1
I0809 17:22:58.628731 22897 net.cpp:150] Setting up block4_s1_1_eltwise_block4_s1_1_eltwise_ReLU_0_split
I0809 17:22:58.628741 22897 net.cpp:157] Top shape: 20 1088 8 8 (1392640)
I0809 17:22:58.628746 22897 net.cpp:157] Top shape: 20 1088 8 8 (1392640)
I0809 17:22:58.628751 22897 net.cpp:165] Memory required for data: 1337589840
I0809 17:22:58.628756 22897 layer_factory.hpp:77] Creating layer block4_s1_2_conv1
I0809 17:22:58.628767 22897 net.cpp:100] Creating Layer block4_s1_2_conv1
I0809 17:22:58.628774 22897 net.cpp:434] block4_s1_2_conv1 <- block4_s1_1_eltwise_block4_s1_1_eltwise_ReLU_0_split_0
I0809 17:22:58.628783 22897 net.cpp:408] block4_s1_2_conv1 -> block4_s1_2_conv1
I0809 17:22:58.634238 22897 net.cpp:150] Setting up block4_s1_2_conv1
I0809 17:22:58.634260 22897 net.cpp:157] Top shape: 20 272 8 8 (348160)
I0809 17:22:58.634266 22897 net.cpp:165] Memory required for data: 1338982480
I0809 17:22:58.634274 22897 layer_factory.hpp:77] Creating layer block4_s1_2_conv1_ReLU
I0809 17:22:58.634284 22897 net.cpp:100] Creating Layer block4_s1_2_conv1_ReLU
I0809 17:22:58.634291 22897 net.cpp:434] block4_s1_2_conv1_ReLU <- block4_s1_2_conv1
I0809 17:22:58.634299 22897 net.cpp:395] block4_s1_2_conv1_ReLU -> block4_s1_2_conv1 (in-place)
I0809 17:22:58.634476 22897 net.cpp:150] Setting up block4_s1_2_conv1_ReLU
I0809 17:22:58.634490 22897 net.cpp:157] Top shape: 20 272 8 8 (348160)
I0809 17:22:58.634496 22897 net.cpp:165] Memory required for data: 1340375120
I0809 17:22:58.634501 22897 layer_factory.hpp:77] Creating layer shuffle_block4_s1_2
I0809 17:22:58.634511 22897 net.cpp:100] Creating Layer shuffle_block4_s1_2
I0809 17:22:58.634517 22897 net.cpp:434] shuffle_block4_s1_2 <- block4_s1_2_conv1
I0809 17:22:58.634526 22897 net.cpp:408] shuffle_block4_s1_2 -> shuffle_block4_s1_2
I0809 17:22:58.634565 22897 net.cpp:150] Setting up shuffle_block4_s1_2
I0809 17:22:58.634574 22897 net.cpp:157] Top shape: 20 272 8 8 (348160)
I0809 17:22:58.634579 22897 net.cpp:165] Memory required for data: 1341767760
I0809 17:22:58.634584 22897 layer_factory.hpp:77] Creating layer block4_s1_2_conv2
I0809 17:22:58.634603 22897 net.cpp:100] Creating Layer block4_s1_2_conv2
I0809 17:22:58.634609 22897 net.cpp:434] block4_s1_2_conv2 <- shuffle_block4_s1_2
I0809 17:22:58.634618 22897 net.cpp:408] block4_s1_2_conv2 -> block4_s1_2_conv2
I0809 17:22:58.634917 22897 net.cpp:150] Setting up block4_s1_2_conv2
I0809 17:22:58.634932 22897 net.cpp:157] Top shape: 20 272 8 8 (348160)
I0809 17:22:58.634938 22897 net.cpp:165] Memory required for data: 1343160400
I0809 17:22:58.634945 22897 layer_factory.hpp:77] Creating layer block4_s1_2_conv2_ReLU
I0809 17:22:58.634955 22897 net.cpp:100] Creating Layer block4_s1_2_conv2_ReLU
I0809 17:22:58.634963 22897 net.cpp:434] block4_s1_2_conv2_ReLU <- block4_s1_2_conv2
I0809 17:22:58.634968 22897 net.cpp:395] block4_s1_2_conv2_ReLU -> block4_s1_2_conv2 (in-place)
I0809 17:22:58.635694 22897 net.cpp:150] Setting up block4_s1_2_conv2_ReLU
I0809 17:22:58.635727 22897 net.cpp:157] Top shape: 20 272 8 8 (348160)
I0809 17:22:58.635735 22897 net.cpp:165] Memory required for data: 1344553040
I0809 17:22:58.635740 22897 layer_factory.hpp:77] Creating layer block4_s1_2_conv3
I0809 17:22:58.635752 22897 net.cpp:100] Creating Layer block4_s1_2_conv3
I0809 17:22:58.635759 22897 net.cpp:434] block4_s1_2_conv3 <- block4_s1_2_conv2
I0809 17:22:58.635767 22897 net.cpp:408] block4_s1_2_conv3 -> block4_s1_2_conv3
I0809 17:22:58.641391 22897 net.cpp:150] Setting up block4_s1_2_conv3
I0809 17:22:58.641412 22897 net.cpp:157] Top shape: 20 1088 8 8 (1392640)
I0809 17:22:58.641417 22897 net.cpp:165] Memory required for data: 1350123600
I0809 17:22:58.641427 22897 layer_factory.hpp:77] Creating layer block4_s1_2_eltwise
I0809 17:22:58.641436 22897 net.cpp:100] Creating Layer block4_s1_2_eltwise
I0809 17:22:58.641443 22897 net.cpp:434] block4_s1_2_eltwise <- block4_s1_1_eltwise_block4_s1_1_eltwise_ReLU_0_split_1
I0809 17:22:58.641450 22897 net.cpp:434] block4_s1_2_eltwise <- block4_s1_2_conv3
I0809 17:22:58.641458 22897 net.cpp:408] block4_s1_2_eltwise -> block4_s1_2_eltwise
I0809 17:22:58.641500 22897 net.cpp:150] Setting up block4_s1_2_eltwise
I0809 17:22:58.641510 22897 net.cpp:157] Top shape: 20 1088 8 8 (1392640)
I0809 17:22:58.641516 22897 net.cpp:165] Memory required for data: 1355694160
I0809 17:22:58.641521 22897 layer_factory.hpp:77] Creating layer block4_s1_2_eltwise_ReLU
I0809 17:22:58.641527 22897 net.cpp:100] Creating Layer block4_s1_2_eltwise_ReLU
I0809 17:22:58.641533 22897 net.cpp:434] block4_s1_2_eltwise_ReLU <- block4_s1_2_eltwise
I0809 17:22:58.641541 22897 net.cpp:395] block4_s1_2_eltwise_ReLU -> block4_s1_2_eltwise (in-place)
I0809 17:22:58.642276 22897 net.cpp:150] Setting up block4_s1_2_eltwise_ReLU
I0809 17:22:58.642293 22897 net.cpp:157] Top shape: 20 1088 8 8 (1392640)
I0809 17:22:58.642300 22897 net.cpp:165] Memory required for data: 1361264720
I0809 17:22:58.642307 22897 layer_factory.hpp:77] Creating layer block4_s1_2_eltwise_block4_s1_2_eltwise_ReLU_0_split
I0809 17:22:58.642315 22897 net.cpp:100] Creating Layer block4_s1_2_eltwise_block4_s1_2_eltwise_ReLU_0_split
I0809 17:22:58.642321 22897 net.cpp:434] block4_s1_2_eltwise_block4_s1_2_eltwise_ReLU_0_split <- block4_s1_2_eltwise
I0809 17:22:58.642329 22897 net.cpp:408] block4_s1_2_eltwise_block4_s1_2_eltwise_ReLU_0_split -> block4_s1_2_eltwise_block4_s1_2_eltwise_ReLU_0_split_0
I0809 17:22:58.642338 22897 net.cpp:408] block4_s1_2_eltwise_block4_s1_2_eltwise_ReLU_0_split -> block4_s1_2_eltwise_block4_s1_2_eltwise_ReLU_0_split_1
I0809 17:22:58.642398 22897 net.cpp:150] Setting up block4_s1_2_eltwise_block4_s1_2_eltwise_ReLU_0_split
I0809 17:22:58.642408 22897 net.cpp:157] Top shape: 20 1088 8 8 (1392640)
I0809 17:22:58.642415 22897 net.cpp:157] Top shape: 20 1088 8 8 (1392640)
I0809 17:22:58.642419 22897 net.cpp:165] Memory required for data: 1372405840
I0809 17:22:58.642424 22897 layer_factory.hpp:77] Creating layer block4_s1_3_conv1
I0809 17:22:58.642436 22897 net.cpp:100] Creating Layer block4_s1_3_conv1
I0809 17:22:58.642442 22897 net.cpp:434] block4_s1_3_conv1 <- block4_s1_2_eltwise_block4_s1_2_eltwise_ReLU_0_split_0
I0809 17:22:58.642452 22897 net.cpp:408] block4_s1_3_conv1 -> block4_s1_3_conv1
I0809 17:22:58.647912 22897 net.cpp:150] Setting up block4_s1_3_conv1
I0809 17:22:58.647931 22897 net.cpp:157] Top shape: 20 272 8 8 (348160)
I0809 17:22:58.647938 22897 net.cpp:165] Memory required for data: 1373798480
I0809 17:22:58.647946 22897 layer_factory.hpp:77] Creating layer block4_s1_3_conv1_ReLU
I0809 17:22:58.647956 22897 net.cpp:100] Creating Layer block4_s1_3_conv1_ReLU
I0809 17:22:58.647964 22897 net.cpp:434] block4_s1_3_conv1_ReLU <- block4_s1_3_conv1
I0809 17:22:58.647971 22897 net.cpp:395] block4_s1_3_conv1_ReLU -> block4_s1_3_conv1 (in-place)
I0809 17:22:58.648150 22897 net.cpp:150] Setting up block4_s1_3_conv1_ReLU
I0809 17:22:58.648164 22897 net.cpp:157] Top shape: 20 272 8 8 (348160)
I0809 17:22:58.648170 22897 net.cpp:165] Memory required for data: 1375191120
I0809 17:22:58.648185 22897 layer_factory.hpp:77] Creating layer shuffle_block4_s1_3
I0809 17:22:58.648195 22897 net.cpp:100] Creating Layer shuffle_block4_s1_3
I0809 17:22:58.648200 22897 net.cpp:434] shuffle_block4_s1_3 <- block4_s1_3_conv1
I0809 17:22:58.648208 22897 net.cpp:408] shuffle_block4_s1_3 -> shuffle_block4_s1_3
I0809 17:22:58.648248 22897 net.cpp:150] Setting up shuffle_block4_s1_3
I0809 17:22:58.648258 22897 net.cpp:157] Top shape: 20 272 8 8 (348160)
I0809 17:22:58.648264 22897 net.cpp:165] Memory required for data: 1376583760
I0809 17:22:58.648268 22897 layer_factory.hpp:77] Creating layer block4_s1_3_conv2
I0809 17:22:58.648279 22897 net.cpp:100] Creating Layer block4_s1_3_conv2
I0809 17:22:58.648285 22897 net.cpp:434] block4_s1_3_conv2 <- shuffle_block4_s1_3
I0809 17:22:58.648294 22897 net.cpp:408] block4_s1_3_conv2 -> block4_s1_3_conv2
I0809 17:22:58.648597 22897 net.cpp:150] Setting up block4_s1_3_conv2
I0809 17:22:58.648612 22897 net.cpp:157] Top shape: 20 272 8 8 (348160)
I0809 17:22:58.648617 22897 net.cpp:165] Memory required for data: 1377976400
I0809 17:22:58.648624 22897 layer_factory.hpp:77] Creating layer block4_s1_3_conv2_ReLU
I0809 17:22:58.648634 22897 net.cpp:100] Creating Layer block4_s1_3_conv2_ReLU
I0809 17:22:58.648640 22897 net.cpp:434] block4_s1_3_conv2_ReLU <- block4_s1_3_conv2
I0809 17:22:58.648646 22897 net.cpp:395] block4_s1_3_conv2_ReLU -> block4_s1_3_conv2 (in-place)
I0809 17:22:58.649384 22897 net.cpp:150] Setting up block4_s1_3_conv2_ReLU
I0809 17:22:58.649404 22897 net.cpp:157] Top shape: 20 272 8 8 (348160)
I0809 17:22:58.649410 22897 net.cpp:165] Memory required for data: 1379369040
I0809 17:22:58.649415 22897 layer_factory.hpp:77] Creating layer block4_s1_3_conv3
I0809 17:22:58.649427 22897 net.cpp:100] Creating Layer block4_s1_3_conv3
I0809 17:22:58.649435 22897 net.cpp:434] block4_s1_3_conv3 <- block4_s1_3_conv2
I0809 17:22:58.649444 22897 net.cpp:408] block4_s1_3_conv3 -> block4_s1_3_conv3
I0809 17:22:58.654937 22897 net.cpp:150] Setting up block4_s1_3_conv3
I0809 17:22:58.654958 22897 net.cpp:157] Top shape: 20 1088 8 8 (1392640)
I0809 17:22:58.654964 22897 net.cpp:165] Memory required for data: 1384939600
I0809 17:22:58.654973 22897 layer_factory.hpp:77] Creating layer block4_s1_3_eltwise
I0809 17:22:58.654983 22897 net.cpp:100] Creating Layer block4_s1_3_eltwise
I0809 17:22:58.654989 22897 net.cpp:434] block4_s1_3_eltwise <- block4_s1_2_eltwise_block4_s1_2_eltwise_ReLU_0_split_1
I0809 17:22:58.654995 22897 net.cpp:434] block4_s1_3_eltwise <- block4_s1_3_conv3
I0809 17:22:58.655002 22897 net.cpp:408] block4_s1_3_eltwise -> block4_s1_3_eltwise
I0809 17:22:58.655045 22897 net.cpp:150] Setting up block4_s1_3_eltwise
I0809 17:22:58.655055 22897 net.cpp:157] Top shape: 20 1088 8 8 (1392640)
I0809 17:22:58.655059 22897 net.cpp:165] Memory required for data: 1390510160
I0809 17:22:58.655064 22897 layer_factory.hpp:77] Creating layer block4_s1_3_eltwise_ReLU
I0809 17:22:58.655072 22897 net.cpp:100] Creating Layer block4_s1_3_eltwise_ReLU
I0809 17:22:58.655079 22897 net.cpp:434] block4_s1_3_eltwise_ReLU <- block4_s1_3_eltwise
I0809 17:22:58.655086 22897 net.cpp:395] block4_s1_3_eltwise_ReLU -> block4_s1_3_eltwise (in-place)
I0809 17:22:58.656342 22897 net.cpp:150] Setting up block4_s1_3_eltwise_ReLU
I0809 17:22:58.656359 22897 net.cpp:157] Top shape: 20 1088 8 8 (1392640)
I0809 17:22:58.656381 22897 net.cpp:165] Memory required for data: 1396080720
I0809 17:22:58.656388 22897 layer_factory.hpp:77] Creating layer fc1
I0809 17:22:58.656397 22897 net.cpp:100] Creating Layer fc1
I0809 17:22:58.656404 22897 net.cpp:434] fc1 <- block4_s1_3_eltwise
I0809 17:22:58.656414 22897 net.cpp:408] fc1 -> fc1
I0809 17:22:58.844249 22897 net.cpp:150] Setting up fc1
I0809 17:22:58.844303 22897 net.cpp:157] Top shape: 20 512 (10240)
I0809 17:22:58.844310 22897 net.cpp:165] Memory required for data: 1396121680
I0809 17:22:58.844321 22897 layer_factory.hpp:77] Creating layer fc2
I0809 17:22:58.844336 22897 net.cpp:100] Creating Layer fc2
I0809 17:22:58.844344 22897 net.cpp:434] fc2 <- fc1
I0809 17:22:58.844388 22897 net.cpp:408] fc2 -> fc2
I0809 17:22:59.052273 22897 net.cpp:150] Setting up fc2
I0809 17:22:59.052320 22897 net.cpp:157] Top shape: 20 76544 (1530880)
I0809 17:22:59.052325 22897 net.cpp:165] Memory required for data: 1402245200
I0809 17:22:59.052337 22897 layer_factory.hpp:77] Creating layer softmax_loss
I0809 17:22:59.052353 22897 net.cpp:100] Creating Layer softmax_loss
I0809 17:22:59.052361 22897 net.cpp:434] softmax_loss <- fc2
I0809 17:22:59.052369 22897 net.cpp:434] softmax_loss <- label
I0809 17:22:59.052378 22897 net.cpp:408] softmax_loss -> softmax_loss
…
