…
I0808 21:30:16.150950 18675 net.cpp:322] The NetState phase (0) differed from the phase (1) specified by a rule in layer data
I0808 21:30:16.151659 18675 net.cpp:58] Initializing net from parameters: 
state {
  phase: TRAIN
  level: 0
  stage: ""
}
layer {
  name: "data"
  type: "Data"
  top: "data"
  top: "label"
  include {
    phase: TRAIN
  }
  transform_param {
    scale: 0.0078125
    mirror: true
    mean_value: 127.5
    mean_value: 127.5
    mean_value: 127.5
  }
  data_param {
    source: "/data/zeng/MsCeleb_256x256_train_lmdb"
    batch_size: 64
    backend: LMDB
  }
}
layer {
  name: "conv1"
  type: "Convolution"
  bottom: "data"
  top: "conv1"
  param {
    lr_mult: 1
    decay_mult: 1
  }
  param {
    lr_mult: 1
    decay_mult: 0
  }
  convolution_param {
    num_output: 24
    pad: 3
    kernel_size: 8
    group: 1
    stride: 2
    weight_filler {
      type: "msra"
      std: 0.01
    }
    bias_filler {
      type: "constant"
      value: 0
    }
  }
}
layer {
  name: "conv1_relu"
  type: "ReLU"
  bottom: "conv1"
  top: "conv1"
}
layer {
  name: "pool1"
  type: "Pooling"
  bottom: "conv1"
  top: "pool1"
  pooling_param {
    pool: MAX
    kernel_size: 3
    stride: 2
  }
}
layer {
  name: "block2_s2_pool"
  type: "Pooling"
  bottom: "pool1"
  top: "block2_s2_pool"
  pooling_param {
    pool: MAX
    kernel_size: 3
    stride: 2
  }
}
layer {
  name: "block2_s2_conv1"
  type: "Convolution"
  bottom: "pool1"
  top: "block2_s2_conv1"
  param {
    lr_mult: 1
    decay_mult: 1
  }
  param {
    lr_mult: 1
    decay_mult: 0
  }
  convolution_param {
    num_output: 62
    pad: 0
    kernel_size: 1
    group: 2
    stride: 1
    weight_filler {
      type: "gaussian"
      std: 0.01
    }
    bias_filler {
      type: "constant"
      value: 0
    }
  }
}
layer {
  name: "block2_s2_conv1_ReLU"
  type: "ReLU"
  bottom: "block2_s2_conv1"
  top: "block2_s2_conv1"
}
layer {
  name: "shuffle_block2_s2"
  type: "ShuffleChannel"
  bottom: "block2_s2_conv1"
  top: "shuffle_block2_s2"
  shuffle_channel_param {
    group: 2
  }
}
layer {
  name: "block2_s2_conv2"
  type: "ConvolutionDepthwise"
  bottom: "shuffle_block2_s2"
  top: "block2_s2_conv2"
  param {
    lr_mult: 1
    decay_mult: 1
  }
  param {
    lr_mult: 1
    decay_mult: 0
  }
  convolution_param {
    num_output: 62
    pad: 1
    kernel_size: 3
    stride: 2
    weight_filler {
      type: "gaussian"
      std: 0.01
    }
    bias_filler {
      type: "constant"
      value: 0
    }
  }
}
layer {
  name: "block2_s2_conv2_ReLU"
  type: "ReLU"
  bottom: "block2_s2_conv2"
  top: "block2_s2_conv2"
}
layer {
  name: "block2_s2_conv3"
  type: "Convolution"
  bottom: "block2_s2_conv2"
  top: "block2_s2_conv3"
  param {
    lr_mult: 1
    decay_mult: 1
  }
  param {
    lr_mult: 1
    decay_mult: 0
  }
  convolution_param {
    num_output: 248
    pad: 0
    kernel_size: 1
    group: 2
    stride: 1
    weight_filler {
      type: "gaussian"
      std: 0.01
    }
    bias_filler {
      type: "constant"
      value: 0
    }
  }
}
layer {
  name: "block2_s2_concat"
  type: "Concat"
  bottom: "block2_s2_pool"
  bottom: "block2_s2_conv3"
  top: "block2_s2_concat"
}
layer {
  name: "block2_s2_concat_ReLU"
  type: "ReLU"
  bottom: "block2_s2_concat"
  top: "block2_s2_concat"
}
layer {
  name: "block2_s1_1_conv1"
  type: "Convolution"
  bottom: "block2_s2_concat"
  top: "block2_s1_1_conv1"
  param {
    lr_mult: 1
    decay_mult: 1
  }
  param {
    lr_mult: 1
    decay_mult: 0
  }
  convolution_param {
    num_output: 68
    pad: 0
    kernel_size: 1
    group: 4
    stride: 1
    weight_filler {
      type: "gaussian"
      std: 0.01
    }
    bias_filler {
      type: "constant"
      value: 0
    }
  }
}
layer {
  name: "block2_s1_1_conv1_ReLU"
  type: "ReLU"
  bottom: "block2_s1_1_conv1"
  top: "block2_s1_1_conv1"
}
layer {
  name: "shuffle_block2_s1_1"
  type: "ShuffleChannel"
  bottom: "block2_s1_1_conv1"
  top: "shuffle_block2_s1_1"
  shuffle_channel_param {
    group: 4
  }
}
layer {
  name: "block2_s1_1_conv2"
  type: "ConvolutionDepthwise"
  bottom: "shuffle_block2_s1_1"
  top: "block2_s1_1_conv2"
  param {
    lr_mult: 1
    decay_mult: 1
  }
  param {
    lr_mult: 1
    decay_mult: 0
  }
  convolution_param {
    num_output: 68
    pad: 1
    kernel_size: 3
    stride: 1
    weight_filler {
      type: "gaussian"
      std: 0.01
    }
    bias_filler {
      type: "constant"
      value: 0
    }
  }
}
layer {
  name: "block2_s1_1_conv2_ReLU"
  type: "ReLU"
  bottom: "block2_s1_1_conv2"
  top: "block2_s1_1_conv2"
}
layer {
  name: "block2_s1_1_conv3"
  type: "Convolution"
  bottom: "block2_s1_1_conv2"
  top: "block2_s1_1_conv3"
  param {
    lr_mult: 1
    decay_mult: 1
  }
  param {
    lr_mult: 1
    decay_mult: 0
  }
  convolution_param {
    num_output: 272
    pad: 0
    kernel_size: 1
    group: 4
    stride: 1
    weight_filler {
      type: "gaussian"
      std: 0.01
    }
    bias_filler {
      type: "constant"
      value: 0
    }
  }
}
layer {
  name: "block2_s1_1_eltwise"
  type: "Eltwise"
  bottom: "block2_s2_concat"
  bottom: "block2_s1_1_conv3"
  top: "block2_s1_1_eltwise"
  eltwise_param {
    operation: SUM
  }
}
layer {
  name: "block2_s1_1_eltwise_ReLU"
  type: "ReLU"
  bottom: "block2_s1_1_eltwise"
  top: "block2_s1_1_eltwise"
}
layer {
  name: "block2_s1_2_conv1"
  type: "Convolution"
  bottom: "block2_s1_1_eltwise"
  top: "block2_s1_2_conv1"
  param {
    lr_mult: 1
    decay_mult: 1
  }
  param {
    lr_mult: 1
    decay_mult: 0
  }
  convolution_param {
    num_output: 68
    pad: 0
    kernel_size: 1
    group: 4
    stride: 1
    weight_filler {
      type: "gaussian"
      std: 0.01
    }
    bias_filler {
      type: "constant"
      value: 0
    }
  }
}
layer {
  name: "block2_s1_2_conv1_ReLU"
  type: "ReLU"
  bottom: "block2_s1_2_conv1"
  top: "block2_s1_2_conv1"
}
layer {
  name: "shuffle_block2_s1_2"
  type: "ShuffleChannel"
  bottom: "block2_s1_2_conv1"
  top: "shuffle_block2_s1_2"
  shuffle_channel_param {
    group: 4
  }
}
layer {
  name: "block2_s1_2_conv2"
  type: "ConvolutionDepthwise"
  bottom: "shuffle_block2_s1_2"
  top: "block2_s1_2_conv2"
  param {
    lr_mult: 1
    decay_mult: 1
  }
  param {
    lr_mult: 1
    decay_mult: 0
  }
  convolution_param {
    num_output: 68
    pad: 1
    kernel_size: 3
    stride: 1
    weight_filler {
      type: "gaussian"
      std: 0.01
    }
    bias_filler {
      type: "constant"
      value: 0
    }
  }
}
layer {
  name: "block2_s1_2_conv2_ReLU"
  type: "ReLU"
  bottom: "block2_s1_2_conv2"
  top: "block2_s1_2_conv2"
}
layer {
  name: "block2_s1_2_conv3"
  type: "Convolution"
  bottom: "block2_s1_2_conv2"
  top: "block2_s1_2_conv3"
  param {
    lr_mult: 1
    decay_mult: 1
  }
  param {
    lr_mult: 1
    decay_mult: 0
  }
  convolution_param {
    num_output: 272
    pad: 0
    kernel_size: 1
    group: 4
    stride: 1
    weight_filler {
      type: "gaussian"
      std: 0.01
    }
    bias_filler {
      type: "constant"
      value: 0
    }
  }
}
layer {
  name: "block2_s1_2_eltwise"
  type: "Eltwise"
  bottom: "block2_s1_1_eltwise"
  bottom: "block2_s1_2_conv3"
  top: "block2_s1_2_eltwise"
  eltwise_param {
    operation: SUM
  }
}
layer {
  name: "block2_s1_2_eltwise_ReLU"
  type: "ReLU"
  bottom: "block2_s1_2_eltwise"
  top: "block2_s1_2_eltwise"
}
layer {
  name: "block2_s1_3_conv1"
  type: "Convolution"
  bottom: "block2_s1_2_eltwise"
  top: "block2_s1_3_conv1"
  param {
    lr_mult: 1
    decay_mult: 1
  }
  param {
    lr_mult: 1
    decay_mult: 0
  }
  convolution_param {
    num_output: 68
    pad: 0
    kernel_size: 1
    group: 4
    stride: 1
    weight_filler {
      type: "gaussian"
      std: 0.01
    }
    bias_filler {
      type: "constant"
      value: 0
    }
  }
}
layer {
  name: "block2_s1_3_conv1_ReLU"
  type: "ReLU"
  bottom: "block2_s1_3_conv1"
  top: "block2_s1_3_conv1"
}
layer {
  name: "shuffle_block2_s1_3"
  type: "ShuffleChannel"
  bottom: "block2_s1_3_conv1"
  top: "shuffle_block2_s1_3"
  shuffle_channel_param {
    group: 4
  }
}
layer {
  name: "block2_s1_3_conv2"
  type: "ConvolutionDepthwise"
  bottom: "shuffle_block2_s1_3"
  top: "block2_s1_3_conv2"
  param {
    lr_mult: 1
    decay_mult: 1
  }
  param {
    lr_mult: 1
    decay_mult: 0
  }
  convolution_param {
    num_output: 68
    pad: 1
    kernel_size: 3
    stride: 1
    weight_filler {
      type: "gaussian"
      std: 0.01
    }
    bias_filler {
      type: "constant"
      value: 0
    }
  }
}
layer {
  name: "block2_s1_3_conv2_ReLU"
  type: "ReLU"
  bottom: "block2_s1_3_conv2"
  top: "block2_s1_3_conv2"
}
layer {
  name: "block2_s1_3_conv3"
  type: "Convolution"
  bottom: "block2_s1_3_conv2"
  top: "block2_s1_3_conv3"
  param {
    lr_mult: 1
    decay_mult: 1
  }
  param {
    lr_mult: 1
    decay_mult: 0
  }
  convolution_param {
    num_output: 272
    pad: 0
    kernel_size: 1
    group: 4
    stride: 1
    weight_filler {
      type: "gaussian"
      std: 0.01
    }
    bias_filler {
      type: "constant"
      value: 0
    }
  }
}
layer {
  name: "block2_s1_3_eltwise"
  type: "Eltwise"
  bottom: "block2_s1_2_eltwise"
  bottom: "block2_s1_3_conv3"
  top: "block2_s1_3_eltwise"
  eltwise_param {
    operation: SUM
  }
}
layer {
  name: "block2_s1_3_eltwise_ReLU"
  type: "ReLU"
  bottom: "block2_s1_3_eltwise"
  top: "block2_s1_3_eltwise"
}
layer {
  name: "block3_s2_pool"
  type: "Pooling"
  bottom: "block2_s1_3_eltwise"
  top: "block3_s2_pool"
  pooling_param {
    pool: MAX
    kernel_size: 3
    stride: 2
  }
}
layer {
  name: "block3_s2_conv1"
  type: "Convolution"
  bottom: "block2_s1_3_eltwise"
  top: "block3_s2_conv1"
  param {
    lr_mult: 1
    decay_mult: 1
  }
  param {
    lr_mult: 1
    decay_mult: 0
  }
  convolution_param {
    num_output: 68
    pad: 0
    kernel_size: 1
    group: 4
    stride: 1
    weight_filler {
      type: "gaussian"
      std: 0.01
    }
    bias_filler {
      type: "constant"
      value: 0
    }
  }
}
layer {
  name: "block3_s2_conv1_ReLU"
  type: "ReLU"
  bottom: "block3_s2_conv1"
  top: "block3_s2_conv1"
}
layer {
  name: "shuffle_block3_s2"
  type: "ShuffleChannel"
  bottom: "block3_s2_conv1"
  top: "shuffle_block3_s2"
  shuffle_channel_param {
    group: 4
  }
}
layer {
  name: "block3_s2_conv2"
  type: "ConvolutionDepthwise"
  bottom: "shuffle_block3_s2"
  top: "block3_s2_conv2"
  param {
    lr_mult: 1
    decay_mult: 1
  }
  param {
    lr_mult: 1
    decay_mult: 0
  }
  convolution_param {
    num_output: 68
    pad: 1
    kernel_size: 3
    stride: 2
    weight_filler {
      type: "gaussian"
      std: 0.01
    }
    bias_filler {
      type: "constant"
      value: 0
    }
  }
}
layer {
  name: "block3_s2_conv2_ReLU"
  type: "ReLU"
  bottom: "block3_s2_conv2"
  top: "block3_s2_conv2"
}
layer {
  name: "block3_s2_conv3"
  type: "Convolution"
  bottom: "block3_s2_conv2"
  top: "block3_s2_conv3"
  param {
    lr_mult: 1
    decay_mult: 1
  }
  param {
    lr_mult: 1
    decay_mult: 0
  }
  convolution_param {
    num_output: 272
    pad: 0
    kernel_size: 1
    group: 4
    stride: 1
    weight_filler {
      type: "gaussian"
      std: 0.01
    }
    bias_filler {
      type: "constant"
      value: 0
    }
  }
}
layer {
  name: "block3_s2_concat"
  type: "Concat"
  bottom: "block3_s2_pool"
  bottom: "block3_s2_conv3"
  top: "block3_s2_concat"
}
layer {
  name: "block3_s2_concat_ReLU"
  type: "ReLU"
  bottom: "block3_s2_concat"
  top: "block3_s2_concat"
}
layer {
  name: "block3_s1_1_conv1"
  type: "Convolution"
  bottom: "block3_s2_concat"
  top: "block3_s1_1_conv1"
  param {
    lr_mult: 1
    decay_mult: 1
  }
  param {
    lr_mult: 1
    decay_mult: 0
  }
  convolution_param {
    num_output: 136
    pad: 0
    kernel_size: 1
    group: 4
    stride: 1
    weight_filler {
      type: "gaussian"
      std: 0.01
    }
    bias_filler {
      type: "constant"
      value: 0
    }
  }
}
layer {
  name: "block3_s1_1_conv1_ReLU"
  type: "ReLU"
  bottom: "block3_s1_1_conv1"
  top: "block3_s1_1_conv1"
}
layer {
  name: "shuffle_block3_s1_1"
  type: "ShuffleChannel"
  bottom: "block3_s1_1_conv1"
  top: "shuffle_block3_s1_1"
  shuffle_channel_param {
    group: 4
  }
}
layer {
  name: "block3_s1_1_conv2"
  type: "ConvolutionDepthwise"
  bottom: "shuffle_block3_s1_1"
  top: "block3_s1_1_conv2"
  param {
    lr_mult: 1
    decay_mult: 1
  }
  param {
    lr_mult: 1
    decay_mult: 0
  }
  convolution_param {
    num_output: 136
    pad: 1
    kernel_size: 3
    stride: 1
    weight_filler {
      type: "gaussian"
      std: 0.01
    }
    bias_filler {
      type: "constant"
      value: 0
    }
  }
}
layer {
  name: "block3_s1_1_conv2_ReLU"
  type: "ReLU"
  bottom: "block3_s1_1_conv2"
  top: "block3_s1_1_conv2"
}
layer {
  name: "block3_s1_1_conv3"
  type: "Convolution"
  bottom: "block3_s1_1_conv2"
  top: "block3_s1_1_conv3"
  param {
    lr_mult: 1
    decay_mult: 1
  }
  param {
    lr_mult: 1
    decay_mult: 0
  }
  convolution_param {
    num_output: 544
    pad: 0
    kernel_size: 1
    group: 4
    stride: 1
    weight_filler {
      type: "gaussian"
      std: 0.01
    }
    bias_filler {
      type: "constant"
      value: 0
    }
  }
}
layer {
  name: "block3_s1_1_eltwise"
  type: "Eltwise"
  bottom: "block3_s2_concat"
  bottom: "block3_s1_1_conv3"
  top: "block3_s1_1_eltwise"
  eltwise_param {
    operation: SUM
  }
}
layer {
  name: "block3_s1_1_eltwise_ReLU"
  type: "ReLU"
  bottom: "block3_s1_1_eltwise"
  top: "block3_s1_1_eltwise"
}
layer {
  name: "block3_s1_2_conv1"
  type: "Convolution"
  bottom: "block3_s1_1_eltwise"
  top: "block3_s1_2_conv1"
  param {
    lr_mult: 1
    decay_mult: 1
  }
  param {
    lr_mult: 1
    decay_mult: 0
  }
  convolution_param {
    num_output: 136
    pad: 0
    kernel_size: 1
    group: 4
    stride: 1
    weight_filler {
      type: "gaussian"
      std: 0.01
    }
    bias_filler {
      type: "constant"
      value: 0
    }
  }
}
layer {
  name: "block3_s1_2_conv1_ReLU"
  type: "ReLU"
  bottom: "block3_s1_2_conv1"
  top: "block3_s1_2_conv1"
}
layer {
  name: "shuffle_block3_s1_2"
  type: "ShuffleChannel"
  bottom: "block3_s1_2_conv1"
  top: "shuffle_block3_s1_2"
  shuffle_channel_param {
    group: 4
  }
}
layer {
  name: "block3_s1_2_conv2"
  type: "ConvolutionDepthwise"
  bottom: "shuffle_block3_s1_2"
  top: "block3_s1_2_conv2"
  param {
    lr_mult: 1
    decay_mult: 1
  }
  param {
    lr_mult: 1
    decay_mult: 0
  }
  convolution_param {
    num_output: 136
    pad: 1
    kernel_size: 3
    stride: 1
    weight_filler {
      type: "gaussian"
      std: 0.01
    }
    bias_filler {
      type: "constant"
      value: 0
    }
  }
}
layer {
  name: "block3_s1_2_conv2_ReLU"
  type: "ReLU"
  bottom: "block3_s1_2_conv2"
  top: "block3_s1_2_conv2"
}
layer {
  name: "block3_s1_2_conv3"
  type: "Convolution"
  bottom: "block3_s1_2_conv2"
  top: "block3_s1_2_conv3"
  param {
    lr_mult: 1
    decay_mult: 1
  }
  param {
    lr_mult: 1
    decay_mult: 0
  }
  convolution_param {
    num_output: 544
    pad: 0
    kernel_size: 1
    group: 4
    stride: 1
    weight_filler {
      type: "gaussian"
      std: 0.01
    }
    bias_filler {
      type: "constant"
      value: 0
    }
  }
}
layer {
  name: "block3_s1_2_eltwise"
  type: "Eltwise"
  bottom: "block3_s1_1_eltwise"
  bottom: "block3_s1_2_conv3"
  top: "block3_s1_2_eltwise"
  eltwise_param {
    operation: SUM
  }
}
layer {
  name: "block3_s1_2_eltwise_ReLU"
  type: "ReLU"
  bottom: "block3_s1_2_eltwise"
  top: "block3_s1_2_eltwise"
}
layer {
  name: "block3_s1_3_conv1"
  type: "Convolution"
  bottom: "block3_s1_2_eltwise"
  top: "block3_s1_3_conv1"
  param {
    lr_mult: 1
    decay_mult: 1
  }
  param {
    lr_mult: 1
    decay_mult: 0
  }
  convolution_param {
    num_output: 136
    pad: 0
    kernel_size: 1
    group: 4
    stride: 1
    weight_filler {
      type: "gaussian"
      std: 0.01
    }
    bias_filler {
      type: "constant"
      value: 0
    }
  }
}
layer {
  name: "block3_s1_3_conv1_ReLU"
  type: "ReLU"
  bottom: "block3_s1_3_conv1"
  top: "block3_s1_3_conv1"
}
layer {
  name: "shuffle_block3_s1_3"
  type: "ShuffleChannel"
  bottom: "block3_s1_3_conv1"
  top: "shuffle_block3_s1_3"
  shuffle_channel_param {
    group: 4
  }
}
layer {
  name: "block3_s1_3_conv2"
  type: "ConvolutionDepthwise"
  bottom: "shuffle_block3_s1_3"
  top: "block3_s1_3_conv2"
  param {
    lr_mult: 1
    decay_mult: 1
  }
  param {
    lr_mult: 1
    decay_mult: 0
  }
  convolution_param {
    num_output: 136
    pad: 1
    kernel_size: 3
    stride: 1
    weight_filler {
      type: "gaussian"
      std: 0.01
    }
    bias_filler {
      type: "constant"
      value: 0
    }
  }
}
layer {
  name: "block3_s1_3_conv2_ReLU"
  type: "ReLU"
  bottom: "block3_s1_3_conv2"
  top: "block3_s1_3_conv2"
}
layer {
  name: "block3_s1_3_conv3"
  type: "Convolution"
  bottom: "block3_s1_3_conv2"
  top: "block3_s1_3_conv3"
  param {
    lr_mult: 1
    decay_mult: 1
  }
  param {
    lr_mult: 1
    decay_mult: 0
  }
  convolution_param {
    num_output: 544
    pad: 0
    kernel_size: 1
    group: 4
    stride: 1
    weight_filler {
      type: "gaussian"
      std: 0.01
    }
    bias_filler {
      type: "constant"
      value: 0
    }
  }
}
layer {
  name: "block3_s1_3_eltwise"
  type: "Eltwise"
  bottom: "block3_s1_2_eltwise"
  bottom: "block3_s1_3_conv3"
  top: "block3_s1_3_eltwise"
  eltwise_param {
    operation: SUM
  }
}
layer {
  name: "block3_s1_3_eltwise_ReLU"
  type: "ReLU"
  bottom: "block3_s1_3_eltwise"
  top: "block3_s1_3_eltwise"
}
layer {
  name: "block3_s1_4_conv1"
  type: "Convolution"
  bottom: "block3_s1_3_eltwise"
  top: "block3_s1_4_conv1"
  param {
    lr_mult: 1
    decay_mult: 1
  }
  param {
    lr_mult: 1
    decay_mult: 0
  }
  convolution_param {
    num_output: 136
    pad: 0
    kernel_size: 1
    group: 4
    stride: 1
    weight_filler {
      type: "gaussian"
      std: 0.01
    }
    bias_filler {
      type: "constant"
      value: 0
    }
  }
}
layer {
  name: "block3_s1_4_conv1_ReLU"
  type: "ReLU"
  bottom: "block3_s1_4_conv1"
  top: "block3_s1_4_conv1"
}
layer {
  name: "shuffle_block3_s1_4"
  type: "ShuffleChannel"
  bottom: "block3_s1_4_conv1"
  top: "shuffle_block3_s1_4"
  shuffle_channel_param {
    group: 4
  }
}
layer {
  name: "block3_s1_4_conv2"
  type: "ConvolutionDepthwise"
  bottom: "shuffle_block3_s1_4"
  top: "block3_s1_4_conv2"
  param {
    lr_mult: 1
    decay_mult: 1
  }
  param {
    lr_mult: 1
    decay_mult: 0
  }
  convolution_param {
    num_output: 136
    pad: 1
    kernel_size: 3
    stride: 1
    weight_filler {
      type: "gaussian"
      std: 0.01
    }
    bias_filler {
      type: "constant"
      value: 0
    }
  }
}
layer {
  name: "block3_s1_4_conv2_ReLU"
  type: "ReLU"
  bottom: "block3_s1_4_conv2"
  top: "block3_s1_4_conv2"
}
layer {
  name: "block3_s1_4_conv3"
  type: "Convolution"
  bottom: "block3_s1_4_conv2"
  top: "block3_s1_4_conv3"
  param {
    lr_mult: 1
    decay_mult: 1
  }
  param {
    lr_mult: 1
    decay_mult: 0
  }
  convolution_param {
    num_output: 544
    pad: 0
    kernel_size: 1
    group: 4
    stride: 1
    weight_filler {
      type: "gaussian"
      std: 0.01
    }
    bias_filler {
      type: "constant"
      value: 0
    }
  }
}
layer {
  name: "block3_s1_4_eltwise"
  type: "Eltwise"
  bottom: "block3_s1_3_eltwise"
  bottom: "block3_s1_4_conv3"
  top: "block3_s1_4_eltwise"
  eltwise_param {
    operation: SUM
  }
}
layer {
  name: "block3_s1_4_eltwise_ReLU"
  type: "ReLU"
  bottom: "block3_s1_4_eltwise"
  top: "block3_s1_4_eltwise"
}
layer {
  name: "block3_s1_5_conv1"
  type: "Convolution"
  bottom: "block3_s1_4_eltwise"
  top: "block3_s1_5_conv1"
  param {
    lr_mult: 1
    decay_mult: 1
  }
  param {
    lr_mult: 1
    decay_mult: 0
  }
  convolution_param {
    num_output: 136
    pad: 0
    kernel_size: 1
    group: 4
    stride: 1
    weight_filler {
      type: "gaussian"
      std: 0.01
    }
    bias_filler {
      type: "constant"
      value: 0
    }
  }
}
layer {
  name: "block3_s1_5_conv1_ReLU"
  type: "ReLU"
  bottom: "block3_s1_5_conv1"
  top: "block3_s1_5_conv1"
}
layer {
  name: "shuffle_block3_s1_5"
  type: "ShuffleChannel"
  bottom: "block3_s1_5_conv1"
  top: "shuffle_block3_s1_5"
  shuffle_channel_param {
    group: 4
  }
}
layer {
  name: "block3_s1_5_conv2"
  type: "ConvolutionDepthwise"
  bottom: "shuffle_block3_s1_5"
  top: "block3_s1_5_conv2"
  param {
    lr_mult: 1
    decay_mult: 1
  }
  param {
    lr_mult: 1
    decay_mult: 0
  }
  convolution_param {
    num_output: 136
    pad: 1
    kernel_size: 3
    stride: 1
    weight_filler {
      type: "gaussian"
      std: 0.01
    }
    bias_filler {
      type: "constant"
      value: 0
    }
  }
}
layer {
  name: "block3_s1_5_conv2_ReLU"
  type: "ReLU"
  bottom: "block3_s1_5_conv2"
  top: "block3_s1_5_conv2"
}
layer {
  name: "block3_s1_5_conv3"
  type: "Convolution"
  bottom: "block3_s1_5_conv2"
  top: "block3_s1_5_conv3"
  param {
    lr_mult: 1
    decay_mult: 1
  }
  param {
    lr_mult: 1
    decay_mult: 0
  }
  convolution_param {
    num_output: 544
    pad: 0
    kernel_size: 1
    group: 4
    stride: 1
    weight_filler {
      type: "gaussian"
      std: 0.01
    }
    bias_filler {
      type: "constant"
      value: 0
    }
  }
}
layer {
  name: "block3_s1_5_eltwise"
  type: "Eltwise"
  bottom: "block3_s1_4_eltwise"
  bottom: "block3_s1_5_conv3"
  top: "block3_s1_5_eltwise"
  eltwise_param {
    operation: SUM
  }
}
layer {
  name: "block3_s1_5_eltwise_ReLU"
  type: "ReLU"
  bottom: "block3_s1_5_eltwise"
  top: "block3_s1_5_eltwise"
}
layer {
  name: "block3_s1_6_conv1"
  type: "Convolution"
  bottom: "block3_s1_5_eltwise"
  top: "block3_s1_6_conv1"
  param {
    lr_mult: 1
    decay_mult: 1
  }
  param {
    lr_mult: 1
    decay_mult: 0
  }
  convolution_param {
    num_output: 136
    pad: 0
    kernel_size: 1
    group: 4
    stride: 1
    weight_filler {
      type: "gaussian"
      std: 0.01
    }
    bias_filler {
      type: "constant"
      value: 0
    }
  }
}
layer {
  name: "block3_s1_6_conv1_ReLU"
  type: "ReLU"
  bottom: "block3_s1_6_conv1"
  top: "block3_s1_6_conv1"
}
layer {
  name: "shuffle_block3_s1_6"
  type: "ShuffleChannel"
  bottom: "block3_s1_6_conv1"
  top: "shuffle_block3_s1_6"
  shuffle_channel_param {
    group: 4
  }
}
layer {
  name: "block3_s1_6_conv2"
  type: "ConvolutionDepthwise"
  bottom: "shuffle_block3_s1_6"
  top: "block3_s1_6_conv2"
  param {
    lr_mult: 1
    decay_mult: 1
  }
  param {
    lr_mult: 1
    decay_mult: 0
  }
  convolution_param {
    num_output: 136
    pad: 1
    kernel_size: 3
    stride: 1
    weight_filler {
      type: "gaussian"
      std: 0.01
    }
    bias_filler {
      type: "constant"
      value: 0
    }
  }
}
layer {
  name: "block3_s1_6_conv2_ReLU"
  type: "ReLU"
  bottom: "block3_s1_6_conv2"
  top: "block3_s1_6_conv2"
}
layer {
  name: "block3_s1_6_conv3"
  type: "Convolution"
  bottom: "block3_s1_6_conv2"
  top: "block3_s1_6_conv3"
  param {
    lr_mult: 1
    decay_mult: 1
  }
  param {
    lr_mult: 1
    decay_mult: 0
  }
  convolution_param {
    num_output: 544
    pad: 0
    kernel_size: 1
    group: 4
    stride: 1
    weight_filler {
      type: "gaussian"
      std: 0.01
    }
    bias_filler {
      type: "constant"
      value: 0
    }
  }
}
layer {
  name: "block3_s1_6_eltwise"
  type: "Eltwise"
  bottom: "block3_s1_5_eltwise"
  bottom: "block3_s1_6_conv3"
  top: "block3_s1_6_eltwise"
  eltwise_param {
    operation: SUM
  }
}
layer {
  name: "block3_s1_6_eltwise_ReLU"
  type: "ReLU"
  bottom: "block3_s1_6_eltwise"
  top: "block3_s1_6_eltwise"
}
layer {
  name: "block3_s1_7_conv1"
  type: "Convolution"
  bottom: "block3_s1_6_eltwise"
  top: "block3_s1_7_conv1"
  param {
    lr_mult: 1
    decay_mult: 1
  }
  param {
    lr_mult: 1
    decay_mult: 0
  }
  convolution_param {
    num_output: 136
    pad: 0
    kernel_size: 1
    group: 4
    stride: 1
    weight_filler {
      type: "gaussian"
      std: 0.01
    }
    bias_filler {
      type: "constant"
      value: 0
    }
  }
}
layer {
  name: "block3_s1_7_conv1_ReLU"
  type: "ReLU"
  bottom: "block3_s1_7_conv1"
  top: "block3_s1_7_conv1"
}
layer {
  name: "shuffle_block3_s1_7"
  type: "ShuffleChannel"
  bottom: "block3_s1_7_conv1"
  top: "shuffle_block3_s1_7"
  shuffle_channel_param {
    group: 4
  }
}
layer {
  name: "block3_s1_7_conv2"
  type: "ConvolutionDepthwise"
  bottom: "shuffle_block3_s1_7"
  top: "block3_s1_7_conv2"
  param {
    lr_mult: 1
    decay_mult: 1
  }
  param {
    lr_mult: 1
    decay_mult: 0
  }
  convolution_param {
    num_output: 136
    pad: 1
    kernel_size: 3
    stride: 1
    weight_filler {
      type: "gaussian"
      std: 0.01
    }
    bias_filler {
      type: "constant"
      value: 0
    }
  }
}
layer {
  name: "block3_s1_7_conv2_ReLU"
  type: "ReLU"
  bottom: "block3_s1_7_conv2"
  top: "block3_s1_7_conv2"
}
layer {
  name: "block3_s1_7_conv3"
  type: "Convolution"
  bottom: "block3_s1_7_conv2"
  top: "block3_s1_7_conv3"
  param {
    lr_mult: 1
    decay_mult: 1
  }
  param {
    lr_mult: 1
    decay_mult: 0
  }
  convolution_param {
    num_output: 544
    pad: 0
    kernel_size: 1
    group: 4
    stride: 1
    weight_filler {
      type: "gaussian"
      std: 0.01
    }
    bias_filler {
      type: "constant"
      value: 0
    }
  }
}
layer {
  name: "block3_s1_7_eltwise"
  type: "Eltwise"
  bottom: "block3_s1_6_eltwise"
  bottom: "block3_s1_7_conv3"
  top: "block3_s1_7_eltwise"
  eltwise_param {
    operation: SUM
  }
}
layer {
  name: "block3_s1_7_eltwise_ReLU"
  type: "ReLU"
  bottom: "block3_s1_7_eltwise"
  top: "block3_s1_7_eltwise"
}
layer {
  name: "block4_s2_pool"
  type: "Pooling"
  bottom: "block3_s1_7_eltwise"
  top: "block4_s2_pool"
  pooling_param {
    pool: MAX
    kernel_size: 3
    stride: 2
  }
}
layer {
  name: "block4_s2_conv1"
  type: "Convolution"
  bottom: "block3_s1_7_eltwise"
  top: "block4_s2_conv1"
  param {
    lr_mult: 1
    decay_mult: 1
  }
  param {
    lr_mult: 1
    decay_mult: 0
  }
  convolution_param {
    num_output: 136
    pad: 0
    kernel_size: 1
    group: 4
    stride: 1
    weight_filler {
      type: "gaussian"
      std: 0.01
    }
    bias_filler {
      type: "constant"
      value: 0
    }
  }
}
layer {
  name: "block4_s2_conv1_ReLU"
  type: "ReLU"
  bottom: "block4_s2_conv1"
  top: "block4_s2_conv1"
}
layer {
  name: "shuffle_block4_s2"
  type: "ShuffleChannel"
  bottom: "block4_s2_conv1"
  top: "shuffle_block4_s2"
  shuffle_channel_param {
    group: 4
  }
}
layer {
  name: "block4_s2_conv2"
  type: "ConvolutionDepthwise"
  bottom: "shuffle_block4_s2"
  top: "block4_s2_conv2"
  param {
    lr_mult: 1
    decay_mult: 1
  }
  param {
    lr_mult: 1
    decay_mult: 0
  }
  convolution_param {
    num_output: 136
    pad: 1
    kernel_size: 3
    stride: 2
    weight_filler {
      type: "gaussian"
      std: 0.01
    }
    bias_filler {
      type: "constant"
      value: 0
    }
  }
}
layer {
  name: "block4_s2_conv2_ReLU"
  type: "ReLU"
  bottom: "block4_s2_conv2"
  top: "block4_s2_conv2"
}
layer {
  name: "block4_s2_conv3"
  type: "Convolution"
  bottom: "block4_s2_conv2"
  top: "block4_s2_conv3"
  param {
    lr_mult: 1
    decay_mult: 1
  }
  param {
    lr_mult: 1
    decay_mult: 0
  }
  convolution_param {
    num_output: 544
    pad: 0
    kernel_size: 1
    group: 4
    stride: 1
    weight_filler {
      type: "gaussian"
      std: 0.01
    }
    bias_filler {
      type: "constant"
      value: 0
    }
  }
}
layer {
  name: "block4_s2_concat"
  type: "Concat"
  bottom: "block4_s2_pool"
  bottom: "block4_s2_conv3"
  top: "block4_s2_concat"
}
layer {
  name: "block4_s2_concat_ReLU"
  type: "ReLU"
  bottom: "block4_s2_concat"
  top: "block4_s2_concat"
}
layer {
  name: "block4_s1_1_conv1"
  type: "Convolution"
  bottom: "block4_s2_concat"
  top: "block4_s1_1_conv1"
  param {
    lr_mult: 1
    decay_mult: 1
  }
  param {
    lr_mult: 1
    decay_mult: 0
  }
  convolution_param {
    num_output: 272
    pad: 0
    kernel_size: 1
    group: 4
    stride: 1
    weight_filler {
      type: "gaussian"
      std: 0.01
    }
    bias_filler {
      type: "constant"
      value: 0
    }
  }
}
layer {
  name: "block4_s1_1_conv1_ReLU"
  type: "ReLU"
  bottom: "block4_s1_1_conv1"
  top: "block4_s1_1_conv1"
}
layer {
  name: "shuffle_block4_s1_1"
  type: "ShuffleChannel"
  bottom: "block4_s1_1_conv1"
  top: "shuffle_block4_s1_1"
  shuffle_channel_param {
    group: 4
  }
}
layer {
  name: "block4_s1_1_conv2"
  type: "ConvolutionDepthwise"
  bottom: "shuffle_block4_s1_1"
  top: "block4_s1_1_conv2"
  param {
    lr_mult: 1
    decay_mult: 1
  }
  param {
    lr_mult: 1
    decay_mult: 0
  }
  convolution_param {
    num_output: 272
    pad: 1
    kernel_size: 3
    stride: 1
    weight_filler {
      type: "gaussian"
      std: 0.01
    }
    bias_filler {
      type: "constant"
      value: 0
    }
  }
}
layer {
  name: "block4_s1_1_conv2_ReLU"
  type: "ReLU"
  bottom: "block4_s1_1_conv2"
  top: "block4_s1_1_conv2"
}
layer {
  name: "block4_s1_1_conv3"
  type: "Convolution"
  bottom: "block4_s1_1_conv2"
  top: "block4_s1_1_conv3"
  param {
    lr_mult: 1
    decay_mult: 1
  }
  param {
    lr_mult: 1
    decay_mult: 0
  }
  convolution_param {
    num_output: 1088
    pad: 0
    kernel_size: 1
    group: 4
    stride: 1
    weight_filler {
      type: "gaussian"
      std: 0.01
    }
    bias_filler {
      type: "constant"
      value: 0
    }
  }
}
layer {
  name: "block4_s1_1_eltwise"
  type: "Eltwise"
  bottom: "block4_s2_concat"
  bottom: "block4_s1_1_conv3"
  top: "block4_s1_1_eltwise"
  eltwise_param {
    operation: SUM
  }
}
layer {
  name: "block4_s1_1_eltwise_ReLU"
  type: "ReLU"
  bottom: "block4_s1_1_eltwise"
  top: "block4_s1_1_eltwise"
}
layer {
  name: "block4_s1_2_conv1"
  type: "Convolution"
  bottom: "block4_s1_1_eltwise"
  top: "block4_s1_2_conv1"
  param {
    lr_mult: 1
    decay_mult: 1
  }
  param {
    lr_mult: 1
    decay_mult: 0
  }
  convolution_param {
    num_output: 272
    pad: 0
    kernel_size: 1
    group: 
I0808 21:30:16.155953 18675 layer_factory.hpp:77] Creating layer data
I0808 21:30:16.156417 18675 net.cpp:100] Creating Layer data
I0808 21:30:16.156435 18675 net.cpp:408] data -> data
I0808 21:30:16.156456 18675 net.cpp:408] data -> label
I0808 21:30:16.157832 18766 db_lmdb.cpp:35] Opened lmdb /data/zeng/MsCeleb_256x256_train_lmdb
I0808 21:30:16.250006 18675 data_layer.cpp:41] output data size: 64,3,256,256
I0808 21:30:16.362116 18675 net.cpp:150] Setting up data
I0808 21:30:16.362184 18675 net.cpp:157] Top shape: 64 3 256 256 (12582912)
I0808 21:30:16.362193 18675 net.cpp:157] Top shape: 64 (64)
I0808 21:30:16.362200 18675 net.cpp:165] Memory required for data: 50331904
I0808 21:30:16.362215 18675 layer_factory.hpp:77] Creating layer conv1
I0808 21:30:16.362247 18675 net.cpp:100] Creating Layer conv1
I0808 21:30:16.362257 18675 net.cpp:434] conv1 <- data
I0808 21:30:16.362275 18675 net.cpp:408] conv1 -> conv1
I0808 21:30:16.371124 18767 blocking_queue.cpp:50] Waiting for data
I0808 21:30:16.630638 18675 net.cpp:150] Setting up conv1
I0808 21:30:16.630692 18675 net.cpp:157] Top shape: 64 24 128 128 (25165824)
I0808 21:30:16.630698 18675 net.cpp:165] Memory required for data: 150995200
I0808 21:30:16.630717 18675 layer_factory.hpp:77] Creating layer conv1_relu
I0808 21:30:16.630733 18675 net.cpp:100] Creating Layer conv1_relu
I0808 21:30:16.630739 18675 net.cpp:434] conv1_relu <- conv1
I0808 21:30:16.630748 18675 net.cpp:395] conv1_relu -> conv1 (in-place)
I0808 21:30:16.630910 18675 net.cpp:150] Setting up conv1_relu
I0808 21:30:16.630924 18675 net.cpp:157] Top shape: 64 24 128 128 (25165824)
I0808 21:30:16.630930 18675 net.cpp:165] Memory required for data: 251658496
I0808 21:30:16.630936 18675 layer_factory.hpp:77] Creating layer pool1
I0808 21:30:16.630947 18675 net.cpp:100] Creating Layer pool1
I0808 21:30:16.630954 18675 net.cpp:434] pool1 <- conv1
I0808 21:30:16.630961 18675 net.cpp:408] pool1 -> pool1
I0808 21:30:16.631036 18675 net.cpp:150] Setting up pool1
I0808 21:30:16.631047 18675 net.cpp:157] Top shape: 64 24 64 64 (6291456)
I0808 21:30:16.631053 18675 net.cpp:165] Memory required for data: 276824320
I0808 21:30:16.631059 18675 layer_factory.hpp:77] Creating layer pool1_pool1_0_split
I0808 21:30:16.631072 18675 net.cpp:100] Creating Layer pool1_pool1_0_split
I0808 21:30:16.631078 18675 net.cpp:434] pool1_pool1_0_split <- pool1
I0808 21:30:16.631085 18675 net.cpp:408] pool1_pool1_0_split -> pool1_pool1_0_split_0
I0808 21:30:16.631093 18675 net.cpp:408] pool1_pool1_0_split -> pool1_pool1_0_split_1
I0808 21:30:16.631120 18675 net.cpp:150] Setting up pool1_pool1_0_split
I0808 21:30:16.631139 18675 net.cpp:157] Top shape: 64 24 64 64 (6291456)
I0808 21:30:16.631145 18675 net.cpp:157] Top shape: 64 24 64 64 (6291456)
I0808 21:30:16.631151 18675 net.cpp:165] Memory required for data: 327155968
I0808 21:30:16.631156 18675 layer_factory.hpp:77] Creating layer block2_s2_pool
I0808 21:30:16.631163 18675 net.cpp:100] Creating Layer block2_s2_pool
I0808 21:30:16.631170 18675 net.cpp:434] block2_s2_pool <- pool1_pool1_0_split_0
I0808 21:30:16.631175 18675 net.cpp:408] block2_s2_pool -> block2_s2_pool
I0808 21:30:16.631203 18675 net.cpp:150] Setting up block2_s2_pool
I0808 21:30:16.631212 18675 net.cpp:157] Top shape: 64 24 32 32 (1572864)
I0808 21:30:16.631218 18675 net.cpp:165] Memory required for data: 333447424
I0808 21:30:16.631223 18675 layer_factory.hpp:77] Creating layer block2_s2_conv1
I0808 21:30:16.631237 18675 net.cpp:100] Creating Layer block2_s2_conv1
I0808 21:30:16.631242 18675 net.cpp:434] block2_s2_conv1 <- pool1_pool1_0_split_1
I0808 21:30:16.631249 18675 net.cpp:408] block2_s2_conv1 -> block2_s2_conv1
I0808 21:30:16.635823 18675 net.cpp:150] Setting up block2_s2_conv1
I0808 21:30:16.635859 18675 net.cpp:157] Top shape: 64 62 64 64 (16252928)
I0808 21:30:16.635865 18675 net.cpp:165] Memory required for data: 398459136
I0808 21:30:16.635876 18675 layer_factory.hpp:77] Creating layer block2_s2_conv1_ReLU
I0808 21:30:16.635886 18675 net.cpp:100] Creating Layer block2_s2_conv1_ReLU
I0808 21:30:16.635892 18675 net.cpp:434] block2_s2_conv1_ReLU <- block2_s2_conv1
I0808 21:30:16.635898 18675 net.cpp:395] block2_s2_conv1_ReLU -> block2_s2_conv1 (in-place)
I0808 21:30:16.636036 18675 net.cpp:150] Setting up block2_s2_conv1_ReLU
I0808 21:30:16.636050 18675 net.cpp:157] Top shape: 64 62 64 64 (16252928)
I0808 21:30:16.636056 18675 net.cpp:165] Memory required for data: 463470848
I0808 21:30:16.636062 18675 layer_factory.hpp:77] Creating layer shuffle_block2_s2
I0808 21:30:16.636072 18675 net.cpp:100] Creating Layer shuffle_block2_s2
I0808 21:30:16.636078 18675 net.cpp:434] shuffle_block2_s2 <- block2_s2_conv1
I0808 21:30:16.636085 18675 net.cpp:408] shuffle_block2_s2 -> shuffle_block2_s2
I0808 21:30:16.636114 18675 net.cpp:150] Setting up shuffle_block2_s2
I0808 21:30:16.636126 18675 net.cpp:157] Top shape: 64 62 64 64 (16252928)
I0808 21:30:16.636131 18675 net.cpp:165] Memory required for data: 528482560
I0808 21:30:16.636137 18675 layer_factory.hpp:77] Creating layer block2_s2_conv2
I0808 21:30:16.636147 18675 net.cpp:100] Creating Layer block2_s2_conv2
I0808 21:30:16.636152 18675 net.cpp:434] block2_s2_conv2 <- shuffle_block2_s2
I0808 21:30:16.636159 18675 net.cpp:408] block2_s2_conv2 -> block2_s2_conv2
I0808 21:30:16.636349 18675 net.cpp:150] Setting up block2_s2_conv2
I0808 21:30:16.636364 18675 net.cpp:157] Top shape: 64 62 32 32 (4063232)
I0808 21:30:16.636370 18675 net.cpp:165] Memory required for data: 544735488
I0808 21:30:16.636380 18675 layer_factory.hpp:77] Creating layer block2_s2_conv2_ReLU
I0808 21:30:16.636389 18675 net.cpp:100] Creating Layer block2_s2_conv2_ReLU
I0808 21:30:16.636394 18675 net.cpp:434] block2_s2_conv2_ReLU <- block2_s2_conv2
I0808 21:30:16.636401 18675 net.cpp:395] block2_s2_conv2_ReLU -> block2_s2_conv2 (in-place)
I0808 21:30:16.637126 18675 net.cpp:150] Setting up block2_s2_conv2_ReLU
I0808 21:30:16.637146 18675 net.cpp:157] Top shape: 64 62 32 32 (4063232)
I0808 21:30:16.637178 18675 net.cpp:165] Memory required for data: 560988416
I0808 21:30:16.637189 18675 layer_factory.hpp:77] Creating layer block2_s2_conv3
I0808 21:30:16.637203 18675 net.cpp:100] Creating Layer block2_s2_conv3
I0808 21:30:16.637223 18675 net.cpp:434] block2_s2_conv3 <- block2_s2_conv2
I0808 21:30:16.637233 18675 net.cpp:408] block2_s2_conv3 -> block2_s2_conv3
I0808 21:30:16.638867 18675 net.cpp:150] Setting up block2_s2_conv3
I0808 21:30:16.638902 18675 net.cpp:157] Top shape: 64 248 32 32 (16252928)
I0808 21:30:16.638909 18675 net.cpp:165] Memory required for data: 626000128
I0808 21:30:16.638917 18675 layer_factory.hpp:77] Creating layer block2_s2_concat
I0808 21:30:16.638926 18675 net.cpp:100] Creating Layer block2_s2_concat
I0808 21:30:16.638932 18675 net.cpp:434] block2_s2_concat <- block2_s2_pool
I0808 21:30:16.638939 18675 net.cpp:434] block2_s2_concat <- block2_s2_conv3
I0808 21:30:16.638947 18675 net.cpp:408] block2_s2_concat -> block2_s2_concat
I0808 21:30:16.638972 18675 net.cpp:150] Setting up block2_s2_concat
I0808 21:30:16.638995 18675 net.cpp:157] Top shape: 64 272 32 32 (17825792)
I0808 21:30:16.639000 18675 net.cpp:165] Memory required for data: 697303296
I0808 21:30:16.639005 18675 layer_factory.hpp:77] Creating layer block2_s2_concat_ReLU
I0808 21:30:16.639014 18675 net.cpp:100] Creating Layer block2_s2_concat_ReLU
I0808 21:30:16.639019 18675 net.cpp:434] block2_s2_concat_ReLU <- block2_s2_concat
I0808 21:30:16.639025 18675 net.cpp:395] block2_s2_concat_ReLU -> block2_s2_concat (in-place)
I0808 21:30:16.639758 18675 net.cpp:150] Setting up block2_s2_concat_ReLU
I0808 21:30:16.639777 18675 net.cpp:157] Top shape: 64 272 32 32 (17825792)
I0808 21:30:16.639784 18675 net.cpp:165] Memory required for data: 768606464
I0808 21:30:16.639791 18675 layer_factory.hpp:77] Creating layer block2_s2_concat_block2_s2_concat_ReLU_0_split
I0808 21:30:16.639798 18675 net.cpp:100] Creating Layer block2_s2_concat_block2_s2_concat_ReLU_0_split
I0808 21:30:16.639804 18675 net.cpp:434] block2_s2_concat_block2_s2_concat_ReLU_0_split <- block2_s2_concat
I0808 21:30:16.639811 18675 net.cpp:408] block2_s2_concat_block2_s2_concat_ReLU_0_split -> block2_s2_concat_block2_s2_concat_ReLU_0_split_0
I0808 21:30:16.639820 18675 net.cpp:408] block2_s2_concat_block2_s2_concat_ReLU_0_split -> block2_s2_concat_block2_s2_concat_ReLU_0_split_1
I0808 21:30:16.639859 18675 net.cpp:150] Setting up block2_s2_concat_block2_s2_concat_ReLU_0_split
I0808 21:30:16.639869 18675 net.cpp:157] Top shape: 64 272 32 32 (17825792)
I0808 21:30:16.639875 18675 net.cpp:157] Top shape: 64 272 32 32 (17825792)
I0808 21:30:16.639881 18675 net.cpp:165] Memory required for data: 911212800
I0808 21:30:16.639886 18675 layer_factory.hpp:77] Creating layer block2_s1_1_conv1
I0808 21:30:16.639899 18675 net.cpp:100] Creating Layer block2_s1_1_conv1
I0808 21:30:16.639914 18675 net.cpp:434] block2_s1_1_conv1 <- block2_s2_concat_block2_s2_concat_ReLU_0_split_0
I0808 21:30:16.639924 18675 net.cpp:408] block2_s1_1_conv1 -> block2_s1_1_conv1
I0808 21:30:16.643427 18675 net.cpp:150] Setting up block2_s1_1_conv1
I0808 21:30:16.643463 18675 net.cpp:157] Top shape: 64 68 32 32 (4456448)
I0808 21:30:16.643471 18675 net.cpp:165] Memory required for data: 929038592
I0808 21:30:16.643482 18675 layer_factory.hpp:77] Creating layer block2_s1_1_conv1_ReLU
I0808 21:30:16.643492 18675 net.cpp:100] Creating Layer block2_s1_1_conv1_ReLU
I0808 21:30:16.643498 18675 net.cpp:434] block2_s1_1_conv1_ReLU <- block2_s1_1_conv1
I0808 21:30:16.643507 18675 net.cpp:395] block2_s1_1_conv1_ReLU -> block2_s1_1_conv1 (in-place)
I0808 21:30:16.644254 18675 net.cpp:150] Setting up block2_s1_1_conv1_ReLU
I0808 21:30:16.644287 18675 net.cpp:157] Top shape: 64 68 32 32 (4456448)
I0808 21:30:16.644294 18675 net.cpp:165] Memory required for data: 946864384
I0808 21:30:16.644299 18675 layer_factory.hpp:77] Creating layer shuffle_block2_s1_1
I0808 21:30:16.644307 18675 net.cpp:100] Creating Layer shuffle_block2_s1_1
I0808 21:30:16.644314 18675 net.cpp:434] shuffle_block2_s1_1 <- block2_s1_1_conv1
I0808 21:30:16.644335 18675 net.cpp:408] shuffle_block2_s1_1 -> shuffle_block2_s1_1
I0808 21:30:16.644362 18675 net.cpp:150] Setting up shuffle_block2_s1_1
I0808 21:30:16.644376 18675 net.cpp:157] Top shape: 64 68 32 32 (4456448)
I0808 21:30:16.644381 18675 net.cpp:165] Memory required for data: 964690176
I0808 21:30:16.644387 18675 layer_factory.hpp:77] Creating layer block2_s1_1_conv2
I0808 21:30:16.644397 18675 net.cpp:100] Creating Layer block2_s1_1_conv2
I0808 21:30:16.644405 18675 net.cpp:434] block2_s1_1_conv2 <- shuffle_block2_s1_1
I0808 21:30:16.644412 18675 net.cpp:408] block2_s1_1_conv2 -> block2_s1_1_conv2
I0808 21:30:16.644582 18675 net.cpp:150] Setting up block2_s1_1_conv2
I0808 21:30:16.644596 18675 net.cpp:157] Top shape: 64 68 32 32 (4456448)
I0808 21:30:16.644601 18675 net.cpp:165] Memory required for data: 982515968
I0808 21:30:16.644609 18675 layer_factory.hpp:77] Creating layer block2_s1_1_conv2_ReLU
I0808 21:30:16.644618 18675 net.cpp:100] Creating Layer block2_s1_1_conv2_ReLU
I0808 21:30:16.644623 18675 net.cpp:434] block2_s1_1_conv2_ReLU <- block2_s1_1_conv2
I0808 21:30:16.644632 18675 net.cpp:395] block2_s1_1_conv2_ReLU -> block2_s1_1_conv2 (in-place)
I0808 21:30:16.644781 18675 net.cpp:150] Setting up block2_s1_1_conv2_ReLU
I0808 21:30:16.644794 18675 net.cpp:157] Top shape: 64 68 32 32 (4456448)
I0808 21:30:16.644800 18675 net.cpp:165] Memory required for data: 1000341760
I0808 21:30:16.644805 18675 layer_factory.hpp:77] Creating layer block2_s1_1_conv3
I0808 21:30:16.644817 18675 net.cpp:100] Creating Layer block2_s1_1_conv3
I0808 21:30:16.644824 18675 net.cpp:434] block2_s1_1_conv3 <- block2_s1_1_conv2
I0808 21:30:16.644834 18675 net.cpp:408] block2_s1_1_conv3 -> block2_s1_1_conv3
I0808 21:30:16.648393 18675 net.cpp:150] Setting up block2_s1_1_conv3
I0808 21:30:16.648428 18675 net.cpp:157] Top shape: 64 272 32 32 (17825792)
I0808 21:30:16.648435 18675 net.cpp:165] Memory required for data: 1071644928
I0808 21:30:16.648443 18675 layer_factory.hpp:77] Creating layer block2_s1_1_eltwise
I0808 21:30:16.648459 18675 net.cpp:100] Creating Layer block2_s1_1_eltwise
I0808 21:30:16.648465 18675 net.cpp:434] block2_s1_1_eltwise <- block2_s2_concat_block2_s2_concat_ReLU_0_split_1
I0808 21:30:16.648473 18675 net.cpp:434] block2_s1_1_eltwise <- block2_s1_1_conv3
I0808 21:30:16.648479 18675 net.cpp:408] block2_s1_1_eltwise -> block2_s1_1_eltwise
I0808 21:30:16.648507 18675 net.cpp:150] Setting up block2_s1_1_eltwise
I0808 21:30:16.648520 18675 net.cpp:157] Top shape: 64 272 32 32 (17825792)
I0808 21:30:16.648525 18675 net.cpp:165] Memory required for data: 1142948096
I0808 21:30:16.648531 18675 layer_factory.hpp:77] Creating layer block2_s1_1_eltwise_ReLU
I0808 21:30:16.648540 18675 net.cpp:100] Creating Layer block2_s1_1_eltwise_ReLU
I0808 21:30:16.648546 18675 net.cpp:434] block2_s1_1_eltwise_ReLU <- block2_s1_1_eltwise
I0808 21:30:16.648555 18675 net.cpp:395] block2_s1_1_eltwise_ReLU -> block2_s1_1_eltwise (in-place)
I0808 21:30:16.649284 18675 net.cpp:150] Setting up block2_s1_1_eltwise_ReLU
I0808 21:30:16.649303 18675 net.cpp:157] Top shape: 64 272 32 32 (17825792)
I0808 21:30:16.649310 18675 net.cpp:165] Memory required for data: 1214251264
I0808 21:30:16.649317 18675 layer_factory.hpp:77] Creating layer block2_s1_1_eltwise_block2_s1_1_eltwise_ReLU_0_split
I0808 21:30:16.649324 18675 net.cpp:100] Creating Layer block2_s1_1_eltwise_block2_s1_1_eltwise_ReLU_0_split
I0808 21:30:16.649330 18675 net.cpp:434] block2_s1_1_eltwise_block2_s1_1_eltwise_ReLU_0_split <- block2_s1_1_eltwise
I0808 21:30:16.649343 18675 net.cpp:408] block2_s1_1_eltwise_block2_s1_1_eltwise_ReLU_0_split -> block2_s1_1_eltwise_block2_s1_1_eltwise_ReLU_0_split_0
I0808 21:30:16.649353 18675 net.cpp:408] block2_s1_1_eltwise_block2_s1_1_eltwise_ReLU_0_split -> block2_s1_1_eltwise_block2_s1_1_eltwise_ReLU_0_split_1
I0808 21:30:16.649390 18675 net.cpp:150] Setting up block2_s1_1_eltwise_block2_s1_1_eltwise_ReLU_0_split
I0808 21:30:16.649400 18675 net.cpp:157] Top shape: 64 272 32 32 (17825792)
I0808 21:30:16.649406 18675 net.cpp:157] Top shape: 64 272 32 32 (17825792)
I0808 21:30:16.649423 18675 net.cpp:165] Memory required for data: 1356857600
I0808 21:30:16.649430 18675 layer_factory.hpp:77] Creating layer block2_s1_2_conv1
I0808 21:30:16.649443 18675 net.cpp:100] Creating Layer block2_s1_2_conv1
I0808 21:30:16.649461 18675 net.cpp:434] block2_s1_2_conv1 <- block2_s1_1_eltwise_block2_s1_1_eltwise_ReLU_0_split_0
I0808 21:30:16.649482 18675 net.cpp:408] block2_s1_2_conv1 -> block2_s1_2_conv1
I0808 21:30:16.653035 18675 net.cpp:150] Setting up block2_s1_2_conv1
I0808 21:30:16.653076 18675 net.cpp:157] Top shape: 64 68 32 32 (4456448)
I0808 21:30:16.653100 18675 net.cpp:165] Memory required for data: 1374683392
I0808 21:30:16.653110 18675 layer_factory.hpp:77] Creating layer block2_s1_2_conv1_ReLU
I0808 21:30:16.653120 18675 net.cpp:100] Creating Layer block2_s1_2_conv1_ReLU
I0808 21:30:16.653127 18675 net.cpp:434] block2_s1_2_conv1_ReLU <- block2_s1_2_conv1
I0808 21:30:16.653134 18675 net.cpp:395] block2_s1_2_conv1_ReLU -> block2_s1_2_conv1 (in-place)
I0808 21:30:16.653904 18675 net.cpp:150] Setting up block2_s1_2_conv1_ReLU
I0808 21:30:16.653939 18675 net.cpp:157] Top shape: 64 68 32 32 (4456448)
I0808 21:30:16.653944 18675 net.cpp:165] Memory required for data: 1392509184
I0808 21:30:16.653949 18675 layer_factory.hpp:77] Creating layer shuffle_block2_s1_2
I0808 21:30:16.653959 18675 net.cpp:100] Creating Layer shuffle_block2_s1_2
I0808 21:30:16.653966 18675 net.cpp:434] shuffle_block2_s1_2 <- block2_s1_2_conv1
I0808 21:30:16.653973 18675 net.cpp:408] shuffle_block2_s1_2 -> shuffle_block2_s1_2
I0808 21:30:16.654002 18675 net.cpp:150] Setting up shuffle_block2_s1_2
I0808 21:30:16.654027 18675 net.cpp:157] Top shape: 64 68 32 32 (4456448)
I0808 21:30:16.654033 18675 net.cpp:165] Memory required for data: 1410334976
I0808 21:30:16.654038 18675 layer_factory.hpp:77] Creating layer block2_s1_2_conv2
I0808 21:30:16.654049 18675 net.cpp:100] Creating Layer block2_s1_2_conv2
I0808 21:30:16.654055 18675 net.cpp:434] block2_s1_2_conv2 <- shuffle_block2_s1_2
I0808 21:30:16.654062 18675 net.cpp:408] block2_s1_2_conv2 -> block2_s1_2_conv2
I0808 21:30:16.654234 18675 net.cpp:150] Setting up block2_s1_2_conv2
I0808 21:30:16.654248 18675 net.cpp:157] Top shape: 64 68 32 32 (4456448)
I0808 21:30:16.654253 18675 net.cpp:165] Memory required for data: 1428160768
I0808 21:30:16.654266 18675 layer_factory.hpp:77] Creating layer block2_s1_2_conv2_ReLU
I0808 21:30:16.654274 18675 net.cpp:100] Creating Layer block2_s1_2_conv2_ReLU
I0808 21:30:16.654280 18675 net.cpp:434] block2_s1_2_conv2_ReLU <- block2_s1_2_conv2
I0808 21:30:16.654287 18675 net.cpp:395] block2_s1_2_conv2_ReLU -> block2_s1_2_conv2 (in-place)
I0808 21:30:16.654991 18675 net.cpp:150] Setting up block2_s1_2_conv2_ReLU
I0808 21:30:16.655009 18675 net.cpp:157] Top shape: 64 68 32 32 (4456448)
I0808 21:30:16.655015 18675 net.cpp:165] Memory required for data: 1445986560
I0808 21:30:16.655020 18675 layer_factory.hpp:77] Creating layer block2_s1_2_conv3
I0808 21:30:16.655037 18675 net.cpp:100] Creating Layer block2_s1_2_conv3
I0808 21:30:16.655053 18675 net.cpp:434] block2_s1_2_conv3 <- block2_s1_2_conv2
I0808 21:30:16.655076 18675 net.cpp:408] block2_s1_2_conv3 -> block2_s1_2_conv3
I0808 21:30:16.659173 18675 net.cpp:150] Setting up block2_s1_2_conv3
I0808 21:30:16.659207 18675 net.cpp:157] Top shape: 64 272 32 32 (17825792)
I0808 21:30:16.659214 18675 net.cpp:165] Memory required for data: 1517289728
I0808 21:30:16.659222 18675 layer_factory.hpp:77] Creating layer block2_s1_2_eltwise
I0808 21:30:16.659231 18675 net.cpp:100] Creating Layer block2_s1_2_eltwise
I0808 21:30:16.659237 18675 net.cpp:434] block2_s1_2_eltwise <- block2_s1_1_eltwise_block2_s1_1_eltwise_ReLU_0_split_1
I0808 21:30:16.659245 18675 net.cpp:434] block2_s1_2_eltwise <- block2_s1_2_conv3
I0808 21:30:16.659271 18675 net.cpp:408] block2_s1_2_eltwise -> block2_s1_2_eltwise
I0808 21:30:16.659303 18675 net.cpp:150] Setting up block2_s1_2_eltwise
I0808 21:30:16.659314 18675 net.cpp:157] Top shape: 64 272 32 32 (17825792)
I0808 21:30:16.659320 18675 net.cpp:165] Memory required for data: 1588592896
I0808 21:30:16.659348 18675 layer_factory.hpp:77] Creating layer block2_s1_2_eltwise_ReLU
I0808 21:30:16.659355 18675 net.cpp:100] Creating Layer block2_s1_2_eltwise_ReLU
I0808 21:30:16.659361 18675 net.cpp:434] block2_s1_2_eltwise_ReLU <- block2_s1_2_eltwise
I0808 21:30:16.659369 18675 net.cpp:395] block2_s1_2_eltwise_ReLU -> block2_s1_2_eltwise (in-place)
I0808 21:30:16.660111 18675 net.cpp:150] Setting up block2_s1_2_eltwise_ReLU
I0808 21:30:16.660130 18675 net.cpp:157] Top shape: 64 272 32 32 (17825792)
I0808 21:30:16.660135 18675 net.cpp:165] Memory required for data: 1659896064
I0808 21:30:16.660141 18675 layer_factory.hpp:77] Creating layer block2_s1_2_eltwise_block2_s1_2_eltwise_ReLU_0_split
I0808 21:30:16.660153 18675 net.cpp:100] Creating Layer block2_s1_2_eltwise_block2_s1_2_eltwise_ReLU_0_split
I0808 21:30:16.660161 18675 net.cpp:434] block2_s1_2_eltwise_block2_s1_2_eltwise_ReLU_0_split <- block2_s1_2_eltwise
I0808 21:30:16.660167 18675 net.cpp:408] block2_s1_2_eltwise_block2_s1_2_eltwise_ReLU_0_split -> block2_s1_2_eltwise_block2_s1_2_eltwise_ReLU_0_split_0
I0808 21:30:16.660176 18675 net.cpp:408] block2_s1_2_eltwise_block2_s1_2_eltwise_ReLU_0_split -> block2_s1_2_eltwise_block2_s1_2_eltwise_ReLU_0_split_1
I0808 21:30:16.660217 18675 net.cpp:150] Setting up block2_s1_2_eltwise_block2_s1_2_eltwise_ReLU_0_split
I0808 21:30:16.660226 18675 net.cpp:157] Top shape: 64 272 32 32 (17825792)
I0808 21:30:16.660233 18675 net.cpp:157] Top shape: 64 272 32 32 (17825792)
I0808 21:30:16.660238 18675 net.cpp:165] Memory required for data: 1802502400
I0808 21:30:16.660243 18675 layer_factory.hpp:77] Creating layer block2_s1_3_conv1
I0808 21:30:16.660256 18675 net.cpp:100] Creating Layer block2_s1_3_conv1
I0808 21:30:16.660264 18675 net.cpp:434] block2_s1_3_conv1 <- block2_s1_2_eltwise_block2_s1_2_eltwise_ReLU_0_split_0
I0808 21:30:16.660272 18675 net.cpp:408] block2_s1_3_conv1 -> block2_s1_3_conv1
I0808 21:30:16.663872 18675 net.cpp:150] Setting up block2_s1_3_conv1
I0808 21:30:16.663909 18675 net.cpp:157] Top shape: 64 68 32 32 (4456448)
I0808 21:30:16.663916 18675 net.cpp:165] Memory required for data: 1820328192
I0808 21:30:16.663924 18675 layer_factory.hpp:77] Creating layer block2_s1_3_conv1_ReLU
I0808 21:30:16.663933 18675 net.cpp:100] Creating Layer block2_s1_3_conv1_ReLU
I0808 21:30:16.663939 18675 net.cpp:434] block2_s1_3_conv1_ReLU <- block2_s1_3_conv1
I0808 21:30:16.663946 18675 net.cpp:395] block2_s1_3_conv1_ReLU -> block2_s1_3_conv1 (in-place)
I0808 21:30:16.664679 18675 net.cpp:150] Setting up block2_s1_3_conv1_ReLU
I0808 21:30:16.664697 18675 net.cpp:157] Top shape: 64 68 32 32 (4456448)
I0808 21:30:16.664705 18675 net.cpp:165] Memory required for data: 1838153984
I0808 21:30:16.664710 18675 layer_factory.hpp:77] Creating layer shuffle_block2_s1_3
I0808 21:30:16.664719 18675 net.cpp:100] Creating Layer shuffle_block2_s1_3
I0808 21:30:16.664726 18675 net.cpp:434] shuffle_block2_s1_3 <- block2_s1_3_conv1
I0808 21:30:16.664734 18675 net.cpp:408] shuffle_block2_s1_3 -> shuffle_block2_s1_3
I0808 21:30:16.664762 18675 net.cpp:150] Setting up shuffle_block2_s1_3
I0808 21:30:16.664772 18675 net.cpp:157] Top shape: 64 68 32 32 (4456448)
I0808 21:30:16.664778 18675 net.cpp:165] Memory required for data: 1855979776
I0808 21:30:16.664783 18675 layer_factory.hpp:77] Creating layer block2_s1_3_conv2
I0808 21:30:16.664794 18675 net.cpp:100] Creating Layer block2_s1_3_conv2
I0808 21:30:16.664811 18675 net.cpp:434] block2_s1_3_conv2 <- shuffle_block2_s1_3
I0808 21:30:16.664819 18675 net.cpp:408] block2_s1_3_conv2 -> block2_s1_3_conv2
I0808 21:30:16.664999 18675 net.cpp:150] Setting up block2_s1_3_conv2
I0808 21:30:16.665014 18675 net.cpp:157] Top shape: 64 68 32 32 (4456448)
I0808 21:30:16.665019 18675 net.cpp:165] Memory required for data: 1873805568
I0808 21:30:16.665026 18675 layer_factory.hpp:77] Creating layer block2_s1_3_conv2_ReLU
I0808 21:30:16.665040 18675 net.cpp:100] Creating Layer block2_s1_3_conv2_ReLU
I0808 21:30:16.665055 18675 net.cpp:434] block2_s1_3_conv2_ReLU <- block2_s1_3_conv2
I0808 21:30:16.665107 18675 net.cpp:395] block2_s1_3_conv2_ReLU -> block2_s1_3_conv2 (in-place)
I0808 21:30:16.665274 18675 net.cpp:150] Setting up block2_s1_3_conv2_ReLU
I0808 21:30:16.665289 18675 net.cpp:157] Top shape: 64 68 32 32 (4456448)
I0808 21:30:16.665295 18675 net.cpp:165] Memory required for data: 1891631360
I0808 21:30:16.665300 18675 layer_factory.hpp:77] Creating layer block2_s1_3_conv3
I0808 21:30:16.665314 18675 net.cpp:100] Creating Layer block2_s1_3_conv3
I0808 21:30:16.665323 18675 net.cpp:434] block2_s1_3_conv3 <- block2_s1_3_conv2
I0808 21:30:16.665331 18675 net.cpp:408] block2_s1_3_conv3 -> block2_s1_3_conv3
I0808 21:30:16.668932 18675 net.cpp:150] Setting up block2_s1_3_conv3
I0808 21:30:16.668967 18675 net.cpp:157] Top shape: 64 272 32 32 (17825792)
I0808 21:30:16.668973 18675 net.cpp:165] Memory required for data: 1962934528
I0808 21:30:16.668982 18675 layer_factory.hpp:77] Creating layer block2_s1_3_eltwise
I0808 21:30:16.668992 18675 net.cpp:100] Creating Layer block2_s1_3_eltwise
I0808 21:30:16.668998 18675 net.cpp:434] block2_s1_3_eltwise <- block2_s1_2_eltwise_block2_s1_2_eltwise_ReLU_0_split_1
I0808 21:30:16.669005 18675 net.cpp:434] block2_s1_3_eltwise <- block2_s1_3_conv3
I0808 21:30:16.669013 18675 net.cpp:408] block2_s1_3_eltwise -> block2_s1_3_eltwise
I0808 21:30:16.669042 18675 net.cpp:150] Setting up block2_s1_3_eltwise
I0808 21:30:16.669082 18675 net.cpp:157] Top shape: 64 272 32 32 (17825792)
I0808 21:30:16.669088 18675 net.cpp:165] Memory required for data: 2034237696
I0808 21:30:16.669093 18675 layer_factory.hpp:77] Creating layer block2_s1_3_eltwise_ReLU
I0808 21:30:16.669103 18675 net.cpp:100] Creating Layer block2_s1_3_eltwise_ReLU
I0808 21:30:16.669109 18675 net.cpp:434] block2_s1_3_eltwise_ReLU <- block2_s1_3_eltwise
I0808 21:30:16.669116 18675 net.cpp:395] block2_s1_3_eltwise_ReLU -> block2_s1_3_eltwise (in-place)
I0808 21:30:16.669855 18675 net.cpp:150] Setting up block2_s1_3_eltwise_ReLU
I0808 21:30:16.669875 18675 net.cpp:157] Top shape: 64 272 32 32 (17825792)
I0808 21:30:16.669881 18675 net.cpp:165] Memory required for data: 2105540864
I0808 21:30:16.669886 18675 layer_factory.hpp:77] Creating layer block2_s1_3_eltwise_block2_s1_3_eltwise_ReLU_0_split
I0808 21:30:16.669895 18675 net.cpp:100] Creating Layer block2_s1_3_eltwise_block2_s1_3_eltwise_ReLU_0_split
I0808 21:30:16.669901 18675 net.cpp:434] block2_s1_3_eltwise_block2_s1_3_eltwise_ReLU_0_split <- block2_s1_3_eltwise
I0808 21:30:16.669909 18675 net.cpp:408] block2_s1_3_eltwise_block2_s1_3_eltwise_ReLU_0_split -> block2_s1_3_eltwise_block2_s1_3_eltwise_ReLU_0_split_0
I0808 21:30:16.669919 18675 net.cpp:408] block2_s1_3_eltwise_block2_s1_3_eltwise_ReLU_0_split -> block2_s1_3_eltwise_block2_s1_3_eltwise_ReLU_0_split_1
I0808 21:30:16.669958 18675 net.cpp:150] Setting up block2_s1_3_eltwise_block2_s1_3_eltwise_ReLU_0_split
I0808 21:30:16.669970 18675 net.cpp:157] Top shape: 64 272 32 32 (17825792)
I0808 21:30:16.669976 18675 net.cpp:157] Top shape: 64 272 32 32 (17825792)
I0808 21:30:16.669981 18675 net.cpp:165] Memory required for data: 2248147200
I0808 21:30:16.669986 18675 layer_factory.hpp:77] Creating layer block3_s2_pool
I0808 21:30:16.669996 18675 net.cpp:100] Creating Layer block3_s2_pool
I0808 21:30:16.670001 18675 net.cpp:434] block3_s2_pool <- block2_s1_3_eltwise_block2_s1_3_eltwise_ReLU_0_split_0
I0808 21:30:16.670008 18675 net.cpp:408] block3_s2_pool -> block3_s2_pool
I0808 21:30:16.670044 18675 net.cpp:150] Setting up block3_s2_pool
I0808 21:30:16.670054 18675 net.cpp:157] Top shape: 64 272 16 16 (4456448)
I0808 21:30:16.670060 18675 net.cpp:165] Memory required for data: 2265972992
I0808 21:30:16.670065 18675 layer_factory.hpp:77] Creating layer block3_s2_conv1
I0808 21:30:16.670078 18675 net.cpp:100] Creating Layer block3_s2_conv1
I0808 21:30:16.670094 18675 net.cpp:434] block3_s2_conv1 <- block2_s1_3_eltwise_block2_s1_3_eltwise_ReLU_0_split_1
I0808 21:30:16.670102 18675 net.cpp:408] block3_s2_conv1 -> block3_s2_conv1
I0808 21:30:16.673733 18675 net.cpp:150] Setting up block3_s2_conv1
I0808 21:30:16.673777 18675 net.cpp:157] Top shape: 64 68 32 32 (4456448)
I0808 21:30:16.673784 18675 net.cpp:165] Memory required for data: 2283798784
I0808 21:30:16.673794 18675 layer_factory.hpp:77] Creating layer block3_s2_conv1_ReLU
I0808 21:30:16.673804 18675 net.cpp:100] Creating Layer block3_s2_conv1_ReLU
I0808 21:30:16.673810 18675 net.cpp:434] block3_s2_conv1_ReLU <- block3_s2_conv1
I0808 21:30:16.673818 18675 net.cpp:395] block3_s2_conv1_ReLU -> block3_s2_conv1 (in-place)
I0808 21:30:16.674578 18675 net.cpp:150] Setting up block3_s2_conv1_ReLU
I0808 21:30:16.674612 18675 net.cpp:157] Top shape: 64 68 32 32 (4456448)
I0808 21:30:16.674618 18675 net.cpp:165] Memory required for data: 2301624576
I0808 21:30:16.674623 18675 layer_factory.hpp:77] Creating layer shuffle_block3_s2
I0808 21:30:16.674631 18675 net.cpp:100] Creating Layer shuffle_block3_s2
I0808 21:30:16.674636 18675 net.cpp:434] shuffle_block3_s2 <- block3_s2_conv1
I0808 21:30:16.674645 18675 net.cpp:408] shuffle_block3_s2 -> shuffle_block3_s2
I0808 21:30:16.674674 18675 net.cpp:150] Setting up shuffle_block3_s2
I0808 21:30:16.674705 18675 net.cpp:157] Top shape: 64 68 32 32 (4456448)
I0808 21:30:16.674710 18675 net.cpp:165] Memory required for data: 2319450368
I0808 21:30:16.674715 18675 layer_factory.hpp:77] Creating layer block3_s2_conv2
I0808 21:30:16.674724 18675 net.cpp:100] Creating Layer block3_s2_conv2
I0808 21:30:16.674729 18675 net.cpp:434] block3_s2_conv2 <- shuffle_block3_s2
I0808 21:30:16.674738 18675 net.cpp:408] block3_s2_conv2 -> block3_s2_conv2
I0808 21:30:16.674913 18675 net.cpp:150] Setting up block3_s2_conv2
I0808 21:30:16.674931 18675 net.cpp:157] Top shape: 64 68 16 16 (1114112)
I0808 21:30:16.674937 18675 net.cpp:165] Memory required for data: 2323906816
I0808 21:30:16.674943 18675 layer_factory.hpp:77] Creating layer block3_s2_conv2_ReLU
I0808 21:30:16.674952 18675 net.cpp:100] Creating Layer block3_s2_conv2_ReLU
I0808 21:30:16.674958 18675 net.cpp:434] block3_s2_conv2_ReLU <- block3_s2_conv2
I0808 21:30:16.674965 18675 net.cpp:395] block3_s2_conv2_ReLU -> block3_s2_conv2 (in-place)
I0808 21:30:16.675115 18675 net.cpp:150] Setting up block3_s2_conv2_ReLU
I0808 21:30:16.675130 18675 net.cpp:157] Top shape: 64 68 16 16 (1114112)
I0808 21:30:16.675135 18675 net.cpp:165] Memory required for data: 2328363264
I0808 21:30:16.675142 18675 layer_factory.hpp:77] Creating layer block3_s2_conv3
I0808 21:30:16.675153 18675 net.cpp:100] Creating Layer block3_s2_conv3
I0808 21:30:16.675169 18675 net.cpp:434] block3_s2_conv3 <- block3_s2_conv2
I0808 21:30:16.675179 18675 net.cpp:408] block3_s2_conv3 -> block3_s2_conv3
I0808 21:30:16.679473 18675 net.cpp:150] Setting up block3_s2_conv3
I0808 21:30:16.679510 18675 net.cpp:157] Top shape: 64 272 16 16 (4456448)
I0808 21:30:16.679517 18675 net.cpp:165] Memory required for data: 2346189056
I0808 21:30:16.679525 18675 layer_factory.hpp:77] Creating layer block3_s2_concat
I0808 21:30:16.679536 18675 net.cpp:100] Creating Layer block3_s2_concat
I0808 21:30:16.679543 18675 net.cpp:434] block3_s2_concat <- block3_s2_pool
I0808 21:30:16.679549 18675 net.cpp:434] block3_s2_concat <- block3_s2_conv3
I0808 21:30:16.679556 18675 net.cpp:408] block3_s2_concat -> block3_s2_concat
I0808 21:30:16.679581 18675 net.cpp:150] Setting up block3_s2_concat
I0808 21:30:16.679603 18675 net.cpp:157] Top shape: 64 544 16 16 (8912896)
I0808 21:30:16.679610 18675 net.cpp:165] Memory required for data: 2381840640
I0808 21:30:16.679615 18675 layer_factory.hpp:77] Creating layer block3_s2_concat_ReLU
I0808 21:30:16.679621 18675 net.cpp:100] Creating Layer block3_s2_concat_ReLU
I0808 21:30:16.679627 18675 net.cpp:434] block3_s2_concat_ReLU <- block3_s2_concat
I0808 21:30:16.679635 18675 net.cpp:395] block3_s2_concat_ReLU -> block3_s2_concat (in-place)
I0808 21:30:16.680362 18675 net.cpp:150] Setting up block3_s2_concat_ReLU
I0808 21:30:16.680382 18675 net.cpp:157] Top shape: 64 544 16 16 (8912896)
I0808 21:30:16.680388 18675 net.cpp:165] Memory required for data: 2417492224
I0808 21:30:16.680394 18675 layer_factory.hpp:77] Creating layer block3_s2_concat_block3_s2_concat_ReLU_0_split
I0808 21:30:16.680426 18675 net.cpp:100] Creating Layer block3_s2_concat_block3_s2_concat_ReLU_0_split
I0808 21:30:16.680435 18675 net.cpp:434] block3_s2_concat_block3_s2_concat_ReLU_0_split <- block3_s2_concat
I0808 21:30:16.680443 18675 net.cpp:408] block3_s2_concat_block3_s2_concat_ReLU_0_split -> block3_s2_concat_block3_s2_concat_ReLU_0_split_0
I0808 21:30:16.680451 18675 net.cpp:408] block3_s2_concat_block3_s2_concat_ReLU_0_split -> block3_s2_concat_block3_s2_concat_ReLU_0_split_1
I0808 21:30:16.680492 18675 net.cpp:150] Setting up block3_s2_concat_block3_s2_concat_ReLU_0_split
I0808 21:30:16.680503 18675 net.cpp:157] Top shape: 64 544 16 16 (8912896)
I0808 21:30:16.680510 18675 net.cpp:157] Top shape: 64 544 16 16 (8912896)
I0808 21:30:16.680516 18675 net.cpp:165] Memory required for data: 2488795392
I0808 21:30:16.680521 18675 layer_factory.hpp:77] Creating layer block3_s1_1_conv1
I0808 21:30:16.680532 18675 net.cpp:100] Creating Layer block3_s1_1_conv1
I0808 21:30:16.680548 18675 net.cpp:434] block3_s1_1_conv1 <- block3_s2_concat_block3_s2_concat_ReLU_0_split_0
I0808 21:30:16.680557 18675 net.cpp:408] block3_s1_1_conv1 -> block3_s1_1_conv1
I0808 21:30:16.685549 18675 net.cpp:150] Setting up block3_s1_1_conv1
I0808 21:30:16.685585 18675 net.cpp:157] Top shape: 64 136 16 16 (2228224)
I0808 21:30:16.685591 18675 net.cpp:165] Memory required for data: 2497708288
I0808 21:30:16.685606 18675 layer_factory.hpp:77] Creating layer block3_s1_1_conv1_ReLU
I0808 21:30:16.685616 18675 net.cpp:100] Creating Layer block3_s1_1_conv1_ReLU
I0808 21:30:16.685621 18675 net.cpp:434] block3_s1_1_conv1_ReLU <- block3_s1_1_conv1
I0808 21:30:16.685628 18675 net.cpp:395] block3_s1_1_conv1_ReLU -> block3_s1_1_conv1 (in-place)
I0808 21:30:16.686383 18675 net.cpp:150] Setting up block3_s1_1_conv1_ReLU
I0808 21:30:16.686401 18675 net.cpp:157] Top shape: 64 136 16 16 (2228224)
I0808 21:30:16.686422 18675 net.cpp:165] Memory required for data: 2506621184
I0808 21:30:16.686427 18675 layer_factory.hpp:77] Creating layer shuffle_block3_s1_1
I0808 21:30:16.686439 18675 net.cpp:100] Creating Layer shuffle_block3_s1_1
I0808 21:30:16.686445 18675 net.cpp:434] shuffle_block3_s1_1 <- block3_s1_1_conv1
I0808 21:30:16.686455 18675 net.cpp:408] shuffle_block3_s1_1 -> shuffle_block3_s1_1
I0808 21:30:16.686478 18675 net.cpp:150] Setting up shuffle_block3_s1_1
I0808 21:30:16.686504 18675 net.cpp:157] Top shape: 64 136 16 16 (2228224)
I0808 21:30:16.686509 18675 net.cpp:165] Memory required for data: 2515534080
I0808 21:30:16.686516 18675 layer_factory.hpp:77] Creating layer block3_s1_1_conv2
I0808 21:30:16.686530 18675 net.cpp:100] Creating Layer block3_s1_1_conv2
I0808 21:30:16.686543 18675 net.cpp:434] block3_s1_1_conv2 <- shuffle_block3_s1_1
I0808 21:30:16.686553 18675 net.cpp:408] block3_s1_1_conv2 -> block3_s1_1_conv2
I0808 21:30:16.686763 18675 net.cpp:150] Setting up block3_s1_1_conv2
I0808 21:30:16.686777 18675 net.cpp:157] Top shape: 64 136 16 16 (2228224)
I0808 21:30:16.686784 18675 net.cpp:165] Memory required for data: 2524446976
I0808 21:30:16.686791 18675 layer_factory.hpp:77] Creating layer block3_s1_1_conv2_ReLU
I0808 21:30:16.686800 18675 net.cpp:100] Creating Layer block3_s1_1_conv2_ReLU
I0808 21:30:16.686806 18675 net.cpp:434] block3_s1_1_conv2_ReLU <- block3_s1_1_conv2
I0808 21:30:16.686812 18675 net.cpp:395] block3_s1_1_conv2_ReLU -> block3_s1_1_conv2 (in-place)
I0808 21:30:16.686978 18675 net.cpp:150] Setting up block3_s1_1_conv2_ReLU
I0808 21:30:16.686992 18675 net.cpp:157] Top shape: 64 136 16 16 (2228224)
I0808 21:30:16.686997 18675 net.cpp:165] Memory required for data: 2533359872
I0808 21:30:16.687002 18675 layer_factory.hpp:77] Creating layer block3_s1_1_conv3
I0808 21:30:16.687014 18675 net.cpp:100] Creating Layer block3_s1_1_conv3
I0808 21:30:16.687021 18675 net.cpp:434] block3_s1_1_conv3 <- block3_s1_1_conv2
I0808 21:30:16.687029 18675 net.cpp:408] block3_s1_1_conv3 -> block3_s1_1_conv3
I0808 21:30:16.691062 18675 net.cpp:150] Setting up block3_s1_1_conv3
I0808 21:30:16.691107 18675 net.cpp:157] Top shape: 64 544 16 16 (8912896)
I0808 21:30:16.691113 18675 net.cpp:165] Memory required for data: 2569011456
I0808 21:30:16.691121 18675 layer_factory.hpp:77] Creating layer block3_s1_1_eltwise
I0808 21:30:16.691130 18675 net.cpp:100] Creating Layer block3_s1_1_eltwise
I0808 21:30:16.691136 18675 net.cpp:434] block3_s1_1_eltwise <- block3_s2_concat_block3_s2_concat_ReLU_0_split_1
I0808 21:30:16.691143 18675 net.cpp:434] block3_s1_1_eltwise <- block3_s1_1_conv3
I0808 21:30:16.691154 18675 net.cpp:408] block3_s1_1_eltwise -> block3_s1_1_eltwise
I0808 21:30:16.691177 18675 net.cpp:150] Setting up block3_s1_1_eltwise
I0808 21:30:16.691202 18675 net.cpp:157] Top shape: 64 544 16 16 (8912896)
I0808 21:30:16.691207 18675 net.cpp:165] Memory required for data: 2604663040
I0808 21:30:16.691213 18675 layer_factory.hpp:77] Creating layer block3_s1_1_eltwise_ReLU
I0808 21:30:16.691220 18675 net.cpp:100] Creating Layer block3_s1_1_eltwise_ReLU
I0808 21:30:16.691226 18675 net.cpp:434] block3_s1_1_eltwise_ReLU <- block3_s1_1_eltwise
I0808 21:30:16.691232 18675 net.cpp:395] block3_s1_1_eltwise_ReLU -> block3_s1_1_eltwise (in-place)
I0808 21:30:16.691947 18675 net.cpp:150] Setting up block3_s1_1_eltwise_ReLU
I0808 21:30:16.691965 18675 net.cpp:157] Top shape: 64 544 16 16 (8912896)
I0808 21:30:16.691972 18675 net.cpp:165] Memory required for data: 2640314624
I0808 21:30:16.691977 18675 layer_factory.hpp:77] Creating layer block3_s1_1_eltwise_block3_s1_1_eltwise_ReLU_0_split
I0808 21:30:16.691984 18675 net.cpp:100] Creating Layer block3_s1_1_eltwise_block3_s1_1_eltwise_ReLU_0_split
I0808 21:30:16.691990 18675 net.cpp:434] block3_s1_1_eltwise_block3_s1_1_eltwise_ReLU_0_split <- block3_s1_1_eltwise
I0808 21:30:16.691998 18675 net.cpp:408] block3_s1_1_eltwise_block3_s1_1_eltwise_ReLU_0_split -> block3_s1_1_eltwise_block3_s1_1_eltwise_ReLU_0_split_0
I0808 21:30:16.692023 18675 net.cpp:408] block3_s1_1_eltwise_block3_s1_1_eltwise_ReLU_0_split -> block3_s1_1_eltwise_block3_s1_1_eltwise_ReLU_0_split_1
I0808 21:30:16.692064 18675 net.cpp:150] Setting up block3_s1_1_eltwise_block3_s1_1_eltwise_ReLU_0_split
I0808 21:30:16.692075 18675 net.cpp:157] Top shape: 64 544 16 16 (8912896)
I0808 21:30:16.692081 18675 net.cpp:157] Top shape: 64 544 16 16 (8912896)
I0808 21:30:16.692086 18675 net.cpp:165] Memory required for data: 2711617792
I0808 21:30:16.692091 18675 layer_factory.hpp:77] Creating layer block3_s1_2_conv1
I0808 21:30:16.692103 18675 net.cpp:100] Creating Layer block3_s1_2_conv1
I0808 21:30:16.692121 18675 net.cpp:434] block3_s1_2_conv1 <- block3_s1_1_eltwise_block3_s1_1_eltwise_ReLU_0_split_0
I0808 21:30:16.692128 18675 net.cpp:408] block3_s1_2_conv1 -> block3_s1_2_conv1
I0808 21:30:16.696116 18675 net.cpp:150] Setting up block3_s1_2_conv1
I0808 21:30:16.696152 18675 net.cpp:157] Top shape: 64 136 16 16 (2228224)
I0808 21:30:16.696158 18675 net.cpp:165] Memory required for data: 2720530688
I0808 21:30:16.696166 18675 layer_factory.hpp:77] Creating layer block3_s1_2_conv1_ReLU
I0808 21:30:16.696177 18675 net.cpp:100] Creating Layer block3_s1_2_conv1_ReLU
I0808 21:30:16.696183 18675 net.cpp:434] block3_s1_2_conv1_ReLU <- block3_s1_2_conv1
I0808 21:30:16.696190 18675 net.cpp:395] block3_s1_2_conv1_ReLU -> block3_s1_2_conv1 (in-place)
I0808 21:30:16.696944 18675 net.cpp:150] Setting up block3_s1_2_conv1_ReLU
I0808 21:30:16.696962 18675 net.cpp:157] Top shape: 64 136 16 16 (2228224)
I0808 21:30:16.696982 18675 net.cpp:165] Memory required for data: 2729443584
I0808 21:30:16.696988 18675 layer_factory.hpp:77] Creating layer shuffle_block3_s1_2
I0808 21:30:16.696998 18675 net.cpp:100] Creating Layer shuffle_block3_s1_2
I0808 21:30:16.697005 18675 net.cpp:434] shuffle_block3_s1_2 <- block3_s1_2_conv1
I0808 21:30:16.697012 18675 net.cpp:408] shuffle_block3_s1_2 -> shuffle_block3_s1_2
I0808 21:30:16.697039 18675 net.cpp:150] Setting up shuffle_block3_s1_2
I0808 21:30:16.697048 18675 net.cpp:157] Top shape: 64 136 16 16 (2228224)
I0808 21:30:16.697053 18675 net.cpp:165] Memory required for data: 2738356480
I0808 21:30:16.697115 18675 layer_factory.hpp:77] Creating layer block3_s1_2_conv2
I0808 21:30:16.697134 18675 net.cpp:100] Creating Layer block3_s1_2_conv2
I0808 21:30:16.697150 18675 net.cpp:434] block3_s1_2_conv2 <- shuffle_block3_s1_2
I0808 21:30:16.697158 18675 net.cpp:408] block3_s1_2_conv2 -> block3_s1_2_conv2
I0808 21:30:16.697367 18675 net.cpp:150] Setting up block3_s1_2_conv2
I0808 21:30:16.697397 18675 net.cpp:157] Top shape: 64 136 16 16 (2228224)
I0808 21:30:16.697402 18675 net.cpp:165] Memory required for data: 2747269376
I0808 21:30:16.697410 18675 layer_factory.hpp:77] Creating layer block3_s1_2_conv2_ReLU
I0808 21:30:16.697418 18675 net.cpp:100] Creating Layer block3_s1_2_conv2_ReLU
I0808 21:30:16.697424 18675 net.cpp:434] block3_s1_2_conv2_ReLU <- block3_s1_2_conv2
I0808 21:30:16.697432 18675 net.cpp:395] block3_s1_2_conv2_ReLU -> block3_s1_2_conv2 (in-place)
I0808 21:30:16.697583 18675 net.cpp:150] Setting up block3_s1_2_conv2_ReLU
I0808 21:30:16.697597 18675 net.cpp:157] Top shape: 64 136 16 16 (2228224)
I0808 21:30:16.697602 18675 net.cpp:165] Memory required for data: 2756182272
I0808 21:30:16.697608 18675 layer_factory.hpp:77] Creating layer block3_s1_2_conv3
I0808 21:30:16.697620 18675 net.cpp:100] Creating Layer block3_s1_2_conv3
I0808 21:30:16.697638 18675 net.cpp:434] block3_s1_2_conv3 <- block3_s1_2_conv2
I0808 21:30:16.697646 18675 net.cpp:408] block3_s1_2_conv3 -> block3_s1_2_conv3
I0808 21:30:16.702252 18675 net.cpp:150] Setting up block3_s1_2_conv3
I0808 21:30:16.702286 18675 net.cpp:157] Top shape: 64 544 16 16 (8912896)
I0808 21:30:16.702293 18675 net.cpp:165] Memory required for data: 2791833856
I0808 21:30:16.702301 18675 layer_factory.hpp:77] Creating layer block3_s1_2_eltwise
I0808 21:30:16.702311 18675 net.cpp:100] Creating Layer block3_s1_2_eltwise
I0808 21:30:16.702316 18675 net.cpp:434] block3_s1_2_eltwise <- block3_s1_1_eltwise_block3_s1_1_eltwise_ReLU_0_split_1
I0808 21:30:16.702324 18675 net.cpp:434] block3_s1_2_eltwise <- block3_s1_2_conv3
I0808 21:30:16.702332 18675 net.cpp:408] block3_s1_2_eltwise -> block3_s1_2_eltwise
I0808 21:30:16.702356 18675 net.cpp:150] Setting up block3_s1_2_eltwise
I0808 21:30:16.702381 18675 net.cpp:157] Top shape: 64 544 16 16 (8912896)
I0808 21:30:16.702386 18675 net.cpp:165] Memory required for data: 2827485440
I0808 21:30:16.702394 18675 layer_factory.hpp:77] Creating layer block3_s1_2_eltwise_ReLU
I0808 21:30:16.702400 18675 net.cpp:100] Creating Layer block3_s1_2_eltwise_ReLU
I0808 21:30:16.702406 18675 net.cpp:434] block3_s1_2_eltwise_ReLU <- block3_s1_2_eltwise
I0808 21:30:16.702414 18675 net.cpp:395] block3_s1_2_eltwise_ReLU -> block3_s1_2_eltwise (in-place)
I0808 21:30:16.703130 18675 net.cpp:150] Setting up block3_s1_2_eltwise_ReLU
I0808 21:30:16.703148 18675 net.cpp:157] Top shape: 64 544 16 16 (8912896)
I0808 21:30:16.703155 18675 net.cpp:165] Memory required for data: 2863137024
I0808 21:30:16.703161 18675 layer_factory.hpp:77] Creating layer block3_s1_2_eltwise_block3_s1_2_eltwise_ReLU_0_split
I0808 21:30:16.703169 18675 net.cpp:100] Creating Layer block3_s1_2_eltwise_block3_s1_2_eltwise_ReLU_0_split
I0808 21:30:16.703176 18675 net.cpp:434] block3_s1_2_eltwise_block3_s1_2_eltwise_ReLU_0_split <- block3_s1_2_eltwise
I0808 21:30:16.703186 18675 net.cpp:408] block3_s1_2_eltwise_block3_s1_2_eltwise_ReLU_0_split -> block3_s1_2_eltwise_block3_s1_2_eltwise_ReLU_0_split_0
I0808 21:30:16.703194 18675 net.cpp:408] block3_s1_2_eltwise_block3_s1_2_eltwise_ReLU_0_split -> block3_s1_2_eltwise_block3_s1_2_eltwise_ReLU_0_split_1
I0808 21:30:16.703239 18675 net.cpp:150] Setting up block3_s1_2_eltwise_block3_s1_2_eltwise_ReLU_0_split
I0808 21:30:16.703251 18675 net.cpp:157] Top shape: 64 544 16 16 (8912896)
I0808 21:30:16.703258 18675 net.cpp:157] Top shape: 64 544 16 16 (8912896)
I0808 21:30:16.703263 18675 net.cpp:165] Memory required for data: 2934440192
I0808 21:30:16.703269 18675 layer_factory.hpp:77] Creating layer block3_s1_3_conv1
I0808 21:30:16.703281 18675 net.cpp:100] Creating Layer block3_s1_3_conv1
I0808 21:30:16.703289 18675 net.cpp:434] block3_s1_3_conv1 <- block3_s1_2_eltwise_block3_s1_2_eltwise_ReLU_0_split_0
I0808 21:30:16.703316 18675 net.cpp:408] block3_s1_3_conv1 -> block3_s1_3_conv1
I0808 21:30:16.707263 18675 net.cpp:150] Setting up block3_s1_3_conv1
I0808 21:30:16.707298 18675 net.cpp:157] Top shape: 64 136 16 16 (2228224)
I0808 21:30:16.707304 18675 net.cpp:165] Memory required for data: 2943353088
I0808 21:30:16.707312 18675 layer_factory.hpp:77] Creating layer block3_s1_3_conv1_ReLU
I0808 21:30:16.707325 18675 net.cpp:100] Creating Layer block3_s1_3_conv1_ReLU
I0808 21:30:16.707331 18675 net.cpp:434] block3_s1_3_conv1_ReLU <- block3_s1_3_conv1
I0808 21:30:16.707339 18675 net.cpp:395] block3_s1_3_conv1_ReLU -> block3_s1_3_conv1 (in-place)
I0808 21:30:16.708087 18675 net.cpp:150] Setting up block3_s1_3_conv1_ReLU
I0808 21:30:16.708119 18675 net.cpp:157] Top shape: 64 136 16 16 (2228224)
I0808 21:30:16.708125 18675 net.cpp:165] Memory required for data: 2952265984
I0808 21:30:16.708132 18675 layer_factory.hpp:77] Creating layer shuffle_block3_s1_3
I0808 21:30:16.708142 18675 net.cpp:100] Creating Layer shuffle_block3_s1_3
I0808 21:30:16.708148 18675 net.cpp:434] shuffle_block3_s1_3 <- block3_s1_3_conv1
I0808 21:30:16.708154 18675 net.cpp:408] shuffle_block3_s1_3 -> shuffle_block3_s1_3
I0808 21:30:16.708183 18675 net.cpp:150] Setting up shuffle_block3_s1_3
I0808 21:30:16.708190 18675 net.cpp:157] Top shape: 64 136 16 16 (2228224)
I0808 21:30:16.708196 18675 net.cpp:165] Memory required for data: 2961178880
I0808 21:30:16.708201 18675 layer_factory.hpp:77] Creating layer block3_s1_3_conv2
I0808 21:30:16.708240 18675 net.cpp:100] Creating Layer block3_s1_3_conv2
I0808 21:30:16.708246 18675 net.cpp:434] block3_s1_3_conv2 <- shuffle_block3_s1_3
I0808 21:30:16.708256 18675 net.cpp:408] block3_s1_3_conv2 -> block3_s1_3_conv2
I0808 21:30:16.708474 18675 net.cpp:150] Setting up block3_s1_3_conv2
I0808 21:30:16.708489 18675 net.cpp:157] Top shape: 64 136 16 16 (2228224)
I0808 21:30:16.708494 18675 net.cpp:165] Memory required for data: 2970091776
I0808 21:30:16.708503 18675 layer_factory.hpp:77] Creating layer block3_s1_3_conv2_ReLU
I0808 21:30:16.708510 18675 net.cpp:100] Creating Layer block3_s1_3_conv2_ReLU
I0808 21:30:16.708516 18675 net.cpp:434] block3_s1_3_conv2_ReLU <- block3_s1_3_conv2
I0808 21:30:16.708525 18675 net.cpp:395] block3_s1_3_conv2_ReLU -> block3_s1_3_conv2 (in-place)
I0808 21:30:16.708679 18675 net.cpp:150] Setting up block3_s1_3_conv2_ReLU
I0808 21:30:16.708693 18675 net.cpp:157] Top shape: 64 136 16 16 (2228224)
I0808 21:30:16.708698 18675 net.cpp:165] Memory required for data: 2979004672
I0808 21:30:16.708703 18675 layer_factory.hpp:77] Creating layer block3_s1_3_conv3
I0808 21:30:16.708715 18675 net.cpp:100] Creating Layer block3_s1_3_conv3
I0808 21:30:16.708734 18675 net.cpp:434] block3_s1_3_conv3 <- block3_s1_3_conv2
I0808 21:30:16.708742 18675 net.cpp:408] block3_s1_3_conv3 -> block3_s1_3_conv3
I0808 21:30:16.712724 18675 net.cpp:150] Setting up block3_s1_3_conv3
I0808 21:30:16.712759 18675 net.cpp:157] Top shape: 64 544 16 16 (8912896)
I0808 21:30:16.712766 18675 net.cpp:165] Memory required for data: 3014656256
I0808 21:30:16.712774 18675 layer_factory.hpp:77] Creating layer block3_s1_3_eltwise
I0808 21:30:16.712785 18675 net.cpp:100] Creating Layer block3_s1_3_eltwise
I0808 21:30:16.712791 18675 net.cpp:434] block3_s1_3_eltwise <- block3_s1_2_eltwise_block3_s1_2_eltwise_ReLU_0_split_1
I0808 21:30:16.712798 18675 net.cpp:434] block3_s1_3_eltwise <- block3_s1_3_conv3
I0808 21:30:16.712806 18675 net.cpp:408] block3_s1_3_eltwise -> block3_s1_3_eltwise
I0808 21:30:16.712832 18675 net.cpp:150] Setting up block3_s1_3_eltwise
I0808 21:30:16.712857 18675 net.cpp:157] Top shape: 64 544 16 16 (8912896)
I0808 21:30:16.712862 18675 net.cpp:165] Memory required for data: 3050307840
I0808 21:30:16.712867 18675 layer_factory.hpp:77] Creating layer block3_s1_3_eltwise_ReLU
I0808 21:30:16.712875 18675 net.cpp:100] Creating Layer block3_s1_3_eltwise_ReLU
I0808 21:30:16.712880 18675 net.cpp:434] block3_s1_3_eltwise_ReLU <- block3_s1_3_eltwise
I0808 21:30:16.712905 18675 net.cpp:395] block3_s1_3_eltwise_ReLU -> block3_s1_3_eltwise (in-place)
I0808 21:30:16.713672 18675 net.cpp:150] Setting up block3_s1_3_eltwise_ReLU
I0808 21:30:16.713707 18675 net.cpp:157] Top shape: 64 544 16 16 (8912896)
I0808 21:30:16.713728 18675 net.cpp:165] Memory required for data: 3085959424
I0808 21:30:16.713733 18675 layer_factory.hpp:77] Creating layer block3_s1_3_eltwise_block3_s1_3_eltwise_ReLU_0_split
I0808 21:30:16.713742 18675 net.cpp:100] Creating Layer block3_s1_3_eltwise_block3_s1_3_eltwise_ReLU_0_split
I0808 21:30:16.713747 18675 net.cpp:434] block3_s1_3_eltwise_block3_s1_3_eltwise_ReLU_0_split <- block3_s1_3_eltwise
I0808 21:30:16.713757 18675 net.cpp:408] block3_s1_3_eltwise_block3_s1_3_eltwise_ReLU_0_split -> block3_s1_3_eltwise_block3_s1_3_eltwise_ReLU_0_split_0
I0808 21:30:16.713766 18675 net.cpp:408] block3_s1_3_eltwise_block3_s1_3_eltwise_ReLU_0_split -> block3_s1_3_eltwise_block3_s1_3_eltwise_ReLU_0_split_1
I0808 21:30:16.713809 18675 net.cpp:150] Setting up block3_s1_3_eltwise_block3_s1_3_eltwise_ReLU_0_split
I0808 21:30:16.713820 18675 net.cpp:157] Top shape: 64 544 16 16 (8912896)
I0808 21:30:16.713826 18675 net.cpp:157] Top shape: 64 544 16 16 (8912896)
I0808 21:30:16.713831 18675 net.cpp:165] Memory required for data: 3157262592
I0808 21:30:16.713836 18675 layer_factory.hpp:77] Creating layer block3_s1_4_conv1
I0808 21:30:16.713850 18675 net.cpp:100] Creating Layer block3_s1_4_conv1
I0808 21:30:16.713855 18675 net.cpp:434] block3_s1_4_conv1 <- block3_s1_3_eltwise_block3_s1_3_eltwise_ReLU_0_split_0
I0808 21:30:16.713865 18675 net.cpp:408] block3_s1_4_conv1 -> block3_s1_4_conv1
I0808 21:30:16.717866 18675 net.cpp:150] Setting up block3_s1_4_conv1
I0808 21:30:16.717901 18675 net.cpp:157] Top shape: 64 136 16 16 (2228224)
I0808 21:30:16.717908 18675 net.cpp:165] Memory required for data: 3166175488
I0808 21:30:16.717916 18675 layer_factory.hpp:77] Creating layer block3_s1_4_conv1_ReLU
I0808 21:30:16.717926 18675 net.cpp:100] Creating Layer block3_s1_4_conv1_ReLU
I0808 21:30:16.717933 18675 net.cpp:434] block3_s1_4_conv1_ReLU <- block3_s1_4_conv1
I0808 21:30:16.717941 18675 net.cpp:395] block3_s1_4_conv1_ReLU -> block3_s1_4_conv1 (in-place)
I0808 21:30:16.718735 18675 net.cpp:150] Setting up block3_s1_4_conv1_ReLU
I0808 21:30:16.718753 18675 net.cpp:157] Top shape: 64 136 16 16 (2228224)
I0808 21:30:16.718775 18675 net.cpp:165] Memory required for data: 3175088384
I0808 21:30:16.718780 18675 layer_factory.hpp:77] Creating layer shuffle_block3_s1_4
I0808 21:30:16.718788 18675 net.cpp:100] Creating Layer shuffle_block3_s1_4
I0808 21:30:16.718793 18675 net.cpp:434] shuffle_block3_s1_4 <- block3_s1_4_conv1
I0808 21:30:16.718801 18675 net.cpp:408] shuffle_block3_s1_4 -> shuffle_block3_s1_4
I0808 21:30:16.718829 18675 net.cpp:150] Setting up shuffle_block3_s1_4
I0808 21:30:16.718838 18675 net.cpp:157] Top shape: 64 136 16 16 (2228224)
I0808 21:30:16.718843 18675 net.cpp:165] Memory required for data: 3184001280
I0808 21:30:16.718849 18675 layer_factory.hpp:77] Creating layer block3_s1_4_conv2
I0808 21:30:16.718859 18675 net.cpp:100] Creating Layer block3_s1_4_conv2
I0808 21:30:16.718865 18675 net.cpp:434] block3_s1_4_conv2 <- shuffle_block3_s1_4
I0808 21:30:16.718873 18675 net.cpp:408] block3_s1_4_conv2 -> block3_s1_4_conv2
I0808 21:30:16.719632 18675 net.cpp:150] Setting up block3_s1_4_conv2
I0808 21:30:16.719650 18675 net.cpp:157] Top shape: 64 136 16 16 (2228224)
I0808 21:30:16.719655 18675 net.cpp:165] Memory required for data: 3192914176
I0808 21:30:16.719663 18675 layer_factory.hpp:77] Creating layer block3_s1_4_conv2_ReLU
I0808 21:30:16.719672 18675 net.cpp:100] Creating Layer block3_s1_4_conv2_ReLU
I0808 21:30:16.719679 18675 net.cpp:434] block3_s1_4_conv2_ReLU <- block3_s1_4_conv2
I0808 21:30:16.719686 18675 net.cpp:395] block3_s1_4_conv2_ReLU -> block3_s1_4_conv2 (in-place)
I0808 21:30:16.719877 18675 net.cpp:150] Setting up block3_s1_4_conv2_ReLU
I0808 21:30:16.719889 18675 net.cpp:157] Top shape: 64 136 16 16 (2228224)
I0808 21:30:16.719897 18675 net.cpp:165] Memory required for data: 3201827072
I0808 21:30:16.719928 18675 layer_factory.hpp:77] Creating layer block3_s1_4_conv3
I0808 21:30:16.719944 18675 net.cpp:100] Creating Layer block3_s1_4_conv3
I0808 21:30:16.719959 18675 net.cpp:434] block3_s1_4_conv3 <- block3_s1_4_conv2
I0808 21:30:16.719969 18675 net.cpp:408] block3_s1_4_conv3 -> block3_s1_4_conv3
I0808 21:30:16.723956 18675 net.cpp:150] Setting up block3_s1_4_conv3
I0808 21:30:16.723976 18675 net.cpp:157] Top shape: 64 544 16 16 (8912896)
I0808 21:30:16.723983 18675 net.cpp:165] Memory required for data: 3237478656
I0808 21:30:16.723989 18675 layer_factory.hpp:77] Creating layer block3_s1_4_eltwise
I0808 21:30:16.724000 18675 net.cpp:100] Creating Layer block3_s1_4_eltwise
I0808 21:30:16.724006 18675 net.cpp:434] block3_s1_4_eltwise <- block3_s1_3_eltwise_block3_s1_3_eltwise_ReLU_0_split_1
I0808 21:30:16.724012 18675 net.cpp:434] block3_s1_4_eltwise <- block3_s1_4_conv3
I0808 21:30:16.724020 18675 net.cpp:408] block3_s1_4_eltwise -> block3_s1_4_eltwise
I0808 21:30:16.724045 18675 net.cpp:150] Setting up block3_s1_4_eltwise
I0808 21:30:16.724054 18675 net.cpp:157] Top shape: 64 544 16 16 (8912896)
I0808 21:30:16.724059 18675 net.cpp:165] Memory required for data: 3273130240
I0808 21:30:16.724064 18675 layer_factory.hpp:77] Creating layer block3_s1_4_eltwise_ReLU
I0808 21:30:16.724086 18675 net.cpp:100] Creating Layer block3_s1_4_eltwise_ReLU
I0808 21:30:16.724104 18675 net.cpp:434] block3_s1_4_eltwise_ReLU <- block3_s1_4_eltwise
I0808 21:30:16.724113 18675 net.cpp:395] block3_s1_4_eltwise_ReLU -> block3_s1_4_eltwise (in-place)
I0808 21:30:16.724834 18675 net.cpp:150] Setting up block3_s1_4_eltwise_ReLU
I0808 21:30:16.724853 18675 net.cpp:157] Top shape: 64 544 16 16 (8912896)
I0808 21:30:16.724858 18675 net.cpp:165] Memory required for data: 3308781824
I0808 21:30:16.724864 18675 layer_factory.hpp:77] Creating layer block3_s1_4_eltwise_block3_s1_4_eltwise_ReLU_0_split
I0808 21:30:16.724874 18675 net.cpp:100] Creating Layer block3_s1_4_eltwise_block3_s1_4_eltwise_ReLU_0_split
I0808 21:30:16.724879 18675 net.cpp:434] block3_s1_4_eltwise_block3_s1_4_eltwise_ReLU_0_split <- block3_s1_4_eltwise
I0808 21:30:16.724886 18675 net.cpp:408] block3_s1_4_eltwise_block3_s1_4_eltwise_ReLU_0_split -> block3_s1_4_eltwise_block3_s1_4_eltwise_ReLU_0_split_0
I0808 21:30:16.724895 18675 net.cpp:408] block3_s1_4_eltwise_block3_s1_4_eltwise_ReLU_0_split -> block3_s1_4_eltwise_block3_s1_4_eltwise_ReLU_0_split_1
I0808 21:30:16.724962 18675 net.cpp:150] Setting up block3_s1_4_eltwise_block3_s1_4_eltwise_ReLU_0_split
I0808 21:30:16.724972 18675 net.cpp:157] Top shape: 64 544 16 16 (8912896)
I0808 21:30:16.724979 18675 net.cpp:157] Top shape: 64 544 16 16 (8912896)
I0808 21:30:16.724984 18675 net.cpp:165] Memory required for data: 3380084992
I0808 21:30:16.724989 18675 layer_factory.hpp:77] Creating layer block3_s1_5_conv1
I0808 21:30:16.725002 18675 net.cpp:100] Creating Layer block3_s1_5_conv1
I0808 21:30:16.725019 18675 net.cpp:434] block3_s1_5_conv1 <- block3_s1_4_eltwise_block3_s1_4_eltwise_ReLU_0_split_0
I0808 21:30:16.725028 18675 net.cpp:408] block3_s1_5_conv1 -> block3_s1_5_conv1
I0808 21:30:16.728984 18675 net.cpp:150] Setting up block3_s1_5_conv1
I0808 21:30:16.729005 18675 net.cpp:157] Top shape: 64 136 16 16 (2228224)
I0808 21:30:16.729012 18675 net.cpp:165] Memory required for data: 3388997888
I0808 21:30:16.729019 18675 layer_factory.hpp:77] Creating layer block3_s1_5_conv1_ReLU
I0808 21:30:16.729027 18675 net.cpp:100] Creating Layer block3_s1_5_conv1_ReLU
I0808 21:30:16.729033 18675 net.cpp:434] block3_s1_5_conv1_ReLU <- block3_s1_5_conv1
I0808 21:30:16.729039 18675 net.cpp:395] block3_s1_5_conv1_ReLU -> block3_s1_5_conv1 (in-place)
I0808 21:30:16.729812 18675 net.cpp:150] Setting up block3_s1_5_conv1_ReLU
I0808 21:30:16.729831 18675 net.cpp:157] Top shape: 64 136 16 16 (2228224)
I0808 21:30:16.729836 18675 net.cpp:165] Memory required for data: 3397910784
I0808 21:30:16.729842 18675 layer_factory.hpp:77] Creating layer shuffle_block3_s1_5
I0808 21:30:16.729849 18675 net.cpp:100] Creating Layer shuffle_block3_s1_5
I0808 21:30:16.729866 18675 net.cpp:434] shuffle_block3_s1_5 <- block3_s1_5_conv1
I0808 21:30:16.729876 18675 net.cpp:408] shuffle_block3_s1_5 -> shuffle_block3_s1_5
I0808 21:30:16.729902 18675 net.cpp:150] Setting up shuffle_block3_s1_5
I0808 21:30:16.729940 18675 net.cpp:157] Top shape: 64 136 16 16 (2228224)
I0808 21:30:16.729960 18675 net.cpp:165] Memory required for data: 3406823680
I0808 21:30:16.729966 18675 layer_factory.hpp:77] Creating layer block3_s1_5_conv2
I0808 21:30:16.729976 18675 net.cpp:100] Creating Layer block3_s1_5_conv2
I0808 21:30:16.729984 18675 net.cpp:434] block3_s1_5_conv2 <- shuffle_block3_s1_5
I0808 21:30:16.729992 18675 net.cpp:408] block3_s1_5_conv2 -> block3_s1_5_conv2
I0808 21:30:16.730206 18675 net.cpp:150] Setting up block3_s1_5_conv2
I0808 21:30:16.730221 18675 net.cpp:157] Top shape: 64 136 16 16 (2228224)
I0808 21:30:16.730226 18675 net.cpp:165] Memory required for data: 3415736576
I0808 21:30:16.730233 18675 layer_factory.hpp:77] Creating layer block3_s1_5_conv2_ReLU
I0808 21:30:16.730243 18675 net.cpp:100] Creating Layer block3_s1_5_conv2_ReLU
I0808 21:30:16.730249 18675 net.cpp:434] block3_s1_5_conv2_ReLU <- block3_s1_5_conv2
I0808 21:30:16.730257 18675 net.cpp:395] block3_s1_5_conv2_ReLU -> block3_s1_5_conv2 (in-place)
I0808 21:30:16.730427 18675 net.cpp:150] Setting up block3_s1_5_conv2_ReLU
I0808 21:30:16.730442 18675 net.cpp:157] Top shape: 64 136 16 16 (2228224)
I0808 21:30:16.730446 18675 net.cpp:165] Memory required for data: 3424649472
I0808 21:30:16.730451 18675 layer_factory.hpp:77] Creating layer block3_s1_5_conv3
I0808 21:30:16.730465 18675 net.cpp:100] Creating Layer block3_s1_5_conv3
I0808 21:30:16.730473 18675 net.cpp:434] block3_s1_5_conv3 <- block3_s1_5_conv2
I0808 21:30:16.730480 18675 net.cpp:408] block3_s1_5_conv3 -> block3_s1_5_conv3
I0808 21:30:16.734535 18675 net.cpp:150] Setting up block3_s1_5_conv3
I0808 21:30:16.734570 18675 net.cpp:157] Top shape: 64 544 16 16 (8912896)
I0808 21:30:16.734576 18675 net.cpp:165] Memory required for data: 3460301056
I0808 21:30:16.734585 18675 layer_factory.hpp:77] Creating layer block3_s1_5_eltwise
I0808 21:30:16.734596 18675 net.cpp:100] Creating Layer block3_s1_5_eltwise
I0808 21:30:16.734602 18675 net.cpp:434] block3_s1_5_eltwise <- block3_s1_4_eltwise_block3_s1_4_eltwise_ReLU_0_split_1
I0808 21:30:16.734609 18675 net.cpp:434] block3_s1_5_eltwise <- block3_s1_5_conv3
I0808 21:30:16.734618 18675 net.cpp:408] block3_s1_5_eltwise -> block3_s1_5_eltwise
I0808 21:30:16.734644 18675 net.cpp:150] Setting up block3_s1_5_eltwise
I0808 21:30:16.734664 18675 net.cpp:157] Top shape: 64 544 16 16 (8912896)
I0808 21:30:16.734669 18675 net.cpp:165] Memory required for data: 3495952640
I0808 21:30:16.734674 18675 layer_factory.hpp:77] Creating layer block3_s1_5_eltwise_ReLU
I0808 21:30:16.734683 18675 net.cpp:100] Creating Layer block3_s1_5_eltwise_ReLU
I0808 21:30:16.734688 18675 net.cpp:434] block3_s1_5_eltwise_ReLU <- block3_s1_5_eltwise
I0808 21:30:16.734696 18675 net.cpp:395] block3_s1_5_eltwise_ReLU -> block3_s1_5_eltwise (in-place)
I0808 21:30:16.735432 18675 net.cpp:150] Setting up block3_s1_5_eltwise_ReLU
I0808 21:30:16.735451 18675 net.cpp:157] Top shape: 64 544 16 16 (8912896)
I0808 21:30:16.735462 18675 net.cpp:165] Memory required for data: 3531604224
I0808 21:30:16.735467 18675 layer_factory.hpp:77] Creating layer block3_s1_5_eltwise_block3_s1_5_eltwise_ReLU_0_split
I0808 21:30:16.735476 18675 net.cpp:100] Creating Layer block3_s1_5_eltwise_block3_s1_5_eltwise_ReLU_0_split
I0808 21:30:16.735483 18675 net.cpp:434] block3_s1_5_eltwise_block3_s1_5_eltwise_ReLU_0_split <- block3_s1_5_eltwise
I0808 21:30:16.735491 18675 net.cpp:408] block3_s1_5_eltwise_block3_s1_5_eltwise_ReLU_0_split -> block3_s1_5_eltwise_block3_s1_5_eltwise_ReLU_0_split_0
I0808 21:30:16.735502 18675 net.cpp:408] block3_s1_5_eltwise_block3_s1_5_eltwise_ReLU_0_split -> block3_s1_5_eltwise_block3_s1_5_eltwise_ReLU_0_split_1
I0808 21:30:16.735546 18675 net.cpp:150] Setting up block3_s1_5_eltwise_block3_s1_5_eltwise_ReLU_0_split
I0808 21:30:16.735569 18675 net.cpp:157] Top shape: 64 544 16 16 (8912896)
I0808 21:30:16.735575 18675 net.cpp:157] Top shape: 64 544 16 16 (8912896)
I0808 21:30:16.735580 18675 net.cpp:165] Memory required for data: 3602907392
I0808 21:30:16.735585 18675 layer_factory.hpp:77] Creating layer block3_s1_6_conv1
I0808 21:30:16.735599 18675 net.cpp:100] Creating Layer block3_s1_6_conv1
I0808 21:30:16.735613 18675 net.cpp:434] block3_s1_6_conv1 <- block3_s1_5_eltwise_block3_s1_5_eltwise_ReLU_0_split_0
I0808 21:30:16.735622 18675 net.cpp:408] block3_s1_6_conv1 -> block3_s1_6_conv1
I0808 21:30:16.740212 18675 net.cpp:150] Setting up block3_s1_6_conv1
I0808 21:30:16.740248 18675 net.cpp:157] Top shape: 64 136 16 16 (2228224)
I0808 21:30:16.740254 18675 net.cpp:165] Memory required for data: 3611820288
I0808 21:30:16.740263 18675 layer_factory.hpp:77] Creating layer block3_s1_6_conv1_ReLU
I0808 21:30:16.740272 18675 net.cpp:100] Creating Layer block3_s1_6_conv1_ReLU
I0808 21:30:16.740278 18675 net.cpp:434] block3_s1_6_conv1_ReLU <- block3_s1_6_conv1
I0808 21:30:16.740288 18675 net.cpp:395] block3_s1_6_conv1_ReLU -> block3_s1_6_conv1 (in-place)
I0808 21:30:16.741037 18675 net.cpp:150] Setting up block3_s1_6_conv1_ReLU
I0808 21:30:16.741055 18675 net.cpp:157] Top shape: 64 136 16 16 (2228224)
I0808 21:30:16.741098 18675 net.cpp:165] Memory required for data: 3620733184
I0808 21:30:16.741104 18675 layer_factory.hpp:77] Creating layer shuffle_block3_s1_6
I0808 21:30:16.741116 18675 net.cpp:100] Creating Layer shuffle_block3_s1_6
I0808 21:30:16.741122 18675 net.cpp:434] shuffle_block3_s1_6 <- block3_s1_6_conv1
I0808 21:30:16.741129 18675 net.cpp:408] shuffle_block3_s1_6 -> shuffle_block3_s1_6
I0808 21:30:16.741159 18675 net.cpp:150] Setting up shuffle_block3_s1_6
I0808 21:30:16.741171 18675 net.cpp:157] Top shape: 64 136 16 16 (2228224)
I0808 21:30:16.741176 18675 net.cpp:165] Memory required for data: 3629646080
I0808 21:30:16.741183 18675 layer_factory.hpp:77] Creating layer block3_s1_6_conv2
I0808 21:30:16.741194 18675 net.cpp:100] Creating Layer block3_s1_6_conv2
I0808 21:30:16.741200 18675 net.cpp:434] block3_s1_6_conv2 <- shuffle_block3_s1_6
I0808 21:30:16.741209 18675 net.cpp:408] block3_s1_6_conv2 -> block3_s1_6_conv2
I0808 21:30:16.741451 18675 net.cpp:150] Setting up block3_s1_6_conv2
I0808 21:30:16.741480 18675 net.cpp:157] Top shape: 64 136 16 16 (2228224)
I0808 21:30:16.741485 18675 net.cpp:165] Memory required for data: 3638558976
I0808 21:30:16.741502 18675 layer_factory.hpp:77] Creating layer block3_s1_6_conv2_ReLU
I0808 21:30:16.741513 18675 net.cpp:100] Creating Layer block3_s1_6_conv2_ReLU
I0808 21:30:16.741519 18675 net.cpp:434] block3_s1_6_conv2_ReLU <- block3_s1_6_conv2
I0808 21:30:16.741526 18675 net.cpp:395] block3_s1_6_conv2_ReLU -> block3_s1_6_conv2 (in-place)
I0808 21:30:16.741685 18675 net.cpp:150] Setting up block3_s1_6_conv2_ReLU
I0808 21:30:16.741699 18675 net.cpp:157] Top shape: 64 136 16 16 (2228224)
I0808 21:30:16.741704 18675 net.cpp:165] Memory required for data: 3647471872
I0808 21:30:16.741709 18675 layer_factory.hpp:77] Creating layer block3_s1_6_conv3
I0808 21:30:16.741721 18675 net.cpp:100] Creating Layer block3_s1_6_conv3
I0808 21:30:16.741735 18675 net.cpp:434] block3_s1_6_conv3 <- block3_s1_6_conv2
I0808 21:30:16.741745 18675 net.cpp:408] block3_s1_6_conv3 -> block3_s1_6_conv3
I0808 21:30:16.745769 18675 net.cpp:150] Setting up block3_s1_6_conv3
I0808 21:30:16.745789 18675 net.cpp:157] Top shape: 64 544 16 16 (8912896)
I0808 21:30:16.745810 18675 net.cpp:165] Memory required for data: 3683123456
I0808 21:30:16.745818 18675 layer_factory.hpp:77] Creating layer block3_s1_6_eltwise
I0808 21:30:16.745827 18675 net.cpp:100] Creating Layer block3_s1_6_eltwise
I0808 21:30:16.745833 18675 net.cpp:434] block3_s1_6_eltwise <- block3_s1_5_eltwise_block3_s1_5_eltwise_ReLU_0_split_1
I0808 21:30:16.745841 18675 net.cpp:434] block3_s1_6_eltwise <- block3_s1_6_conv3
I0808 21:30:16.745849 18675 net.cpp:408] block3_s1_6_eltwise -> block3_s1_6_eltwise
I0808 21:30:16.745877 18675 net.cpp:150] Setting up block3_s1_6_eltwise
I0808 21:30:16.745899 18675 net.cpp:157] Top shape: 64 544 16 16 (8912896)
I0808 21:30:16.745906 18675 net.cpp:165] Memory required for data: 3718775040
I0808 21:30:16.745913 18675 layer_factory.hpp:77] Creating layer block3_s1_6_eltwise_ReLU
I0808 21:30:16.745921 18675 net.cpp:100] Creating Layer block3_s1_6_eltwise_ReLU
I0808 21:30:16.745928 18675 net.cpp:434] block3_s1_6_eltwise_ReLU <- block3_s1_6_eltwise
I0808 21:30:16.745934 18675 net.cpp:395] block3_s1_6_eltwise_ReLU -> block3_s1_6_eltwise (in-place)
I0808 21:30:16.746693 18675 net.cpp:150] Setting up block3_s1_6_eltwise_ReLU
I0808 21:30:16.746726 18675 net.cpp:157] Top shape: 64 544 16 16 (8912896)
I0808 21:30:16.746732 18675 net.cpp:165] Memory required for data: 3754426624
I0808 21:30:16.746737 18675 layer_factory.hpp:77] Creating layer block3_s1_6_eltwise_block3_s1_6_eltwise_ReLU_0_split
I0808 21:30:16.746747 18675 net.cpp:100] Creating Layer block3_s1_6_eltwise_block3_s1_6_eltwise_ReLU_0_split
I0808 21:30:16.746754 18675 net.cpp:434] block3_s1_6_eltwise_block3_s1_6_eltwise_ReLU_0_split <- block3_s1_6_eltwise
I0808 21:30:16.746762 18675 net.cpp:408] block3_s1_6_eltwise_block3_s1_6_eltwise_ReLU_0_split -> block3_s1_6_eltwise_block3_s1_6_eltwise_ReLU_0_split_0
I0808 21:30:16.746770 18675 net.cpp:408] block3_s1_6_eltwise_block3_s1_6_eltwise_ReLU_0_split -> block3_s1_6_eltwise_block3_s1_6_eltwise_ReLU_0_split_1
I0808 21:30:16.746816 18675 net.cpp:150] Setting up block3_s1_6_eltwise_block3_s1_6_eltwise_ReLU_0_split
I0808 21:30:16.746826 18675 net.cpp:157] Top shape: 64 544 16 16 (8912896)
I0808 21:30:16.746834 18675 net.cpp:157] Top shape: 64 544 16 16 (8912896)
I0808 21:30:16.746839 18675 net.cpp:165] Memory required for data: 3825729792
I0808 21:30:16.746843 18675 layer_factory.hpp:77] Creating layer block3_s1_7_conv1
I0808 21:30:16.746855 18675 net.cpp:100] Creating Layer block3_s1_7_conv1
I0808 21:30:16.746871 18675 net.cpp:434] block3_s1_7_conv1 <- block3_s1_6_eltwise_block3_s1_6_eltwise_ReLU_0_split_0
I0808 21:30:16.746881 18675 net.cpp:408] block3_s1_7_conv1 -> block3_s1_7_conv1
I0808 21:30:16.751004 18675 net.cpp:150] Setting up block3_s1_7_conv1
I0808 21:30:16.751041 18675 net.cpp:157] Top shape: 64 136 16 16 (2228224)
I0808 21:30:16.751047 18675 net.cpp:165] Memory required for data: 3834642688
I0808 21:30:16.751055 18675 layer_factory.hpp:77] Creating layer block3_s1_7_conv1_ReLU
I0808 21:30:16.751065 18675 net.cpp:100] Creating Layer block3_s1_7_conv1_ReLU
I0808 21:30:16.751071 18675 net.cpp:434] block3_s1_7_conv1_ReLU <- block3_s1_7_conv1
I0808 21:30:16.751080 18675 net.cpp:395] block3_s1_7_conv1_ReLU -> block3_s1_7_conv1 (in-place)
I0808 21:30:16.751840 18675 net.cpp:150] Setting up block3_s1_7_conv1_ReLU
I0808 21:30:16.751874 18675 net.cpp:157] Top shape: 64 136 16 16 (2228224)
I0808 21:30:16.751880 18675 net.cpp:165] Memory required for data: 3843555584
I0808 21:30:16.751885 18675 layer_factory.hpp:77] Creating layer shuffle_block3_s1_7
I0808 21:30:16.751893 18675 net.cpp:100] Creating Layer shuffle_block3_s1_7
I0808 21:30:16.751900 18675 net.cpp:434] shuffle_block3_s1_7 <- block3_s1_7_conv1
I0808 21:30:16.751909 18675 net.cpp:408] shuffle_block3_s1_7 -> shuffle_block3_s1_7
I0808 21:30:16.751937 18675 net.cpp:150] Setting up shuffle_block3_s1_7
I0808 21:30:16.751963 18675 net.cpp:157] Top shape: 64 136 16 16 (2228224)
I0808 21:30:16.751969 18675 net.cpp:165] Memory required for data: 3852468480
I0808 21:30:16.751976 18675 layer_factory.hpp:77] Creating layer block3_s1_7_conv2
I0808 21:30:16.751984 18675 net.cpp:100] Creating Layer block3_s1_7_conv2
I0808 21:30:16.751991 18675 net.cpp:434] block3_s1_7_conv2 <- shuffle_block3_s1_7
I0808 21:30:16.751999 18675 net.cpp:408] block3_s1_7_conv2 -> block3_s1_7_conv2
I0808 21:30:16.752213 18675 net.cpp:150] Setting up block3_s1_7_conv2
I0808 21:30:16.752228 18675 net.cpp:157] Top shape: 64 136 16 16 (2228224)
I0808 21:30:16.752233 18675 net.cpp:165] Memory required for data: 3861381376
I0808 21:30:16.752240 18675 layer_factory.hpp:77] Creating layer block3_s1_7_conv2_ReLU
I0808 21:30:16.752249 18675 net.cpp:100] Creating Layer block3_s1_7_conv2_ReLU
I0808 21:30:16.752269 18675 net.cpp:434] block3_s1_7_conv2_ReLU <- block3_s1_7_conv2
I0808 21:30:16.752277 18675 net.cpp:395] block3_s1_7_conv2_ReLU -> block3_s1_7_conv2 (in-place)
I0808 21:30:16.752441 18675 net.cpp:150] Setting up block3_s1_7_conv2_ReLU
I0808 21:30:16.752455 18675 net.cpp:157] Top shape: 64 136 16 16 (2228224)
I0808 21:30:16.752460 18675 net.cpp:165] Memory required for data: 3870294272
I0808 21:30:16.752466 18675 layer_factory.hpp:77] Creating layer block3_s1_7_conv3
I0808 21:30:16.752477 18675 net.cpp:100] Creating Layer block3_s1_7_conv3
I0808 21:30:16.752485 18675 net.cpp:434] block3_s1_7_conv3 <- block3_s1_7_conv2
I0808 21:30:16.752493 18675 net.cpp:408] block3_s1_7_conv3 -> block3_s1_7_conv3
I0808 21:30:16.756491 18675 net.cpp:150] Setting up block3_s1_7_conv3
I0808 21:30:16.756526 18675 net.cpp:157] Top shape: 64 544 16 16 (8912896)
I0808 21:30:16.756533 18675 net.cpp:165] Memory required for data: 3905945856
I0808 21:30:16.756541 18675 layer_factory.hpp:77] Creating layer block3_s1_7_eltwise
I0808 21:30:16.756551 18675 net.cpp:100] Creating Layer block3_s1_7_eltwise
I0808 21:30:16.756556 18675 net.cpp:434] block3_s1_7_eltwise <- block3_s1_6_eltwise_block3_s1_6_eltwise_ReLU_0_split_1
I0808 21:30:16.756563 18675 net.cpp:434] block3_s1_7_eltwise <- block3_s1_7_conv3
I0808 21:30:16.756572 18675 net.cpp:408] block3_s1_7_eltwise -> block3_s1_7_eltwise
I0808 21:30:16.756598 18675 net.cpp:150] Setting up block3_s1_7_eltwise
I0808 21:30:16.756620 18675 net.cpp:157] Top shape: 64 544 16 16 (8912896)
I0808 21:30:16.756625 18675 net.cpp:165] Memory required for data: 3941597440
I0808 21:30:16.756630 18675 layer_factory.hpp:77] Creating layer block3_s1_7_eltwise_ReLU
I0808 21:30:16.756639 18675 net.cpp:100] Creating Layer block3_s1_7_eltwise_ReLU
I0808 21:30:16.756645 18675 net.cpp:434] block3_s1_7_eltwise_ReLU <- block3_s1_7_eltwise
I0808 21:30:16.756651 18675 net.cpp:395] block3_s1_7_eltwise_ReLU -> block3_s1_7_eltwise (in-place)
I0808 21:30:16.757423 18675 net.cpp:150] Setting up block3_s1_7_eltwise_ReLU
I0808 21:30:16.757457 18675 net.cpp:157] Top shape: 64 544 16 16 (8912896)
I0808 21:30:16.757478 18675 net.cpp:165] Memory required for data: 3977249024
I0808 21:30:16.757484 18675 layer_factory.hpp:77] Creating layer block3_s1_7_eltwise_block3_s1_7_eltwise_ReLU_0_split
I0808 21:30:16.757493 18675 net.cpp:100] Creating Layer block3_s1_7_eltwise_block3_s1_7_eltwise_ReLU_0_split
I0808 21:30:16.757500 18675 net.cpp:434] block3_s1_7_eltwise_block3_s1_7_eltwise_ReLU_0_split <- block3_s1_7_eltwise
I0808 21:30:16.757508 18675 net.cpp:408] block3_s1_7_eltwise_block3_s1_7_eltwise_ReLU_0_split -> block3_s1_7_eltwise_block3_s1_7_eltwise_ReLU_0_split_0
I0808 21:30:16.757519 18675 net.cpp:408] block3_s1_7_eltwise_block3_s1_7_eltwise_ReLU_0_split -> block3_s1_7_eltwise_block3_s1_7_eltwise_ReLU_0_split_1
I0808 21:30:16.757565 18675 net.cpp:150] Setting up block3_s1_7_eltwise_block3_s1_7_eltwise_ReLU_0_split
I0808 21:30:16.757575 18675 net.cpp:157] Top shape: 64 544 16 16 (8912896)
I0808 21:30:16.757581 18675 net.cpp:157] Top shape: 64 544 16 16 (8912896)
I0808 21:30:16.757586 18675 net.cpp:165] Memory required for data: 4048552192
I0808 21:30:16.757591 18675 layer_factory.hpp:77] Creating layer block4_s2_pool
I0808 21:30:16.757601 18675 net.cpp:100] Creating Layer block4_s2_pool
I0808 21:30:16.757607 18675 net.cpp:434] block4_s2_pool <- block3_s1_7_eltwise_block3_s1_7_eltwise_ReLU_0_split_0
I0808 21:30:16.757614 18675 net.cpp:408] block4_s2_pool -> block4_s2_pool
I0808 21:30:16.757657 18675 net.cpp:150] Setting up block4_s2_pool
I0808 21:30:16.757666 18675 net.cpp:157] Top shape: 64 544 8 8 (2228224)
I0808 21:30:16.757671 18675 net.cpp:165] Memory required for data: 4057465088
I0808 21:30:16.757676 18675 layer_factory.hpp:77] Creating layer block4_s2_conv1
I0808 21:30:16.757689 18675 net.cpp:100] Creating Layer block4_s2_conv1
I0808 21:30:16.757704 18675 net.cpp:434] block4_s2_conv1 <- block3_s1_7_eltwise_block3_s1_7_eltwise_ReLU_0_split_1
I0808 21:30:16.757714 18675 net.cpp:408] block4_s2_conv1 -> block4_s2_conv1
I0808 21:30:16.762336 18675 net.cpp:150] Setting up block4_s2_conv1
I0808 21:30:16.762372 18675 net.cpp:157] Top shape: 64 136 16 16 (2228224)
I0808 21:30:16.762378 18675 net.cpp:165] Memory required for data: 4066377984
I0808 21:30:16.762387 18675 layer_factory.hpp:77] Creating layer block4_s2_conv1_ReLU
I0808 21:30:16.762395 18675 net.cpp:100] Creating Layer block4_s2_conv1_ReLU
I0808 21:30:16.762401 18675 net.cpp:434] block4_s2_conv1_ReLU <- block4_s2_conv1
I0808 21:30:16.762410 18675 net.cpp:395] block4_s2_conv1_ReLU -> block4_s2_conv1 (in-place)
I0808 21:30:16.763146 18675 net.cpp:150] Setting up block4_s2_conv1_ReLU
I0808 21:30:16.763180 18675 net.cpp:157] Top shape: 64 136 16 16 (2228224)
I0808 21:30:16.763185 18675 net.cpp:165] Memory required for data: 4075290880
I0808 21:30:16.763191 18675 layer_factory.hpp:77] Creating layer shuffle_block4_s2
I0808 21:30:16.763200 18675 net.cpp:100] Creating Layer shuffle_block4_s2
I0808 21:30:16.763206 18675 net.cpp:434] shuffle_block4_s2 <- block4_s2_conv1
I0808 21:30:16.763214 18675 net.cpp:408] shuffle_block4_s2 -> shuffle_block4_s2
I0808 21:30:16.763243 18675 net.cpp:150] Setting up shuffle_block4_s2
I0808 21:30:16.763269 18675 net.cpp:157] Top shape: 64 136 16 16 (2228224)
I0808 21:30:16.763274 18675 net.cpp:165] Memory required for data: 4084203776
I0808 21:30:16.763279 18675 layer_factory.hpp:77] Creating layer block4_s2_conv2
I0808 21:30:16.763289 18675 net.cpp:100] Creating Layer block4_s2_conv2
I0808 21:30:16.763294 18675 net.cpp:434] block4_s2_conv2 <- shuffle_block4_s2
I0808 21:30:16.763305 18675 net.cpp:408] block4_s2_conv2 -> block4_s2_conv2
I0808 21:30:16.764091 18675 net.cpp:150] Setting up block4_s2_conv2
I0808 21:30:16.764124 18675 net.cpp:157] Top shape: 64 136 8 8 (557056)
I0808 21:30:16.764130 18675 net.cpp:165] Memory required for data: 4086432000
I0808 21:30:16.764138 18675 layer_factory.hpp:77] Creating layer block4_s2_conv2_ReLU
I0808 21:30:16.764147 18675 net.cpp:100] Creating Layer block4_s2_conv2_ReLU
I0808 21:30:16.764154 18675 net.cpp:434] block4_s2_conv2_ReLU <- block4_s2_conv2
I0808 21:30:16.764160 18675 net.cpp:395] block4_s2_conv2_ReLU -> block4_s2_conv2 (in-place)
I0808 21:30:16.764329 18675 net.cpp:150] Setting up block4_s2_conv2_ReLU
I0808 21:30:16.764343 18675 net.cpp:157] Top shape: 64 136 8 8 (557056)
I0808 21:30:16.764348 18675 net.cpp:165] Memory required for data: 4088660224
I0808 21:30:16.764354 18675 layer_factory.hpp:77] Creating layer block4_s2_conv3
I0808 21:30:16.764366 18675 net.cpp:100] Creating Layer block4_s2_conv3
I0808 21:30:16.764372 18675 net.cpp:434] block4_s2_conv3 <- block4_s2_conv2
I0808 21:30:16.764381 18675 net.cpp:408] block4_s2_conv3 -> block4_s2_conv3
I0808 21:30:16.768429 18675 net.cpp:150] Setting up block4_s2_conv3
I0808 21:30:16.768448 18675 net.cpp:157] Top shape: 64 544 8 8 (2228224)
I0808 21:30:16.768455 18675 net.cpp:165] Memory required for data: 4097573120
I0808 21:30:16.768462 18675 layer_factory.hpp:77] Creating layer block4_s2_concat
I0808 21:30:16.768471 18675 net.cpp:100] Creating Layer block4_s2_concat
I0808 21:30:16.768476 18675 net.cpp:434] block4_s2_concat <- block4_s2_pool
I0808 21:30:16.768482 18675 net.cpp:434] block4_s2_concat <- block4_s2_conv3
I0808 21:30:16.768492 18675 net.cpp:408] block4_s2_concat -> block4_s2_concat
I0808 21:30:16.768522 18675 net.cpp:150] Setting up block4_s2_concat
I0808 21:30:16.768530 18675 net.cpp:157] Top shape: 64 1088 8 8 (4456448)
I0808 21:30:16.768535 18675 net.cpp:165] Memory required for data: 4115398912
I0808 21:30:16.768540 18675 layer_factory.hpp:77] Creating layer block4_s2_concat_ReLU
I0808 21:30:16.768564 18675 net.cpp:100] Creating Layer block4_s2_concat_ReLU
I0808 21:30:16.768604 18675 net.cpp:434] block4_s2_concat_ReLU <- block4_s2_concat
I0808 21:30:16.768610 18675 net.cpp:395] block4_s2_concat_ReLU -> block4_s2_concat (in-place)
I0808 21:30:16.769388 18675 net.cpp:150] Setting up block4_s2_concat_ReLU
I0808 21:30:16.769407 18675 net.cpp:157] Top shape: 64 1088 8 8 (4456448)
I0808 21:30:16.769412 18675 net.cpp:165] Memory required for data: 4133224704
I0808 21:30:16.769428 18675 layer_factory.hpp:77] Creating layer block4_s2_concat_block4_s2_concat_ReLU_0_split
I0808 21:30:16.769436 18675 net.cpp:100] Creating Layer block4_s2_concat_block4_s2_concat_ReLU_0_split
I0808 21:30:16.769443 18675 net.cpp:434] block4_s2_concat_block4_s2_concat_ReLU_0_split <- block4_s2_concat
I0808 21:30:16.769467 18675 net.cpp:408] block4_s2_concat_block4_s2_concat_ReLU_0_split -> block4_s2_concat_block4_s2_concat_ReLU_0_split_0
I0808 21:30:16.769486 18675 net.cpp:408] block4_s2_concat_block4_s2_concat_ReLU_0_split -> block4_s2_concat_block4_s2_concat_ReLU_0_split_1
I0808 21:30:16.769534 18675 net.cpp:150] Setting up block4_s2_concat_block4_s2_concat_ReLU_0_split
I0808 21:30:16.769546 18675 net.cpp:157] Top shape: 64 1088 8 8 (4456448)
I0808 21:30:16.769551 18675 net.cpp:157] Top shape: 64 1088 8 8 (4456448)
I0808 21:30:16.769556 18675 net.cpp:165] Memory required for data: 4168876288
I0808 21:30:16.769562 18675 layer_factory.hpp:77] Creating layer block4_s1_1_conv1
I0808 21:30:16.769575 18675 net.cpp:100] Creating Layer block4_s1_1_conv1
I0808 21:30:16.769585 18675 net.cpp:434] block4_s1_1_conv1 <- block4_s2_concat_block4_s2_concat_ReLU_0_split_0
I0808 21:30:16.769593 18675 net.cpp:408] block4_s1_1_conv1 -> block4_s1_1_conv1
I0808 21:30:16.775729 18675 net.cpp:150] Setting up block4_s1_1_conv1
I0808 21:30:16.775765 18675 net.cpp:157] Top shape: 64 272 8 8 (1114112)
I0808 21:30:16.775773 18675 net.cpp:165] Memory required for data: 4173332736
I0808 21:30:16.775780 18675 layer_factory.hpp:77] Creating layer block4_s1_1_conv1_ReLU
I0808 21:30:16.775790 18675 net.cpp:100] Creating Layer block4_s1_1_conv1_ReLU
I0808 21:30:16.775797 18675 net.cpp:434] block4_s1_1_conv1_ReLU <- block4_s1_1_conv1
I0808 21:30:16.775804 18675 net.cpp:395] block4_s1_1_conv1_ReLU -> block4_s1_1_conv1 (in-place)
I0808 21:30:16.776566 18675 net.cpp:150] Setting up block4_s1_1_conv1_ReLU
I0808 21:30:16.776598 18675 net.cpp:157] Top shape: 64 272 8 8 (1114112)
I0808 21:30:16.776604 18675 net.cpp:165] Memory required for data: 4177789184
I0808 21:30:16.776609 18675 layer_factory.hpp:77] Creating layer shuffle_block4_s1_1
I0808 21:30:16.776620 18675 net.cpp:100] Creating Layer shuffle_block4_s1_1
I0808 21:30:16.776626 18675 net.cpp:434] shuffle_block4_s1_1 <- block4_s1_1_conv1
I0808 21:30:16.776635 18675 net.cpp:408] shuffle_block4_s1_1 -> shuffle_block4_s1_1
I0808 21:30:16.776669 18675 net.cpp:150] Setting up shuffle_block4_s1_1
I0808 21:30:16.776685 18675 net.cpp:157] Top shape: 64 272 8 8 (1114112)
I0808 21:30:16.776690 18675 net.cpp:165] Memory required for data: 4182245632
I0808 21:30:16.776696 18675 layer_factory.hpp:77] Creating layer block4_s1_1_conv2
I0808 21:30:16.776715 18675 net.cpp:100] Creating Layer block4_s1_1_conv2
I0808 21:30:16.776723 18675 net.cpp:434] block4_s1_1_conv2 <- shuffle_block4_s1_1
I0808 21:30:16.776731 18675 net.cpp:408] block4_s1_1_conv2 -> block4_s1_1_conv2
I0808 21:30:16.776978 18675 net.cpp:150] Setting up block4_s1_1_conv2
I0808 21:30:16.776993 18675 net.cpp:157] Top shape: 64 272 8 8 (1114112)
I0808 21:30:16.776998 18675 net.cpp:165] Memory required for data: 4186702080
I0808 21:30:16.777006 18675 layer_factory.hpp:77] Creating layer block4_s1_1_conv2_ReLU
I0808 21:30:16.777014 18675 net.cpp:100] Creating Layer block4_s1_1_conv2_ReLU
I0808 21:30:16.777019 18675 net.cpp:434] block4_s1_1_conv2_ReLU <- block4_s1_1_conv2
I0808 21:30:16.777029 18675 net.cpp:395] block4_s1_1_conv2_ReLU -> block4_s1_1_conv2 (in-place)
I0808 21:30:16.777218 18675 net.cpp:150] Setting up block4_s1_1_conv2_ReLU
I0808 21:30:16.777232 18675 net.cpp:157] Top shape: 64 272 8 8 (1114112)
I0808 21:30:16.777237 18675 net.cpp:165] Memory required for data: 4191158528
I0808 21:30:16.777243 18675 layer_factory.hpp:77] Creating layer block4_s1_1_conv3
I0808 21:30:16.777256 18675 net.cpp:100] Creating Layer block4_s1_1_conv3
I0808 21:30:16.777262 18675 net.cpp:434] block4_s1_1_conv3 <- block4_s1_1_conv2
I0808 21:30:16.777271 18675 net.cpp:408] block4_s1_1_conv3 -> block4_s1_1_conv3
I0808 21:30:16.782521 18675 net.cpp:150] Setting up block4_s1_1_conv3
I0808 21:30:16.782557 18675 net.cpp:157] Top shape: 64 1088 8 8 (4456448)
I0808 21:30:16.782563 18675 net.cpp:165] Memory required for data: 4208984320
I0808 21:30:16.782572 18675 layer_factory.hpp:77] Creating layer block4_s1_1_eltwise
I0808 21:30:16.782580 18675 net.cpp:100] Creating Layer block4_s1_1_eltwise
I0808 21:30:16.782588 18675 net.cpp:434] block4_s1_1_eltwise <- block4_s2_concat_block4_s2_concat_ReLU_0_split_1
I0808 21:30:16.782594 18675 net.cpp:434] block4_s1_1_eltwise <- block4_s1_1_conv3
I0808 21:30:16.782604 18675 net.cpp:408] block4_s1_1_eltwise -> block4_s1_1_eltwise
I0808 21:30:16.782635 18675 net.cpp:150] Setting up block4_s1_1_eltwise
I0808 21:30:16.782656 18675 net.cpp:157] Top shape: 64 1088 8 8 (4456448)
I0808 21:30:16.782661 18675 net.cpp:165] Memory required for data: 4226810112
I0808 21:30:16.782667 18675 layer_factory.hpp:77] Creating layer block4_s1_1_eltwise_ReLU
I0808 21:30:16.782675 18675 net.cpp:100] Creating Layer block4_s1_1_eltwise_ReLU
I0808 21:30:16.782681 18675 net.cpp:434] block4_s1_1_eltwise_ReLU <- block4_s1_1_eltwise
I0808 21:30:16.782687 18675 net.cpp:395] block4_s1_1_eltwise_ReLU -> block4_s1_1_eltwise (in-place)
I0808 21:30:16.783443 18675 net.cpp:150] Setting up block4_s1_1_eltwise_ReLU
I0808 21:30:16.783476 18675 net.cpp:157] Top shape: 64 1088 8 8 (4456448)
I0808 21:30:16.783483 18675 net.cpp:165] Memory required for data: 4244635904
I0808 21:30:16.783488 18675 layer_factory.hpp:77] Creating layer block4_s1_1_eltwise_block4_s1_1_eltwise_ReLU_0_split
I0808 21:30:16.783496 18675 net.cpp:100] Creating Layer block4_s1_1_eltwise_block4_s1_1_eltwise_ReLU_0_split
I0808 21:30:16.783504 18675 net.cpp:434] block4_s1_1_eltwise_block4_s1_1_eltwise_ReLU_0_split <- block4_s1_1_eltwise
I0808 21:30:16.783512 18675 net.cpp:408] block4_s1_1_eltwise_block4_s1_1_eltwise_ReLU_0_split -> block4_s1_1_eltwise_block4_s1_1_eltwise_ReLU_0_split_0
I0808 21:30:16.783521 18675 net.cpp:408] block4_s1_1_eltwise_block4_s1_1_eltwise_ReLU_0_split -> block4_s1_1_eltwise_block4_s1_1_eltwise_ReLU_0_split_1
I0808 21:30:16.783568 18675 net.cpp:150] Setting up block4_s1_1_eltwise_block4_s1_1_eltwise_ReLU_0_split
I0808 21:30:16.783581 18675 net.cpp:157] Top shape: 64 1088 8 8 (4456448)
I0808 21:30:16.783586 18675 net.cpp:157] Top shape: 64 1088 8 8 (4456448)
I0808 21:30:16.783591 18675 net.cpp:165] Memory required for data: 4280287488
I0808 21:30:16.783597 18675 layer_factory.hpp:77] Creating layer block4_s1_2_conv1
I0808 21:30:16.783609 18675 net.cpp:100] Creating Layer block4_s1_2_conv1
I0808 21:30:16.783623 18675 net.cpp:434] block4_s1_2_conv1 <- block4_s1_1_eltwise_block4_s1_1_eltwise_ReLU_0_split_0
I0808 21:30:16.783632 18675 net.cpp:408] block4_s1_2_conv1 -> block4_s1_2_conv1
I0808 21:30:16.788792 18675 net.cpp:150] Setting up block4_s1_2_conv1
I0808 21:30:16.788828 18675 net.cpp:157] Top shape: 64 272 8 8 (1114112)
I0808 21:30:16.788835 18675 net.cpp:165] Memory required for data: 4284743936
I0808 21:30:16.788843 18675 layer_factory.hpp:77] Creating layer block4_s1_2_conv1_ReLU
I0808 21:30:16.788851 18675 net.cpp:100] Creating Layer block4_s1_2_conv1_ReLU
I0808 21:30:16.788858 18675 net.cpp:434] block4_s1_2_conv1_ReLU <- block4_s1_2_conv1
I0808 21:30:16.788866 18675 net.cpp:395] block4_s1_2_conv1_ReLU -> block4_s1_2_conv1 (in-place)
I0808 21:30:16.790180 18675 net.cpp:150] Setting up block4_s1_2_conv1_ReLU
I0808 21:30:16.790215 18675 net.cpp:157] Top shape: 64 272 8 8 (1114112)
I0808 21:30:16.790220 18675 net.cpp:165] Memory required for data: 4289200384
I0808 21:30:16.790226 18675 layer_factory.hpp:77] Creating layer shuffle_block4_s1_2
I0808 21:30:16.790236 18675 net.cpp:100] Creating Layer shuffle_block4_s1_2
I0808 21:30:16.790243 18675 net.cpp:434] shuffle_block4_s1_2 <- block4_s1_2_conv1
I0808 21:30:16.790251 18675 net.cpp:408] shuffle_block4_s1_2 -> shuffle_block4_s1_2
I0808 21:30:16.790287 18675 net.cpp:150] Setting up shuffle_block4_s1_2
I0808 21:30:16.790316 18675 net.cpp:157] Top shape: 64 272 8 8 (1114112)
I0808 21:30:16.790338 18675 net.cpp:165] Memory required for data: 4293656832
I0808 21:30:16.790344 18675 layer_factory.hpp:77] Creating layer block4_s1_2_conv2
I0808 21:30:16.790355 18675 net.cpp:100] Creating Layer block4_s1_2_conv2
I0808 21:30:16.790361 18675 net.cpp:434] block4_s1_2_conv2 <- shuffle_block4_s1_2
I0808 21:30:16.790370 18675 net.cpp:408] block4_s1_2_conv2 -> block4_s1_2_conv2
I0808 21:30:16.790644 18675 net.cpp:150] Setting up block4_s1_2_conv2
I0808 21:30:16.790659 18675 net.cpp:157] Top shape: 64 272 8 8 (1114112)
I0808 21:30:16.790665 18675 net.cpp:165] Memory required for data: 4298113280
I0808 21:30:16.790673 18675 layer_factory.hpp:77] Creating layer block4_s1_2_conv2_ReLU
I0808 21:30:16.790683 18675 net.cpp:100] Creating Layer block4_s1_2_conv2_ReLU
I0808 21:30:16.790690 18675 net.cpp:434] block4_s1_2_conv2_ReLU <- block4_s1_2_conv2
I0808 21:30:16.790697 18675 net.cpp:395] block4_s1_2_conv2_ReLU -> block4_s1_2_conv2 (in-place)
I0808 21:30:16.790882 18675 net.cpp:150] Setting up block4_s1_2_conv2_ReLU
I0808 21:30:16.790895 18675 net.cpp:157] Top shape: 64 272 8 8 (1114112)
I0808 21:30:16.790901 18675 net.cpp:165] Memory required for data: 4302569728
I0808 21:30:16.790906 18675 layer_factory.hpp:77] Creating layer block4_s1_2_conv3
I0808 21:30:16.790920 18675 net.cpp:100] Creating Layer block4_s1_2_conv3
I0808 21:30:16.790933 18675 net.cpp:434] block4_s1_2_conv3 <- block4_s1_2_conv2
I0808 21:30:16.790942 18675 net.cpp:408] block4_s1_2_conv3 -> block4_s1_2_conv3
I0808 21:30:16.796047 18675 net.cpp:150] Setting up block4_s1_2_conv3
I0808 21:30:16.796082 18675 net.cpp:157] Top shape: 64 1088 8 8 (4456448)
I0808 21:30:16.796088 18675 net.cpp:165] Memory required for data: 4320395520
I0808 21:30:16.796097 18675 layer_factory.hpp:77] Creating layer block4_s1_2_eltwise
I0808 21:30:16.796105 18675 net.cpp:100] Creating Layer block4_s1_2_eltwise
I0808 21:30:16.796111 18675 net.cpp:434] block4_s1_2_eltwise <- block4_s1_1_eltwise_block4_s1_1_eltwise_ReLU_0_split_1
I0808 21:30:16.796120 18675 net.cpp:434] block4_s1_2_eltwise <- block4_s1_2_conv3
I0808 21:30:16.796128 18675 net.cpp:408] block4_s1_2_eltwise -> block4_s1_2_eltwise
I0808 21:30:16.796159 18675 net.cpp:150] Setting up block4_s1_2_eltwise
I0808 21:30:16.796169 18675 net.cpp:157] Top shape: 64 1088 8 8 (4456448)
I0808 21:30:16.796175 18675 net.cpp:165] Memory required for data: 4338221312
I0808 21:30:16.796180 18675 layer_factory.hpp:77] Creating layer block4_s1_2_eltwise_ReLU
I0808 21:30:16.796190 18675 net.cpp:100] Creating Layer block4_s1_2_eltwise_ReLU
I0808 21:30:16.796195 18675 net.cpp:434] block4_s1_2_eltwise_ReLU <- block4_s1_2_eltwise
I0808 21:30:16.796202 18675 net.cpp:395] block4_s1_2_eltwise_ReLU -> block4_s1_2_eltwise (in-place)
I0808 21:30:16.796936 18675 net.cpp:150] Setting up block4_s1_2_eltwise_ReLU
I0808 21:30:16.796968 18675 net.cpp:157] Top shape: 64 1088 8 8 (4456448)
I0808 21:30:16.796974 18675 net.cpp:165] Memory required for data: 4356047104
I0808 21:30:16.796979 18675 layer_factory.hpp:77] Creating layer block4_s1_2_eltwise_block4_s1_2_eltwise_ReLU_0_split
I0808 21:30:16.796988 18675 net.cpp:100] Creating Layer block4_s1_2_eltwise_block4_s1_2_eltwise_ReLU_0_split
I0808 21:30:16.796993 18675 net.cpp:434] block4_s1_2_eltwise_block4_s1_2_eltwise_ReLU_0_split <- block4_s1_2_eltwise
I0808 21:30:16.797003 18675 net.cpp:408] block4_s1_2_eltwise_block4_s1_2_eltwise_ReLU_0_split -> block4_s1_2_eltwise_block4_s1_2_eltwise_ReLU_0_split_0
I0808 21:30:16.797011 18675 net.cpp:408] block4_s1_2_eltwise_block4_s1_2_eltwise_ReLU_0_split -> block4_s1_2_eltwise_block4_s1_2_eltwise_ReLU_0_split_1
I0808 21:30:16.797081 18675 net.cpp:150] Setting up block4_s1_2_eltwise_block4_s1_2_eltwise_ReLU_0_split
I0808 21:30:16.797092 18675 net.cpp:157] Top shape: 64 1088 8 8 (4456448)
I0808 21:30:16.797101 18675 net.cpp:157] Top shape: 64 1088 8 8 (4456448)
I0808 21:30:16.797106 18675 net.cpp:165] Memory required for data: 4391698688
I0808 21:30:16.797111 18675 layer_factory.hpp:77] Creating layer block4_s1_3_conv1
I0808 21:30:16.797124 18675 net.cpp:100] Creating Layer block4_s1_3_conv1
I0808 21:30:16.797148 18675 net.cpp:434] block4_s1_3_conv1 <- block4_s1_2_eltwise_block4_s1_2_eltwise_ReLU_0_split_0
I0808 21:30:16.797158 18675 net.cpp:408] block4_s1_3_conv1 -> block4_s1_3_conv1
I0808 21:30:16.802368 18675 net.cpp:150] Setting up block4_s1_3_conv1
I0808 21:30:16.802403 18675 net.cpp:157] Top shape: 64 272 8 8 (1114112)
I0808 21:30:16.802409 18675 net.cpp:165] Memory required for data: 4396155136
I0808 21:30:16.802418 18675 layer_factory.hpp:77] Creating layer block4_s1_3_conv1_ReLU
I0808 21:30:16.802426 18675 net.cpp:100] Creating Layer block4_s1_3_conv1_ReLU
I0808 21:30:16.802433 18675 net.cpp:434] block4_s1_3_conv1_ReLU <- block4_s1_3_conv1
I0808 21:30:16.802441 18675 net.cpp:395] block4_s1_3_conv1_ReLU -> block4_s1_3_conv1 (in-place)
I0808 21:30:16.803210 18675 net.cpp:150] Setting up block4_s1_3_conv1_ReLU
I0808 21:30:16.803242 18675 net.cpp:157] Top shape: 64 272 8 8 (1114112)
I0808 21:30:16.803251 18675 net.cpp:165] Memory required for data: 4400611584
I0808 21:30:16.803256 18675 layer_factory.hpp:77] Creating layer shuffle_block4_s1_3
I0808 21:30:16.803266 18675 net.cpp:100] Creating Layer shuffle_block4_s1_3
I0808 21:30:16.803272 18675 net.cpp:434] shuffle_block4_s1_3 <- block4_s1_3_conv1
I0808 21:30:16.803278 18675 net.cpp:408] shuffle_block4_s1_3 -> shuffle_block4_s1_3
I0808 21:30:16.803318 18675 net.cpp:150] Setting up shuffle_block4_s1_3
I0808 21:30:16.803328 18675 net.cpp:157] Top shape: 64 272 8 8 (1114112)
I0808 21:30:16.803334 18675 net.cpp:165] Memory required for data: 4405068032
I0808 21:30:16.803339 18675 layer_factory.hpp:77] Creating layer block4_s1_3_conv2
I0808 21:30:16.803350 18675 net.cpp:100] Creating Layer block4_s1_3_conv2
I0808 21:30:16.803356 18675 net.cpp:434] block4_s1_3_conv2 <- shuffle_block4_s1_3
I0808 21:30:16.803364 18675 net.cpp:408] block4_s1_3_conv2 -> block4_s1_3_conv2
I0808 21:30:16.803614 18675 net.cpp:150] Setting up block4_s1_3_conv2
I0808 21:30:16.803628 18675 net.cpp:157] Top shape: 64 272 8 8 (1114112)
I0808 21:30:16.803634 18675 net.cpp:165] Memory required for data: 4409524480
I0808 21:30:16.803642 18675 layer_factory.hpp:77] Creating layer block4_s1_3_conv2_ReLU
I0808 21:30:16.803650 18675 net.cpp:100] Creating Layer block4_s1_3_conv2_ReLU
I0808 21:30:16.803656 18675 net.cpp:434] block4_s1_3_conv2_ReLU <- block4_s1_3_conv2
I0808 21:30:16.803663 18675 net.cpp:395] block4_s1_3_conv2_ReLU -> block4_s1_3_conv2 (in-place)
I0808 21:30:16.803825 18675 net.cpp:150] Setting up block4_s1_3_conv2_ReLU
I0808 21:30:16.803838 18675 net.cpp:157] Top shape: 64 272 8 8 (1114112)
I0808 21:30:16.803844 18675 net.cpp:165] Memory required for data: 4413980928
I0808 21:30:16.803850 18675 layer_factory.hpp:77] Creating layer block4_s1_3_conv3
I0808 21:30:16.803863 18675 net.cpp:100] Creating Layer block4_s1_3_conv3
I0808 21:30:16.803879 18675 net.cpp:434] block4_s1_3_conv3 <- block4_s1_3_conv2
I0808 21:30:16.803889 18675 net.cpp:408] block4_s1_3_conv3 -> block4_s1_3_conv3
I0808 21:30:16.809028 18675 net.cpp:150] Setting up block4_s1_3_conv3
I0808 21:30:16.809070 18675 net.cpp:157] Top shape: 64 1088 8 8 (4456448)
I0808 21:30:16.809093 18675 net.cpp:165] Memory required for data: 4431806720
I0808 21:30:16.809103 18675 layer_factory.hpp:77] Creating layer block4_s1_3_eltwise
I0808 21:30:16.809113 18675 net.cpp:100] Creating Layer block4_s1_3_eltwise
I0808 21:30:16.809120 18675 net.cpp:434] block4_s1_3_eltwise <- block4_s1_2_eltwise_block4_s1_2_eltwise_ReLU_0_split_1
I0808 21:30:16.809128 18675 net.cpp:434] block4_s1_3_eltwise <- block4_s1_3_conv3
I0808 21:30:16.809134 18675 net.cpp:408] block4_s1_3_eltwise -> block4_s1_3_eltwise
I0808 21:30:16.809167 18675 net.cpp:150] Setting up block4_s1_3_eltwise
I0808 21:30:16.809178 18675 net.cpp:157] Top shape: 64 1088 8 8 (4456448)
I0808 21:30:16.809185 18675 net.cpp:165] Memory required for data: 4449632512
I0808 21:30:16.809190 18675 layer_factory.hpp:77] Creating layer block4_s1_3_eltwise_ReLU
I0808 21:30:16.809198 18675 net.cpp:100] Creating Layer block4_s1_3_eltwise_ReLU
I0808 21:30:16.809204 18675 net.cpp:434] block4_s1_3_eltwise_ReLU <- block4_s1_3_eltwise
I0808 21:30:16.809231 18675 net.cpp:395] block4_s1_3_eltwise_ReLU -> block4_s1_3_eltwise (in-place)
I0808 21:30:16.810014 18675 net.cpp:150] Setting up block4_s1_3_eltwise_ReLU
I0808 21:30:16.810046 18675 net.cpp:157] Top shape: 64 1088 8 8 (4456448)
I0808 21:30:16.810052 18675 net.cpp:165] Memory required for data: 4467458304
I0808 21:30:16.810058 18675 layer_factory.hpp:77] Creating layer fc1
I0808 21:30:16.810070 18675 net.cpp:100] Creating Layer fc1
I0808 21:30:16.810076 18675 net.cpp:434] fc1 <- block4_s1_3_eltwise
I0808 21:30:16.810083 18675 net.cpp:408] fc1 -> fc1
I0808 21:30:17.005650 18675 net.cpp:150] Setting up fc1
I0808 21:30:17.005729 18675 net.cpp:157] Top shape: 64 512 (32768)
I0808 21:30:17.005736 18675 net.cpp:165] Memory required for data: 4467589376
I0808 21:30:17.005753 18675 layer_factory.hpp:77] Creating layer fc2
I0808 21:30:17.005775 18675 net.cpp:100] Creating Layer fc2
I0808 21:30:17.005786 18675 net.cpp:434] fc2 <- fc1
I0808 21:30:17.005796 18675 net.cpp:408] fc2 -> fc2
I0808 21:30:17.214768 18675 net.cpp:150] Setting up fc2
I0808 21:30:17.214843 18675 net.cpp:157] Top shape: 64 76544 (4898816)
I0808 21:30:17.214849 18675 net.cpp:165] Memory required for data: 4487184640
I0808 21:30:17.214861 18675 layer_factory.hpp:77] Creating layer softmax_loss
I0808 21:30:17.214877 18675 net.cpp:100] Creating Layer softmax_loss
I0808 21:30:17.214885 18675 net.cpp:434] softmax_loss <- fc2
I0808 21:30:17.214892 18675 net.cpp:434] softmax_loss <- label
I0808 21:30:17.214906 18675 net.cpp:408] softmax_loss -> softmax_loss
…
I0808 21:30:17.229970 18675 net.cpp:322] The NetState phase (1) differed from the phase (0) specified by a rule in layer data
I0808 21:30:17.230619 18675 net.cpp:58] Initializing net from parameters: 
state {
  phase: TEST
}
layer {
  name: "data"
  type: "Data"
  top: "data"
  top: "label"
  include {
    phase: TEST
  }
  transform_param {
    scale: 0.0078125
    mirror: true
    mean_value: 127.5
    mean_value: 127.5
    mean_value: 127.5
  }
  data_param {
    source: "/data/zeng/MsCeleb_256x256_val_lmdb"
    batch_size: 20
    backend: LMDB
  }
}
layer {
  name: "conv1"
  type: "Convolution"
  bottom: "data"
  top: "conv1"
  param {
    lr_mult: 1
    decay_mult: 1
  }
  param {
    lr_mult: 1
    decay_mult: 0
  }
  convolution_param {
    num_output: 24
    pad: 3
    kernel_size: 8
    group: 1
    stride: 2
    weight_filler {
      type: "msra"
      std: 0.01
    }
    bias_filler {
      type: "constant"
      value: 0
    }
  }
}
layer {
  name: "conv1_relu"
  type: "ReLU"
  bottom: "conv1"
  top: "conv1"
}
layer {
  name: "pool1"
  type: "Pooling"
  bottom: "conv1"
  top: "pool1"
  pooling_param {
    pool: MAX
    kernel_size: 3
    stride: 2
  }
}
layer {
  name: "block2_s2_pool"
  type: "Pooling"
  bottom: "pool1"
  top: "block2_s2_pool"
  pooling_param {
    pool: MAX
    kernel_size: 3
    stride: 2
  }
}
layer {
  name: "block2_s2_conv1"
  type: "Convolution"
  bottom: "pool1"
  top: "block2_s2_conv1"
  param {
    lr_mult: 1
    decay_mult: 1
  }
  param {
    lr_mult: 1
    decay_mult: 0
  }
  convolution_param {
    num_output: 62
    pad: 0
    kernel_size: 1
    group: 2
    stride: 1
    weight_filler {
      type: "gaussian"
      std: 0.01
    }
    bias_filler {
      type: "constant"
      value: 0
    }
  }
}
layer {
  name: "block2_s2_conv1_ReLU"
  type: "ReLU"
  bottom: "block2_s2_conv1"
  top: "block2_s2_conv1"
}
layer {
  name: "shuffle_block2_s2"
  type: "ShuffleChannel"
  bottom: "block2_s2_conv1"
  top: "shuffle_block2_s2"
  shuffle_channel_param {
    group: 2
  }
}
layer {
  name: "block2_s2_conv2"
  type: "ConvolutionDepthwise"
  bottom: "shuffle_block2_s2"
  top: "block2_s2_conv2"
  param {
    lr_mult: 1
    decay_mult: 1
  }
  param {
    lr_mult: 1
    decay_mult: 0
  }
  convolution_param {
    num_output: 62
    pad: 1
    kernel_size: 3
    stride: 2
    weight_filler {
      type: "gaussian"
      std: 0.01
    }
    bias_filler {
      type: "constant"
      value: 0
    }
  }
}
layer {
  name: "block2_s2_conv2_ReLU"
  type: "ReLU"
  bottom: "block2_s2_conv2"
  top: "block2_s2_conv2"
}
layer {
  name: "block2_s2_conv3"
  type: "Convolution"
  bottom: "block2_s2_conv2"
  top: "block2_s2_conv3"
  param {
    lr_mult: 1
    decay_mult: 1
  }
  param {
    lr_mult: 1
    decay_mult: 0
  }
  convolution_param {
    num_output: 248
    pad: 0
    kernel_size: 1
    group: 2
    stride: 1
    weight_filler {
      type: "gaussian"
      std: 0.01
    }
    bias_filler {
      type: "constant"
      value: 0
    }
  }
}
layer {
  name: "block2_s2_concat"
  type: "Concat"
  bottom: "block2_s2_pool"
  bottom: "block2_s2_conv3"
  top: "block2_s2_concat"
}
layer {
  name: "block2_s2_concat_ReLU"
  type: "ReLU"
  bottom: "block2_s2_concat"
  top: "block2_s2_concat"
}
layer {
  name: "block2_s1_1_conv1"
  type: "Convolution"
  bottom: "block2_s2_concat"
  top: "block2_s1_1_conv1"
  param {
    lr_mult: 1
    decay_mult: 1
  }
  param {
    lr_mult: 1
    decay_mult: 0
  }
  convolution_param {
    num_output: 68
    pad: 0
    kernel_size: 1
    group: 4
    stride: 1
    weight_filler {
      type: "gaussian"
      std: 0.01
    }
    bias_filler {
      type: "constant"
      value: 0
    }
  }
}
layer {
  name: "block2_s1_1_conv1_ReLU"
  type: "ReLU"
  bottom: "block2_s1_1_conv1"
  top: "block2_s1_1_conv1"
}
layer {
  name: "shuffle_block2_s1_1"
  type: "ShuffleChannel"
  bottom: "block2_s1_1_conv1"
  top: "shuffle_block2_s1_1"
  shuffle_channel_param {
    group: 4
  }
}
layer {
  name: "block2_s1_1_conv2"
  type: "ConvolutionDepthwise"
  bottom: "shuffle_block2_s1_1"
  top: "block2_s1_1_conv2"
  param {
    lr_mult: 1
    decay_mult: 1
  }
  param {
    lr_mult: 1
    decay_mult: 0
  }
  convolution_param {
    num_output: 68
    pad: 1
    kernel_size: 3
    stride: 1
    weight_filler {
      type: "gaussian"
      std: 0.01
    }
    bias_filler {
      type: "constant"
      value: 0
    }
  }
}
layer {
  name: "block2_s1_1_conv2_ReLU"
  type: "ReLU"
  bottom: "block2_s1_1_conv2"
  top: "block2_s1_1_conv2"
}
layer {
  name: "block2_s1_1_conv3"
  type: "Convolution"
  bottom: "block2_s1_1_conv2"
  top: "block2_s1_1_conv3"
  param {
    lr_mult: 1
    decay_mult: 1
  }
  param {
    lr_mult: 1
    decay_mult: 0
  }
  convolution_param {
    num_output: 272
    pad: 0
    kernel_size: 1
    group: 4
    stride: 1
    weight_filler {
      type: "gaussian"
      std: 0.01
    }
    bias_filler {
      type: "constant"
      value: 0
    }
  }
}
layer {
  name: "block2_s1_1_eltwise"
  type: "Eltwise"
  bottom: "block2_s2_concat"
  bottom: "block2_s1_1_conv3"
  top: "block2_s1_1_eltwise"
  eltwise_param {
    operation: SUM
  }
}
layer {
  name: "block2_s1_1_eltwise_ReLU"
  type: "ReLU"
  bottom: "block2_s1_1_eltwise"
  top: "block2_s1_1_eltwise"
}
layer {
  name: "block2_s1_2_conv1"
  type: "Convolution"
  bottom: "block2_s1_1_eltwise"
  top: "block2_s1_2_conv1"
  param {
    lr_mult: 1
    decay_mult: 1
  }
  param {
    lr_mult: 1
    decay_mult: 0
  }
  convolution_param {
    num_output: 68
    pad: 0
    kernel_size: 1
    group: 4
    stride: 1
    weight_filler {
      type: "gaussian"
      std: 0.01
    }
    bias_filler {
      type: "constant"
      value: 0
    }
  }
}
layer {
  name: "block2_s1_2_conv1_ReLU"
  type: "ReLU"
  bottom: "block2_s1_2_conv1"
  top: "block2_s1_2_conv1"
}
layer {
  name: "shuffle_block2_s1_2"
  type: "ShuffleChannel"
  bottom: "block2_s1_2_conv1"
  top: "shuffle_block2_s1_2"
  shuffle_channel_param {
    group: 4
  }
}
layer {
  name: "block2_s1_2_conv2"
  type: "ConvolutionDepthwise"
  bottom: "shuffle_block2_s1_2"
  top: "block2_s1_2_conv2"
  param {
    lr_mult: 1
    decay_mult: 1
  }
  param {
    lr_mult: 1
    decay_mult: 0
  }
  convolution_param {
    num_output: 68
    pad: 1
    kernel_size: 3
    stride: 1
    weight_filler {
      type: "gaussian"
      std: 0.01
    }
    bias_filler {
      type: "constant"
      value: 0
    }
  }
}
layer {
  name: "block2_s1_2_conv2_ReLU"
  type: "ReLU"
  bottom: "block2_s1_2_conv2"
  top: "block2_s1_2_conv2"
}
layer {
  name: "block2_s1_2_conv3"
  type: "Convolution"
  bottom: "block2_s1_2_conv2"
  top: "block2_s1_2_conv3"
  param {
    lr_mult: 1
    decay_mult: 1
  }
  param {
    lr_mult: 1
    decay_mult: 0
  }
  convolution_param {
    num_output: 272
    pad: 0
    kernel_size: 1
    group: 4
    stride: 1
    weight_filler {
      type: "gaussian"
      std: 0.01
    }
    bias_filler {
      type: "constant"
      value: 0
    }
  }
}
layer {
  name: "block2_s1_2_eltwise"
  type: "Eltwise"
  bottom: "block2_s1_1_eltwise"
  bottom: "block2_s1_2_conv3"
  top: "block2_s1_2_eltwise"
  eltwise_param {
    operation: SUM
  }
}
layer {
  name: "block2_s1_2_eltwise_ReLU"
  type: "ReLU"
  bottom: "block2_s1_2_eltwise"
  top: "block2_s1_2_eltwise"
}
layer {
  name: "block2_s1_3_conv1"
  type: "Convolution"
  bottom: "block2_s1_2_eltwise"
  top: "block2_s1_3_conv1"
  param {
    lr_mult: 1
    decay_mult: 1
  }
  param {
    lr_mult: 1
    decay_mult: 0
  }
  convolution_param {
    num_output: 68
    pad: 0
    kernel_size: 1
    group: 4
    stride: 1
    weight_filler {
      type: "gaussian"
      std: 0.01
    }
    bias_filler {
      type: "constant"
      value: 0
    }
  }
}
layer {
  name: "block2_s1_3_conv1_ReLU"
  type: "ReLU"
  bottom: "block2_s1_3_conv1"
  top: "block2_s1_3_conv1"
}
layer {
  name: "shuffle_block2_s1_3"
  type: "ShuffleChannel"
  bottom: "block2_s1_3_conv1"
  top: "shuffle_block2_s1_3"
  shuffle_channel_param {
    group: 4
  }
}
layer {
  name: "block2_s1_3_conv2"
  type: "ConvolutionDepthwise"
  bottom: "shuffle_block2_s1_3"
  top: "block2_s1_3_conv2"
  param {
    lr_mult: 1
    decay_mult: 1
  }
  param {
    lr_mult: 1
    decay_mult: 0
  }
  convolution_param {
    num_output: 68
    pad: 1
    kernel_size: 3
    stride: 1
    weight_filler {
      type: "gaussian"
      std: 0.01
    }
    bias_filler {
      type: "constant"
      value: 0
    }
  }
}
layer {
  name: "block2_s1_3_conv2_ReLU"
  type: "ReLU"
  bottom: "block2_s1_3_conv2"
  top: "block2_s1_3_conv2"
}
layer {
  name: "block2_s1_3_conv3"
  type: "Convolution"
  bottom: "block2_s1_3_conv2"
  top: "block2_s1_3_conv3"
  param {
    lr_mult: 1
    decay_mult: 1
  }
  param {
    lr_mult: 1
    decay_mult: 0
  }
  convolution_param {
    num_output: 272
    pad: 0
    kernel_size: 1
    group: 4
    stride: 1
    weight_filler {
      type: "gaussian"
      std: 0.01
    }
    bias_filler {
      type: "constant"
      value: 0
    }
  }
}
layer {
  name: "block2_s1_3_eltwise"
  type: "Eltwise"
  bottom: "block2_s1_2_eltwise"
  bottom: "block2_s1_3_conv3"
  top: "block2_s1_3_eltwise"
  eltwise_param {
    operation: SUM
  }
}
layer {
  name: "block2_s1_3_eltwise_ReLU"
  type: "ReLU"
  bottom: "block2_s1_3_eltwise"
  top: "block2_s1_3_eltwise"
}
layer {
  name: "block3_s2_pool"
  type: "Pooling"
  bottom: "block2_s1_3_eltwise"
  top: "block3_s2_pool"
  pooling_param {
    pool: MAX
    kernel_size: 3
    stride: 2
  }
}
layer {
  name: "block3_s2_conv1"
  type: "Convolution"
  bottom: "block2_s1_3_eltwise"
  top: "block3_s2_conv1"
  param {
    lr_mult: 1
    decay_mult: 1
  }
  param {
    lr_mult: 1
    decay_mult: 0
  }
  convolution_param {
    num_output: 68
    pad: 0
    kernel_size: 1
    group: 4
    stride: 1
    weight_filler {
      type: "gaussian"
      std: 0.01
    }
    bias_filler {
      type: "constant"
      value: 0
    }
  }
}
layer {
  name: "block3_s2_conv1_ReLU"
  type: "ReLU"
  bottom: "block3_s2_conv1"
  top: "block3_s2_conv1"
}
layer {
  name: "shuffle_block3_s2"
  type: "ShuffleChannel"
  bottom: "block3_s2_conv1"
  top: "shuffle_block3_s2"
  shuffle_channel_param {
    group: 4
  }
}
layer {
  name: "block3_s2_conv2"
  type: "ConvolutionDepthwise"
  bottom: "shuffle_block3_s2"
  top: "block3_s2_conv2"
  param {
    lr_mult: 1
    decay_mult: 1
  }
  param {
    lr_mult: 1
    decay_mult: 0
  }
  convolution_param {
    num_output: 68
    pad: 1
    kernel_size: 3
    stride: 2
    weight_filler {
      type: "gaussian"
      std: 0.01
    }
    bias_filler {
      type: "constant"
      value: 0
    }
  }
}
layer {
  name: "block3_s2_conv2_ReLU"
  type: "ReLU"
  bottom: "block3_s2_conv2"
  top: "block3_s2_conv2"
}
layer {
  name: "block3_s2_conv3"
  type: "Convolution"
  bottom: "block3_s2_conv2"
  top: "block3_s2_conv3"
  param {
    lr_mult: 1
    decay_mult: 1
  }
  param {
    lr_mult: 1
    decay_mult: 0
  }
  convolution_param {
    num_output: 272
    pad: 0
    kernel_size: 1
    group: 4
    stride: 1
    weight_filler {
      type: "gaussian"
      std: 0.01
    }
    bias_filler {
      type: "constant"
      value: 0
    }
  }
}
layer {
  name: "block3_s2_concat"
  type: "Concat"
  bottom: "block3_s2_pool"
  bottom: "block3_s2_conv3"
  top: "block3_s2_concat"
}
layer {
  name: "block3_s2_concat_ReLU"
  type: "ReLU"
  bottom: "block3_s2_concat"
  top: "block3_s2_concat"
}
layer {
  name: "block3_s1_1_conv1"
  type: "Convolution"
  bottom: "block3_s2_concat"
  top: "block3_s1_1_conv1"
  param {
    lr_mult: 1
    decay_mult: 1
  }
  param {
    lr_mult: 1
    decay_mult: 0
  }
  convolution_param {
    num_output: 136
    pad: 0
    kernel_size: 1
    group: 4
    stride: 1
    weight_filler {
      type: "gaussian"
      std: 0.01
    }
    bias_filler {
      type: "constant"
      value: 0
    }
  }
}
layer {
  name: "block3_s1_1_conv1_ReLU"
  type: "ReLU"
  bottom: "block3_s1_1_conv1"
  top: "block3_s1_1_conv1"
}
layer {
  name: "shuffle_block3_s1_1"
  type: "ShuffleChannel"
  bottom: "block3_s1_1_conv1"
  top: "shuffle_block3_s1_1"
  shuffle_channel_param {
    group: 4
  }
}
layer {
  name: "block3_s1_1_conv2"
  type: "ConvolutionDepthwise"
  bottom: "shuffle_block3_s1_1"
  top: "block3_s1_1_conv2"
  param {
    lr_mult: 1
    decay_mult: 1
  }
  param {
    lr_mult: 1
    decay_mult: 0
  }
  convolution_param {
    num_output: 136
    pad: 1
    kernel_size: 3
    stride: 1
    weight_filler {
      type: "gaussian"
      std: 0.01
    }
    bias_filler {
      type: "constant"
      value: 0
    }
  }
}
layer {
  name: "block3_s1_1_conv2_ReLU"
  type: "ReLU"
  bottom: "block3_s1_1_conv2"
  top: "block3_s1_1_conv2"
}
layer {
  name: "block3_s1_1_conv3"
  type: "Convolution"
  bottom: "block3_s1_1_conv2"
  top: "block3_s1_1_conv3"
  param {
    lr_mult: 1
    decay_mult: 1
  }
  param {
    lr_mult: 1
    decay_mult: 0
  }
  convolution_param {
    num_output: 544
    pad: 0
    kernel_size: 1
    group: 4
    stride: 1
    weight_filler {
      type: "gaussian"
      std: 0.01
    }
    bias_filler {
      type: "constant"
      value: 0
    }
  }
}
layer {
  name: "block3_s1_1_eltwise"
  type: "Eltwise"
  bottom: "block3_s2_concat"
  bottom: "block3_s1_1_conv3"
  top: "block3_s1_1_eltwise"
  eltwise_param {
    operation: SUM
  }
}
layer {
  name: "block3_s1_1_eltwise_ReLU"
  type: "ReLU"
  bottom: "block3_s1_1_eltwise"
  top: "block3_s1_1_eltwise"
}
layer {
  name: "block3_s1_2_conv1"
  type: "Convolution"
  bottom: "block3_s1_1_eltwise"
  top: "block3_s1_2_conv1"
  param {
    lr_mult: 1
    decay_mult: 1
  }
  param {
    lr_mult: 1
    decay_mult: 0
  }
  convolution_param {
    num_output: 136
    pad: 0
    kernel_size: 1
    group: 4
    stride: 1
    weight_filler {
      type: "gaussian"
      std: 0.01
    }
    bias_filler {
      type: "constant"
      value: 0
    }
  }
}
layer {
  name: "block3_s1_2_conv1_ReLU"
  type: "ReLU"
  bottom: "block3_s1_2_conv1"
  top: "block3_s1_2_conv1"
}
layer {
  name: "shuffle_block3_s1_2"
  type: "ShuffleChannel"
  bottom: "block3_s1_2_conv1"
  top: "shuffle_block3_s1_2"
  shuffle_channel_param {
    group: 4
  }
}
layer {
  name: "block3_s1_2_conv2"
  type: "ConvolutionDepthwise"
  bottom: "shuffle_block3_s1_2"
  top: "block3_s1_2_conv2"
  param {
    lr_mult: 1
    decay_mult: 1
  }
  param {
    lr_mult: 1
    decay_mult: 0
  }
  convolution_param {
    num_output: 136
    pad: 1
    kernel_size: 3
    stride: 1
    weight_filler {
      type: "gaussian"
      std: 0.01
    }
    bias_filler {
      type: "constant"
      value: 0
    }
  }
}
layer {
  name: "block3_s1_2_conv2_ReLU"
  type: "ReLU"
  bottom: "block3_s1_2_conv2"
  top: "block3_s1_2_conv2"
}
layer {
  name: "block3_s1_2_conv3"
  type: "Convolution"
  bottom: "block3_s1_2_conv2"
  top: "block3_s1_2_conv3"
  param {
    lr_mult: 1
    decay_mult: 1
  }
  param {
    lr_mult: 1
    decay_mult: 0
  }
  convolution_param {
    num_output: 544
    pad: 0
    kernel_size: 1
    group: 4
    stride: 1
    weight_filler {
      type: "gaussian"
      std: 0.01
    }
    bias_filler {
      type: "constant"
      value: 0
    }
  }
}
layer {
  name: "block3_s1_2_eltwise"
  type: "Eltwise"
  bottom: "block3_s1_1_eltwise"
  bottom: "block3_s1_2_conv3"
  top: "block3_s1_2_eltwise"
  eltwise_param {
    operation: SUM
  }
}
layer {
  name: "block3_s1_2_eltwise_ReLU"
  type: "ReLU"
  bottom: "block3_s1_2_eltwise"
  top: "block3_s1_2_eltwise"
}
layer {
  name: "block3_s1_3_conv1"
  type: "Convolution"
  bottom: "block3_s1_2_eltwise"
  top: "block3_s1_3_conv1"
  param {
    lr_mult: 1
    decay_mult: 1
  }
  param {
    lr_mult: 1
    decay_mult: 0
  }
  convolution_param {
    num_output: 136
    pad: 0
    kernel_size: 1
    group: 4
    stride: 1
    weight_filler {
      type: "gaussian"
      std: 0.01
    }
    bias_filler {
      type: "constant"
      value: 0
    }
  }
}
layer {
  name: "block3_s1_3_conv1_ReLU"
  type: "ReLU"
  bottom: "block3_s1_3_conv1"
  top: "block3_s1_3_conv1"
}
layer {
  name: "shuffle_block3_s1_3"
  type: "ShuffleChannel"
  bottom: "block3_s1_3_conv1"
  top: "shuffle_block3_s1_3"
  shuffle_channel_param {
    group: 4
  }
}
layer {
  name: "block3_s1_3_conv2"
  type: "ConvolutionDepthwise"
  bottom: "shuffle_block3_s1_3"
  top: "block3_s1_3_conv2"
  param {
    lr_mult: 1
    decay_mult: 1
  }
  param {
    lr_mult: 1
    decay_mult: 0
  }
  convolution_param {
    num_output: 136
    pad: 1
    kernel_size: 3
    stride: 1
    weight_filler {
      type: "gaussian"
      std: 0.01
    }
    bias_filler {
      type: "constant"
      value: 0
    }
  }
}
layer {
  name: "block3_s1_3_conv2_ReLU"
  type: "ReLU"
  bottom: "block3_s1_3_conv2"
  top: "block3_s1_3_conv2"
}
layer {
  name: "block3_s1_3_conv3"
  type: "Convolution"
  bottom: "block3_s1_3_conv2"
  top: "block3_s1_3_conv3"
  param {
    lr_mult: 1
    decay_mult: 1
  }
  param {
    lr_mult: 1
    decay_mult: 0
  }
  convolution_param {
    num_output: 544
    pad: 0
    kernel_size: 1
    group: 4
    stride: 1
    weight_filler {
      type: "gaussian"
      std: 0.01
    }
    bias_filler {
      type: "constant"
      value: 0
    }
  }
}
layer {
  name: "block3_s1_3_eltwise"
  type: "Eltwise"
  bottom: "block3_s1_2_eltwise"
  bottom: "block3_s1_3_conv3"
  top: "block3_s1_3_eltwise"
  eltwise_param {
    operation: SUM
  }
}
layer {
  name: "block3_s1_3_eltwise_ReLU"
  type: "ReLU"
  bottom: "block3_s1_3_eltwise"
  top: "block3_s1_3_eltwise"
}
layer {
  name: "block3_s1_4_conv1"
  type: "Convolution"
  bottom: "block3_s1_3_eltwise"
  top: "block3_s1_4_conv1"
  param {
    lr_mult: 1
    decay_mult: 1
  }
  param {
    lr_mult: 1
    decay_mult: 0
  }
  convolution_param {
    num_output: 136
    pad: 0
    kernel_size: 1
    group: 4
    stride: 1
    weight_filler {
      type: "gaussian"
      std: 0.01
    }
    bias_filler {
      type: "constant"
      value: 0
    }
  }
}
layer {
  name: "block3_s1_4_conv1_ReLU"
  type: "ReLU"
  bottom: "block3_s1_4_conv1"
  top: "block3_s1_4_conv1"
}
layer {
  name: "shuffle_block3_s1_4"
  type: "ShuffleChannel"
  bottom: "block3_s1_4_conv1"
  top: "shuffle_block3_s1_4"
  shuffle_channel_param {
    group: 4
  }
}
layer {
  name: "block3_s1_4_conv2"
  type: "ConvolutionDepthwise"
  bottom: "shuffle_block3_s1_4"
  top: "block3_s1_4_conv2"
  param {
    lr_mult: 1
    decay_mult: 1
  }
  param {
    lr_mult: 1
    decay_mult: 0
  }
  convolution_param {
    num_output: 136
    pad: 1
    kernel_size: 3
    stride: 1
    weight_filler {
      type: "gaussian"
      std: 0.01
    }
    bias_filler {
      type: "constant"
      value: 0
    }
  }
}
layer {
  name: "block3_s1_4_conv2_ReLU"
  type: "ReLU"
  bottom: "block3_s1_4_conv2"
  top: "block3_s1_4_conv2"
}
layer {
  name: "block3_s1_4_conv3"
  type: "Convolution"
  bottom: "block3_s1_4_conv2"
  top: "block3_s1_4_conv3"
  param {
    lr_mult: 1
    decay_mult: 1
  }
  param {
    lr_mult: 1
    decay_mult: 0
  }
  convolution_param {
    num_output: 544
    pad: 0
    kernel_size: 1
    group: 4
    stride: 1
    weight_filler {
      type: "gaussian"
      std: 0.01
    }
    bias_filler {
      type: "constant"
      value: 0
    }
  }
}
layer {
  name: "block3_s1_4_eltwise"
  type: "Eltwise"
  bottom: "block3_s1_3_eltwise"
  bottom: "block3_s1_4_conv3"
  top: "block3_s1_4_eltwise"
  eltwise_param {
    operation: SUM
  }
}
layer {
  name: "block3_s1_4_eltwise_ReLU"
  type: "ReLU"
  bottom: "block3_s1_4_eltwise"
  top: "block3_s1_4_eltwise"
}
layer {
  name: "block3_s1_5_conv1"
  type: "Convolution"
  bottom: "block3_s1_4_eltwise"
  top: "block3_s1_5_conv1"
  param {
    lr_mult: 1
    decay_mult: 1
  }
  param {
    lr_mult: 1
    decay_mult: 0
  }
  convolution_param {
    num_output: 136
    pad: 0
    kernel_size: 1
    group: 4
    stride: 1
    weight_filler {
      type: "gaussian"
      std: 0.01
    }
    bias_filler {
      type: "constant"
      value: 0
    }
  }
}
layer {
  name: "block3_s1_5_conv1_ReLU"
  type: "ReLU"
  bottom: "block3_s1_5_conv1"
  top: "block3_s1_5_conv1"
}
layer {
  name: "shuffle_block3_s1_5"
  type: "ShuffleChannel"
  bottom: "block3_s1_5_conv1"
  top: "shuffle_block3_s1_5"
  shuffle_channel_param {
    group: 4
  }
}
layer {
  name: "block3_s1_5_conv2"
  type: "ConvolutionDepthwise"
  bottom: "shuffle_block3_s1_5"
  top: "block3_s1_5_conv2"
  param {
    lr_mult: 1
    decay_mult: 1
  }
  param {
    lr_mult: 1
    decay_mult: 0
  }
  convolution_param {
    num_output: 136
    pad: 1
    kernel_size: 3
    stride: 1
    weight_filler {
      type: "gaussian"
      std: 0.01
    }
    bias_filler {
      type: "constant"
      value: 0
    }
  }
}
layer {
  name: "block3_s1_5_conv2_ReLU"
  type: "ReLU"
  bottom: "block3_s1_5_conv2"
  top: "block3_s1_5_conv2"
}
layer {
  name: "block3_s1_5_conv3"
  type: "Convolution"
  bottom: "block3_s1_5_conv2"
  top: "block3_s1_5_conv3"
  param {
    lr_mult: 1
    decay_mult: 1
  }
  param {
    lr_mult: 1
    decay_mult: 0
  }
  convolution_param {
    num_output: 544
    pad: 0
    kernel_size: 1
    group: 4
    stride: 1
    weight_filler {
      type: "gaussian"
      std: 0.01
    }
    bias_filler {
      type: "constant"
      value: 0
    }
  }
}
layer {
  name: "block3_s1_5_eltwise"
  type: "Eltwise"
  bottom: "block3_s1_4_eltwise"
  bottom: "block3_s1_5_conv3"
  top: "block3_s1_5_eltwise"
  eltwise_param {
    operation: SUM
  }
}
layer {
  name: "block3_s1_5_eltwise_ReLU"
  type: "ReLU"
  bottom: "block3_s1_5_eltwise"
  top: "block3_s1_5_eltwise"
}
layer {
  name: "block3_s1_6_conv1"
  type: "Convolution"
  bottom: "block3_s1_5_eltwise"
  top: "block3_s1_6_conv1"
  param {
    lr_mult: 1
    decay_mult: 1
  }
  param {
    lr_mult: 1
    decay_mult: 0
  }
  convolution_param {
    num_output: 136
    pad: 0
    kernel_size: 1
    group: 4
    stride: 1
    weight_filler {
      type: "gaussian"
      std: 0.01
    }
    bias_filler {
      type: "constant"
      value: 0
    }
  }
}
layer {
  name: "block3_s1_6_conv1_ReLU"
  type: "ReLU"
  bottom: "block3_s1_6_conv1"
  top: "block3_s1_6_conv1"
}
layer {
  name: "shuffle_block3_s1_6"
  type: "ShuffleChannel"
  bottom: "block3_s1_6_conv1"
  top: "shuffle_block3_s1_6"
  shuffle_channel_param {
    group: 4
  }
}
layer {
  name: "block3_s1_6_conv2"
  type: "ConvolutionDepthwise"
  bottom: "shuffle_block3_s1_6"
  top: "block3_s1_6_conv2"
  param {
    lr_mult: 1
    decay_mult: 1
  }
  param {
    lr_mult: 1
    decay_mult: 0
  }
  convolution_param {
    num_output: 136
    pad: 1
    kernel_size: 3
    stride: 1
    weight_filler {
      type: "gaussian"
      std: 0.01
    }
    bias_filler {
      type: "constant"
      value: 0
    }
  }
}
layer {
  name: "block3_s1_6_conv2_ReLU"
  type: "ReLU"
  bottom: "block3_s1_6_conv2"
  top: "block3_s1_6_conv2"
}
layer {
  name: "block3_s1_6_conv3"
  type: "Convolution"
  bottom: "block3_s1_6_conv2"
  top: "block3_s1_6_conv3"
  param {
    lr_mult: 1
    decay_mult: 1
  }
  param {
    lr_mult: 1
    decay_mult: 0
  }
  convolution_param {
    num_output: 544
    pad: 0
    kernel_size: 1
    group: 4
    stride: 1
    weight_filler {
      type: "gaussian"
      std: 0.01
    }
    bias_filler {
      type: "constant"
      value: 0
    }
  }
}
layer {
  name: "block3_s1_6_eltwise"
  type: "Eltwise"
  bottom: "block3_s1_5_eltwise"
  bottom: "block3_s1_6_conv3"
  top: "block3_s1_6_eltwise"
  eltwise_param {
    operation: SUM
  }
}
layer {
  name: "block3_s1_6_eltwise_ReLU"
  type: "ReLU"
  bottom: "block3_s1_6_eltwise"
  top: "block3_s1_6_eltwise"
}
layer {
  name: "block3_s1_7_conv1"
  type: "Convolution"
  bottom: "block3_s1_6_eltwise"
  top: "block3_s1_7_conv1"
  param {
    lr_mult: 1
    decay_mult: 1
  }
  param {
    lr_mult: 1
    decay_mult: 0
  }
  convolution_param {
    num_output: 136
    pad: 0
    kernel_size: 1
    group: 4
    stride: 1
    weight_filler {
      type: "gaussian"
      std: 0.01
    }
    bias_filler {
      type: "constant"
      value: 0
    }
  }
}
layer {
  name: "block3_s1_7_conv1_ReLU"
  type: "ReLU"
  bottom: "block3_s1_7_conv1"
  top: "block3_s1_7_conv1"
}
layer {
  name: "shuffle_block3_s1_7"
  type: "ShuffleChannel"
  bottom: "block3_s1_7_conv1"
  top: "shuffle_block3_s1_7"
  shuffle_channel_param {
    group: 4
  }
}
layer {
  name: "block3_s1_7_conv2"
  type: "ConvolutionDepthwise"
  bottom: "shuffle_block3_s1_7"
  top: "block3_s1_7_conv2"
  param {
    lr_mult: 1
    decay_mult: 1
  }
  param {
    lr_mult: 1
    decay_mult: 0
  }
  convolution_param {
    num_output: 136
    pad: 1
    kernel_size: 3
    stride: 1
    weight_filler {
      type: "gaussian"
      std: 0.01
    }
    bias_filler {
      type: "constant"
      value: 0
    }
  }
}
layer {
  name: "block3_s1_7_conv2_ReLU"
  type: "ReLU"
  bottom: "block3_s1_7_conv2"
  top: "block3_s1_7_conv2"
}
layer {
  name: "block3_s1_7_conv3"
  type: "Convolution"
  bottom: "block3_s1_7_conv2"
  top: "block3_s1_7_conv3"
  param {
    lr_mult: 1
    decay_mult: 1
  }
  param {
    lr_mult: 1
    decay_mult: 0
  }
  convolution_param {
    num_output: 544
    pad: 0
    kernel_size: 1
    group: 4
    stride: 1
    weight_filler {
      type: "gaussian"
      std: 0.01
    }
    bias_filler {
      type: "constant"
      value: 0
    }
  }
}
layer {
  name: "block3_s1_7_eltwise"
  type: "Eltwise"
  bottom: "block3_s1_6_eltwise"
  bottom: "block3_s1_7_conv3"
  top: "block3_s1_7_eltwise"
  eltwise_param {
    operation: SUM
  }
}
layer {
  name: "block3_s1_7_eltwise_ReLU"
  type: "ReLU"
  bottom: "block3_s1_7_eltwise"
  top: "block3_s1_7_eltwise"
}
layer {
  name: "block4_s2_pool"
  type: "Pooling"
  bottom: "block3_s1_7_eltwise"
  top: "block4_s2_pool"
  pooling_param {
    pool: MAX
    kernel_size: 3
    stride: 2
  }
}
layer {
  name: "block4_s2_conv1"
  type: "Convolution"
  bottom: "block3_s1_7_eltwise"
  top: "block4_s2_conv1"
  param {
    lr_mult: 1
    decay_mult: 1
  }
  param {
    lr_mult: 1
    decay_mult: 0
  }
  convolution_param {
    num_output: 136
    pad: 0
    kernel_size: 1
    group: 4
    stride: 1
    weight_filler {
      type: "gaussian"
      std: 0.01
    }
    bias_filler {
…
I0808 21:30:17.350793 18675 net.cpp:395] block3_s1_3_conv1_ReLU -> block3_s1_3_conv1 (in-place)
I0808 21:30:17.351546 18675 net.cpp:150] Setting up block3_s1_3_conv1_ReLU
I0808 21:30:17.351564 18675 net.cpp:157] Top shape: 20 136 16 16 (696320)
I0808 21:30:17.351572 18675 net.cpp:165] Memory required for data: 922583120
I0808 21:30:17.351588 18675 layer_factory.hpp:77] Creating layer shuffle_block3_s1_3
I0808 21:30:17.351603 18675 net.cpp:100] Creating Layer shuffle_block3_s1_3
I0808 21:30:17.351621 18675 net.cpp:434] shuffle_block3_s1_3 <- block3_s1_3_conv1
I0808 21:30:17.351629 18675 net.cpp:408] shuffle_block3_s1_3 -> shuffle_block3_s1_3
I0808 21:30:17.351667 18675 net.cpp:150] Setting up shuffle_block3_s1_3
I0808 21:30:17.351678 18675 net.cpp:157] Top shape: 20 136 16 16 (696320)
I0808 21:30:17.351683 18675 net.cpp:165] Memory required for data: 925368400
I0808 21:30:17.351689 18675 layer_factory.hpp:77] Creating layer block3_s1_3_conv2
I0808 21:30:17.351698 18675 net.cpp:100] Creating Layer block3_s1_3_conv2
I0808 21:30:17.351704 18675 net.cpp:434] block3_s1_3_conv2 <- shuffle_block3_s1_3
I0808 21:30:17.351713 18675 net.cpp:408] block3_s1_3_conv2 -> block3_s1_3_conv2
I0808 21:30:17.351969 18675 net.cpp:150] Setting up block3_s1_3_conv2
I0808 21:30:17.351984 18675 net.cpp:157] Top shape: 20 136 16 16 (696320)
I0808 21:30:17.351989 18675 net.cpp:165] Memory required for data: 928153680
I0808 21:30:17.351997 18675 layer_factory.hpp:77] Creating layer block3_s1_3_conv2_ReLU
I0808 21:30:17.352005 18675 net.cpp:100] Creating Layer block3_s1_3_conv2_ReLU
I0808 21:30:17.352010 18675 net.cpp:434] block3_s1_3_conv2_ReLU <- block3_s1_3_conv2
I0808 21:30:17.352017 18675 net.cpp:395] block3_s1_3_conv2_ReLU -> block3_s1_3_conv2 (in-place)
I0808 21:30:17.352784 18675 net.cpp:150] Setting up block3_s1_3_conv2_ReLU
I0808 21:30:17.352818 18675 net.cpp:157] Top shape: 20 136 16 16 (696320)
I0808 21:30:17.352823 18675 net.cpp:165] Memory required for data: 930938960
I0808 21:30:17.352829 18675 layer_factory.hpp:77] Creating layer block3_s1_3_conv3
I0808 21:30:17.352843 18675 net.cpp:100] Creating Layer block3_s1_3_conv3
I0808 21:30:17.352849 18675 net.cpp:434] block3_s1_3_conv3 <- block3_s1_3_conv2
I0808 21:30:17.352859 18675 net.cpp:408] block3_s1_3_conv3 -> block3_s1_3_conv3
I0808 21:30:17.357316 18675 net.cpp:150] Setting up block3_s1_3_conv3
I0808 21:30:17.357353 18675 net.cpp:157] Top shape: 20 544 16 16 (2785280)
I0808 21:30:17.357359 18675 net.cpp:165] Memory required for data: 942080080
I0808 21:30:17.357383 18675 layer_factory.hpp:77] Creating layer block3_s1_3_eltwise
I0808 21:30:17.357393 18675 net.cpp:100] Creating Layer block3_s1_3_eltwise
I0808 21:30:17.357399 18675 net.cpp:434] block3_s1_3_eltwise <- block3_s1_2_eltwise_block3_s1_2_eltwise_ReLU_0_split_1
I0808 21:30:17.357406 18675 net.cpp:434] block3_s1_3_eltwise <- block3_s1_3_conv3
I0808 21:30:17.357414 18675 net.cpp:408] block3_s1_3_eltwise -> block3_s1_3_eltwise
I0808 21:30:17.357446 18675 net.cpp:150] Setting up block3_s1_3_eltwise
I0808 21:30:17.357472 18675 net.cpp:157] Top shape: 20 544 16 16 (2785280)
I0808 21:30:17.357477 18675 net.cpp:165] Memory required for data: 953221200
I0808 21:30:17.357482 18675 layer_factory.hpp:77] Creating layer block3_s1_3_eltwise_ReLU
I0808 21:30:17.357491 18675 net.cpp:100] Creating Layer block3_s1_3_eltwise_ReLU
I0808 21:30:17.357497 18675 net.cpp:434] block3_s1_3_eltwise_ReLU <- block3_s1_3_eltwise
I0808 21:30:17.357503 18675 net.cpp:395] block3_s1_3_eltwise_ReLU -> block3_s1_3_eltwise (in-place)
I0808 21:30:17.358304 18675 net.cpp:150] Setting up block3_s1_3_eltwise_ReLU
I0808 21:30:17.358322 18675 net.cpp:157] Top shape: 20 544 16 16 (2785280)
I0808 21:30:17.358328 18675 net.cpp:165] Memory required for data: 964362320
I0808 21:30:17.358335 18675 layer_factory.hpp:77] Creating layer block3_s1_3_eltwise_block3_s1_3_eltwise_ReLU_0_split
I0808 21:30:17.358342 18675 net.cpp:100] Creating Layer block3_s1_3_eltwise_block3_s1_3_eltwise_ReLU_0_split
I0808 21:30:17.358350 18675 net.cpp:434] block3_s1_3_eltwise_block3_s1_3_eltwise_ReLU_0_split <- block3_s1_3_eltwise
I0808 21:30:17.358356 18675 net.cpp:408] block3_s1_3_eltwise_block3_s1_3_eltwise_ReLU_0_split -> block3_s1_3_eltwise_block3_s1_3_eltwise_ReLU_0_split_0
I0808 21:30:17.358366 18675 net.cpp:408] block3_s1_3_eltwise_block3_s1_3_eltwise_ReLU_0_split -> block3_s1_3_eltwise_block3_s1_3_eltwise_ReLU_0_split_1
I0808 21:30:17.358445 18675 net.cpp:150] Setting up block3_s1_3_eltwise_block3_s1_3_eltwise_ReLU_0_split
I0808 21:30:17.358456 18675 net.cpp:157] Top shape: 20 544 16 16 (2785280)
I0808 21:30:17.358464 18675 net.cpp:157] Top shape: 20 544 16 16 (2785280)
I0808 21:30:17.358469 18675 net.cpp:165] Memory required for data: 986644560
I0808 21:30:17.358474 18675 layer_factory.hpp:77] Creating layer block3_s1_4_conv1
I0808 21:30:17.358487 18675 net.cpp:100] Creating Layer block3_s1_4_conv1
I0808 21:30:17.358503 18675 net.cpp:434] block3_s1_4_conv1 <- block3_s1_3_eltwise_block3_s1_3_eltwise_ReLU_0_split_0
I0808 21:30:17.358511 18675 net.cpp:408] block3_s1_4_conv1 -> block3_s1_4_conv1
I0808 21:30:17.362922 18675 net.cpp:150] Setting up block3_s1_4_conv1
I0808 21:30:17.362958 18675 net.cpp:157] Top shape: 20 136 16 16 (696320)
I0808 21:30:17.362964 18675 net.cpp:165] Memory required for data: 989429840
I0808 21:30:17.362973 18675 layer_factory.hpp:77] Creating layer block3_s1_4_conv1_ReLU
I0808 21:30:17.362982 18675 net.cpp:100] Creating Layer block3_s1_4_conv1_ReLU
I0808 21:30:17.362988 18675 net.cpp:434] block3_s1_4_conv1_ReLU <- block3_s1_4_conv1
I0808 21:30:17.362996 18675 net.cpp:395] block3_s1_4_conv1_ReLU -> block3_s1_4_conv1 (in-place)
I0808 21:30:17.363178 18675 net.cpp:150] Setting up block3_s1_4_conv1_ReLU
I0808 21:30:17.363193 18675 net.cpp:157] Top shape: 20 136 16 16 (696320)
I0808 21:30:17.363199 18675 net.cpp:165] Memory required for data: 992215120
I0808 21:30:17.363204 18675 layer_factory.hpp:77] Creating layer shuffle_block3_s1_4
I0808 21:30:17.363212 18675 net.cpp:100] Creating Layer shuffle_block3_s1_4
I0808 21:30:17.363219 18675 net.cpp:434] shuffle_block3_s1_4 <- block3_s1_4_conv1
I0808 21:30:17.363227 18675 net.cpp:408] shuffle_block3_s1_4 -> shuffle_block3_s1_4
I0808 21:30:17.363260 18675 net.cpp:150] Setting up shuffle_block3_s1_4
I0808 21:30:17.363271 18675 net.cpp:157] Top shape: 20 136 16 16 (696320)
I0808 21:30:17.363277 18675 net.cpp:165] Memory required for data: 995000400
I0808 21:30:17.363282 18675 layer_factory.hpp:77] Creating layer block3_s1_4_conv2
I0808 21:30:17.363292 18675 net.cpp:100] Creating Layer block3_s1_4_conv2
I0808 21:30:17.363298 18675 net.cpp:434] block3_s1_4_conv2 <- shuffle_block3_s1_4
I0808 21:30:17.363306 18675 net.cpp:408] block3_s1_4_conv2 -> block3_s1_4_conv2
I0808 21:30:17.363564 18675 net.cpp:150] Setting up block3_s1_4_conv2
I0808 21:30:17.363579 18675 net.cpp:157] Top shape: 20 136 16 16 (696320)
I0808 21:30:17.363586 18675 net.cpp:165] Memory required for data: 997785680
I0808 21:30:17.363593 18675 layer_factory.hpp:77] Creating layer block3_s1_4_conv2_ReLU
I0808 21:30:17.363602 18675 net.cpp:100] Creating Layer block3_s1_4_conv2_ReLU
I0808 21:30:17.363607 18675 net.cpp:434] block3_s1_4_conv2_ReLU <- block3_s1_4_conv2
I0808 21:30:17.363616 18675 net.cpp:395] block3_s1_4_conv2_ReLU -> block3_s1_4_conv2 (in-place)
I0808 21:30:17.364459 18675 net.cpp:150] Setting up block3_s1_4_conv2_ReLU
I0808 21:30:17.364492 18675 net.cpp:157] Top shape: 20 136 16 16 (696320)
I0808 21:30:17.364498 18675 net.cpp:165] Memory required for data: 1000570960
I0808 21:30:17.364504 18675 layer_factory.hpp:77] Creating layer block3_s1_4_conv3
I0808 21:30:17.364517 18675 net.cpp:100] Creating Layer block3_s1_4_conv3
I0808 21:30:17.364524 18675 net.cpp:434] block3_s1_4_conv3 <- block3_s1_4_conv2
I0808 21:30:17.364534 18675 net.cpp:408] block3_s1_4_conv3 -> block3_s1_4_conv3
I0808 21:30:17.368944 18675 net.cpp:150] Setting up block3_s1_4_conv3
I0808 21:30:17.368980 18675 net.cpp:157] Top shape: 20 544 16 16 (2785280)
I0808 21:30:17.368986 18675 net.cpp:165] Memory required for data: 1011712080
I0808 21:30:17.368994 18675 layer_factory.hpp:77] Creating layer block3_s1_4_eltwise
I0808 21:30:17.369004 18675 net.cpp:100] Creating Layer block3_s1_4_eltwise
I0808 21:30:17.369009 18675 net.cpp:434] block3_s1_4_eltwise <- block3_s1_3_eltwise_block3_s1_3_eltwise_ReLU_0_split_1
I0808 21:30:17.369016 18675 net.cpp:434] block3_s1_4_eltwise <- block3_s1_4_conv3
I0808 21:30:17.369025 18675 net.cpp:408] block3_s1_4_eltwise -> block3_s1_4_eltwise
I0808 21:30:17.369091 18675 net.cpp:150] Setting up block3_s1_4_eltwise
I0808 21:30:17.369105 18675 net.cpp:157] Top shape: 20 544 16 16 (2785280)
I0808 21:30:17.369112 18675 net.cpp:165] Memory required for data: 1022853200
I0808 21:30:17.369117 18675 layer_factory.hpp:77] Creating layer block3_s1_4_eltwise_ReLU
I0808 21:30:17.369124 18675 net.cpp:100] Creating Layer block3_s1_4_eltwise_ReLU
I0808 21:30:17.369132 18675 net.cpp:434] block3_s1_4_eltwise_ReLU <- block3_s1_4_eltwise
I0808 21:30:17.369138 18675 net.cpp:395] block3_s1_4_eltwise_ReLU -> block3_s1_4_eltwise (in-place)
I0808 21:30:17.369948 18675 net.cpp:150] Setting up block3_s1_4_eltwise_ReLU
I0808 21:30:17.369982 18675 net.cpp:157] Top shape: 20 544 16 16 (2785280)
I0808 21:30:17.369987 18675 net.cpp:165] Memory required for data: 1033994320
I0808 21:30:17.369993 18675 layer_factory.hpp:77] Creating layer block3_s1_4_eltwise_block3_s1_4_eltwise_ReLU_0_split
I0808 21:30:17.370002 18675 net.cpp:100] Creating Layer block3_s1_4_eltwise_block3_s1_4_eltwise_ReLU_0_split
I0808 21:30:17.370007 18675 net.cpp:434] block3_s1_4_eltwise_block3_s1_4_eltwise_ReLU_0_split <- block3_s1_4_eltwise
I0808 21:30:17.370018 18675 net.cpp:408] block3_s1_4_eltwise_block3_s1_4_eltwise_ReLU_0_split -> block3_s1_4_eltwise_block3_s1_4_eltwise_ReLU_0_split_0
I0808 21:30:17.370025 18675 net.cpp:408] block3_s1_4_eltwise_block3_s1_4_eltwise_ReLU_0_split -> block3_s1_4_eltwise_block3_s1_4_eltwise_ReLU_0_split_1
I0808 21:30:17.370081 18675 net.cpp:150] Setting up block3_s1_4_eltwise_block3_s1_4_eltwise_ReLU_0_split
I0808 21:30:17.370093 18675 net.cpp:157] Top shape: 20 544 16 16 (2785280)
I0808 21:30:17.370100 18675 net.cpp:157] Top shape: 20 544 16 16 (2785280)
I0808 21:30:17.370105 18675 net.cpp:165] Memory required for data: 1056276560
I0808 21:30:17.370110 18675 layer_factory.hpp:77] Creating layer block3_s1_5_conv1
I0808 21:30:17.370122 18675 net.cpp:100] Creating Layer block3_s1_5_conv1
I0808 21:30:17.370141 18675 net.cpp:434] block3_s1_5_conv1 <- block3_s1_4_eltwise_block3_s1_4_eltwise_ReLU_0_split_0
I0808 21:30:17.370149 18675 net.cpp:408] block3_s1_5_conv1 -> block3_s1_5_conv1
I0808 21:30:17.379495 18675 net.cpp:150] Setting up block3_s1_5_conv1
I0808 21:30:17.379568 18675 net.cpp:157] Top shape: 20 136 16 16 (696320)
I0808 21:30:17.379586 18675 net.cpp:165] Memory required for data: 1059061840
I0808 21:30:17.379612 18675 layer_factory.hpp:77] Creating layer block3_s1_5_conv1_ReLU
I0808 21:30:17.379645 18675 net.cpp:100] Creating Layer block3_s1_5_conv1_ReLU
I0808 21:30:17.379691 18675 net.cpp:434] block3_s1_5_conv1_ReLU <- block3_s1_5_conv1
I0808 21:30:17.379725 18675 net.cpp:395] block3_s1_5_conv1_ReLU -> block3_s1_5_conv1 (in-place)
I0808 21:30:17.380298 18675 net.cpp:150] Setting up block3_s1_5_conv1_ReLU
I0808 21:30:17.380323 18675 net.cpp:157] Top shape: 20 136 16 16 (696320)
I0808 21:30:17.380332 18675 net.cpp:165] Memory required for data: 1061847120
I0808 21:30:17.380342 18675 layer_factory.hpp:77] Creating layer shuffle_block3_s1_5
I0808 21:30:17.380355 18675 net.cpp:100] Creating Layer shuffle_block3_s1_5
I0808 21:30:17.380364 18675 net.cpp:434] shuffle_block3_s1_5 <- block3_s1_5_conv1
I0808 21:30:17.380376 18675 net.cpp:408] shuffle_block3_s1_5 -> shuffle_block3_s1_5
I0808 21:30:17.380456 18675 net.cpp:150] Setting up shuffle_block3_s1_5
I0808 21:30:17.380470 18675 net.cpp:157] Top shape: 20 136 16 16 (696320)
I0808 21:30:17.380478 18675 net.cpp:165] Memory required for data: 1064632400
I0808 21:30:17.380486 18675 layer_factory.hpp:77] Creating layer block3_s1_5_conv2
I0808 21:30:17.380504 18675 net.cpp:100] Creating Layer block3_s1_5_conv2
I0808 21:30:17.380513 18675 net.cpp:434] block3_s1_5_conv2 <- shuffle_block3_s1_5
I0808 21:30:17.380525 18675 net.cpp:408] block3_s1_5_conv2 -> block3_s1_5_conv2
I0808 21:30:17.381182 18675 net.cpp:150] Setting up block3_s1_5_conv2
I0808 21:30:17.381203 18675 net.cpp:157] Top shape: 20 136 16 16 (696320)
I0808 21:30:17.381211 18675 net.cpp:165] Memory required for data: 1067417680
I0808 21:30:17.381249 18675 layer_factory.hpp:77] Creating layer block3_s1_5_conv2_ReLU
I0808 21:30:17.381264 18675 net.cpp:100] Creating Layer block3_s1_5_conv2_ReLU
I0808 21:30:17.381273 18675 net.cpp:434] block3_s1_5_conv2_ReLU <- block3_s1_5_conv2
I0808 21:30:17.381289 18675 net.cpp:395] block3_s1_5_conv2_ReLU -> block3_s1_5_conv2 (in-place)
I0808 21:30:17.384326 18675 net.cpp:150] Setting up block3_s1_5_conv2_ReLU
I0808 21:30:17.384351 18675 net.cpp:157] Top shape: 20 136 16 16 (696320)
I0808 21:30:17.384361 18675 net.cpp:165] Memory required for data: 1070202960
I0808 21:30:17.384368 18675 layer_factory.hpp:77] Creating layer block3_s1_5_conv3
I0808 21:30:17.384390 18675 net.cpp:100] Creating Layer block3_s1_5_conv3
I0808 21:30:17.384400 18675 net.cpp:434] block3_s1_5_conv3 <- block3_s1_5_conv2
I0808 21:30:17.384418 18675 net.cpp:408] block3_s1_5_conv3 -> block3_s1_5_conv3
I0808 21:30:17.394791 18675 net.cpp:150] Setting up block3_s1_5_conv3
I0808 21:30:17.394836 18675 net.cpp:157] Top shape: 20 544 16 16 (2785280)
I0808 21:30:17.394850 18675 net.cpp:165] Memory required for data: 1081344080
I0808 21:30:17.394870 18675 layer_factory.hpp:77] Creating layer block3_s1_5_eltwise
I0808 21:30:17.394891 18675 net.cpp:100] Creating Layer block3_s1_5_eltwise
I0808 21:30:17.394906 18675 net.cpp:434] block3_s1_5_eltwise <- block3_s1_4_eltwise_block3_s1_4_eltwise_ReLU_0_split_1
I0808 21:30:17.394922 18675 net.cpp:434] block3_s1_5_eltwise <- block3_s1_5_conv3
I0808 21:30:17.394938 18675 net.cpp:408] block3_s1_5_eltwise -> block3_s1_5_eltwise
I0808 21:30:17.395023 18675 net.cpp:150] Setting up block3_s1_5_eltwise
I0808 21:30:17.395043 18675 net.cpp:157] Top shape: 20 544 16 16 (2785280)
I0808 21:30:17.395054 18675 net.cpp:165] Memory required for data: 1092485200
I0808 21:30:17.395066 18675 layer_factory.hpp:77] Creating layer block3_s1_5_eltwise_ReLU
I0808 21:30:17.395084 18675 net.cpp:100] Creating Layer block3_s1_5_eltwise_ReLU
I0808 21:30:17.395107 18675 net.cpp:434] block3_s1_5_eltwise_ReLU <- block3_s1_5_eltwise
I0808 21:30:17.395134 18675 net.cpp:395] block3_s1_5_eltwise_ReLU -> block3_s1_5_eltwise (in-place)
I0808 21:30:17.396814 18675 net.cpp:150] Setting up block3_s1_5_eltwise_ReLU
I0808 21:30:17.396852 18675 net.cpp:157] Top shape: 20 544 16 16 (2785280)
I0808 21:30:17.396865 18675 net.cpp:165] Memory required for data: 1103626320
I0808 21:30:17.396878 18675 layer_factory.hpp:77] Creating layer block3_s1_5_eltwise_block3_s1_5_eltwise_ReLU_0_split
I0808 21:30:17.396895 18675 net.cpp:100] Creating Layer block3_s1_5_eltwise_block3_s1_5_eltwise_ReLU_0_split
I0808 21:30:17.396908 18675 net.cpp:434] block3_s1_5_eltwise_block3_s1_5_eltwise_ReLU_0_split <- block3_s1_5_eltwise
I0808 21:30:17.396927 18675 net.cpp:408] block3_s1_5_eltwise_block3_s1_5_eltwise_ReLU_0_split -> block3_s1_5_eltwise_block3_s1_5_eltwise_ReLU_0_split_0
I0808 21:30:17.396962 18675 net.cpp:408] block3_s1_5_eltwise_block3_s1_5_eltwise_ReLU_0_split -> block3_s1_5_eltwise_block3_s1_5_eltwise_ReLU_0_split_1
I0808 21:30:17.397099 18675 net.cpp:150] Setting up block3_s1_5_eltwise_block3_s1_5_eltwise_ReLU_0_split
I0808 21:30:17.397120 18675 net.cpp:157] Top shape: 20 544 16 16 (2785280)
I0808 21:30:17.397135 18675 net.cpp:157] Top shape: 20 544 16 16 (2785280)
I0808 21:30:17.397145 18675 net.cpp:165] Memory required for data: 1125908560
I0808 21:30:17.397158 18675 layer_factory.hpp:77] Creating layer block3_s1_6_conv1
I0808 21:30:17.397186 18675 net.cpp:100] Creating Layer block3_s1_6_conv1
I0808 21:30:17.397202 18675 net.cpp:434] block3_s1_6_conv1 <- block3_s1_5_eltwise_block3_s1_5_eltwise_ReLU_0_split_0
I0808 21:30:17.397219 18675 net.cpp:408] block3_s1_6_conv1 -> block3_s1_6_conv1
I0808 21:30:17.406841 18675 net.cpp:150] Setting up block3_s1_6_conv1
I0808 21:30:17.406880 18675 net.cpp:157] Top shape: 20 136 16 16 (696320)
I0808 21:30:17.406893 18675 net.cpp:165] Memory required for data: 1128693840
I0808 21:30:17.406910 18675 layer_factory.hpp:77] Creating layer block3_s1_6_conv1_ReLU
I0808 21:30:17.406930 18675 net.cpp:100] Creating Layer block3_s1_6_conv1_ReLU
I0808 21:30:17.406976 18675 net.cpp:434] block3_s1_6_conv1_ReLU <- block3_s1_6_conv1
I0808 21:30:17.407003 18675 net.cpp:395] block3_s1_6_conv1_ReLU -> block3_s1_6_conv1 (in-place)
I0808 21:30:17.407392 18675 net.cpp:150] Setting up block3_s1_6_conv1_ReLU
I0808 21:30:17.407418 18675 net.cpp:157] Top shape: 20 136 16 16 (696320)
I0808 21:30:17.407429 18675 net.cpp:165] Memory required for data: 1131479120
I0808 21:30:17.407441 18675 layer_factory.hpp:77] Creating layer shuffle_block3_s1_6
I0808 21:30:17.407456 18675 net.cpp:100] Creating Layer shuffle_block3_s1_6
I0808 21:30:17.407469 18675 net.cpp:434] shuffle_block3_s1_6 <- block3_s1_6_conv1
I0808 21:30:17.407486 18675 net.cpp:408] shuffle_block3_s1_6 -> shuffle_block3_s1_6
I0808 21:30:17.407547 18675 net.cpp:150] Setting up shuffle_block3_s1_6
I0808 21:30:17.407567 18675 net.cpp:157] Top shape: 20 136 16 16 (696320)
I0808 21:30:17.407578 18675 net.cpp:165] Memory required for data: 1134264400
I0808 21:30:17.407589 18675 layer_factory.hpp:77] Creating layer block3_s1_6_conv2
I0808 21:30:17.407624 18675 net.cpp:100] Creating Layer block3_s1_6_conv2
I0808 21:30:17.407637 18675 net.cpp:434] block3_s1_6_conv2 <- shuffle_block3_s1_6
I0808 21:30:17.407656 18675 net.cpp:408] block3_s1_6_conv2 -> block3_s1_6_conv2
I0808 21:30:17.408190 18675 net.cpp:150] Setting up block3_s1_6_conv2
I0808 21:30:17.408216 18675 net.cpp:157] Top shape: 20 136 16 16 (696320)
I0808 21:30:17.408227 18675 net.cpp:165] Memory required for data: 1137049680
I0808 21:30:17.408258 18675 layer_factory.hpp:77] Creating layer block3_s1_6_conv2_ReLU
I0808 21:30:17.408277 18675 net.cpp:100] Creating Layer block3_s1_6_conv2_ReLU
I0808 21:30:17.408290 18675 net.cpp:434] block3_s1_6_conv2_ReLU <- block3_s1_6_conv2
I0808 21:30:17.408305 18675 net.cpp:395] block3_s1_6_conv2_ReLU -> block3_s1_6_conv2 (in-place)
I0808 21:30:17.409847 18675 net.cpp:150] Setting up block3_s1_6_conv2_ReLU
I0808 21:30:17.409883 18675 net.cpp:157] Top shape: 20 136 16 16 (696320)
I0808 21:30:17.409895 18675 net.cpp:165] Memory required for data: 1139834960
I0808 21:30:17.409907 18675 layer_factory.hpp:77] Creating layer block3_s1_6_conv3
I0808 21:30:17.409932 18675 net.cpp:100] Creating Layer block3_s1_6_conv3
I0808 21:30:17.409945 18675 net.cpp:434] block3_s1_6_conv3 <- block3_s1_6_conv2
I0808 21:30:17.409970 18675 net.cpp:408] block3_s1_6_conv3 -> block3_s1_6_conv3
I0808 21:30:17.418987 18675 net.cpp:150] Setting up block3_s1_6_conv3
I0808 21:30:17.419026 18675 net.cpp:157] Top shape: 20 544 16 16 (2785280)
I0808 21:30:17.419039 18675 net.cpp:165] Memory required for data: 1150976080
I0808 21:30:17.419054 18675 layer_factory.hpp:77] Creating layer block3_s1_6_eltwise
I0808 21:30:17.419075 18675 net.cpp:100] Creating Layer block3_s1_6_eltwise
I0808 21:30:17.419086 18675 net.cpp:434] block3_s1_6_eltwise <- block3_s1_5_eltwise_block3_s1_5_eltwise_ReLU_0_split_1
I0808 21:30:17.419101 18675 net.cpp:434] block3_s1_6_eltwise <- block3_s1_6_conv3
I0808 21:30:17.419116 18675 net.cpp:408] block3_s1_6_eltwise -> block3_s1_6_eltwise
I0808 21:30:17.419174 18675 net.cpp:150] Setting up block3_s1_6_eltwise
I0808 21:30:17.419193 18675 net.cpp:157] Top shape: 20 544 16 16 (2785280)
I0808 21:30:17.419203 18675 net.cpp:165] Memory required for data: 1162117200
I0808 21:30:17.419214 18675 layer_factory.hpp:77] Creating layer block3_s1_6_eltwise_ReLU
I0808 21:30:17.419231 18675 net.cpp:100] Creating Layer block3_s1_6_eltwise_ReLU
I0808 21:30:17.419250 18675 net.cpp:434] block3_s1_6_eltwise_ReLU <- block3_s1_6_eltwise
I0808 21:30:17.419263 18675 net.cpp:395] block3_s1_6_eltwise_ReLU -> block3_s1_6_eltwise (in-place)
I0808 21:30:17.420742 18675 net.cpp:150] Setting up block3_s1_6_eltwise_ReLU
I0808 21:30:17.420778 18675 net.cpp:157] Top shape: 20 544 16 16 (2785280)
I0808 21:30:17.420789 18675 net.cpp:165] Memory required for data: 1173258320
I0808 21:30:17.420799 18675 layer_factory.hpp:77] Creating layer block3_s1_6_eltwise_block3_s1_6_eltwise_ReLU_0_split
I0808 21:30:17.420814 18675 net.cpp:100] Creating Layer block3_s1_6_eltwise_block3_s1_6_eltwise_ReLU_0_split
I0808 21:30:17.420845 18675 net.cpp:434] block3_s1_6_eltwise_block3_s1_6_eltwise_ReLU_0_split <- block3_s1_6_eltwise
I0808 21:30:17.420862 18675 net.cpp:408] block3_s1_6_eltwise_block3_s1_6_eltwise_ReLU_0_split -> block3_s1_6_eltwise_block3_s1_6_eltwise_ReLU_0_split_0
I0808 21:30:17.420895 18675 net.cpp:408] block3_s1_6_eltwise_block3_s1_6_eltwise_ReLU_0_split -> block3_s1_6_eltwise_block3_s1_6_eltwise_ReLU_0_split_1
I0808 21:30:17.421010 18675 net.cpp:150] Setting up block3_s1_6_eltwise_block3_s1_6_eltwise_ReLU_0_split
I0808 21:30:17.421028 18675 net.cpp:157] Top shape: 20 544 16 16 (2785280)
I0808 21:30:17.421041 18675 net.cpp:157] Top shape: 20 544 16 16 (2785280)
I0808 21:30:17.421051 18675 net.cpp:165] Memory required for data: 1195540560
I0808 21:30:17.421072 18675 layer_factory.hpp:77] Creating layer block3_s1_7_conv1
I0808 21:30:17.421097 18675 net.cpp:100] Creating Layer block3_s1_7_conv1
I0808 21:30:17.421111 18675 net.cpp:434] block3_s1_7_conv1 <- block3_s1_6_eltwise_block3_s1_6_eltwise_ReLU_0_split_0
I0808 21:30:17.421128 18675 net.cpp:408] block3_s1_7_conv1 -> block3_s1_7_conv1
I0808 21:30:17.431314 18675 net.cpp:150] Setting up block3_s1_7_conv1
I0808 21:30:17.431352 18675 net.cpp:157] Top shape: 20 136 16 16 (696320)
I0808 21:30:17.431363 18675 net.cpp:165] Memory required for data: 1198325840
I0808 21:30:17.431380 18675 layer_factory.hpp:77] Creating layer block3_s1_7_conv1_ReLU
I0808 21:30:17.431398 18675 net.cpp:100] Creating Layer block3_s1_7_conv1_ReLU
I0808 21:30:17.431411 18675 net.cpp:434] block3_s1_7_conv1_ReLU <- block3_s1_7_conv1
I0808 21:30:17.431422 18675 net.cpp:395] block3_s1_7_conv1_ReLU -> block3_s1_7_conv1 (in-place)
I0808 21:30:17.431768 18675 net.cpp:150] Setting up block3_s1_7_conv1_ReLU
I0808 21:30:17.431793 18675 net.cpp:157] Top shape: 20 136 16 16 (696320)
I0808 21:30:17.431802 18675 net.cpp:165] Memory required for data: 1201111120
I0808 21:30:17.431813 18675 layer_factory.hpp:77] Creating layer shuffle_block3_s1_7
I0808 21:30:17.431826 18675 net.cpp:100] Creating Layer shuffle_block3_s1_7
I0808 21:30:17.431838 18675 net.cpp:434] shuffle_block3_s1_7 <- block3_s1_7_conv1
I0808 21:30:17.431850 18675 net.cpp:408] shuffle_block3_s1_7 -> shuffle_block3_s1_7
I0808 21:30:17.431911 18675 net.cpp:150] Setting up shuffle_block3_s1_7
I0808 21:30:17.431929 18675 net.cpp:157] Top shape: 20 136 16 16 (696320)
I0808 21:30:17.431938 18675 net.cpp:165] Memory required for data: 1203896400
I0808 21:30:17.431949 18675 layer_factory.hpp:77] Creating layer block3_s1_7_conv2
I0808 21:30:17.431968 18675 net.cpp:100] Creating Layer block3_s1_7_conv2
I0808 21:30:17.431983 18675 net.cpp:434] block3_s1_7_conv2 <- shuffle_block3_s1_7
I0808 21:30:17.432000 18675 net.cpp:408] block3_s1_7_conv2 -> block3_s1_7_conv2
I0808 21:30:17.432495 18675 net.cpp:150] Setting up block3_s1_7_conv2
I0808 21:30:17.432520 18675 net.cpp:157] Top shape: 20 136 16 16 (696320)
I0808 21:30:17.432530 18675 net.cpp:165] Memory required for data: 1206681680
I0808 21:30:17.432545 18675 layer_factory.hpp:77] Creating layer block3_s1_7_conv2_ReLU
I0808 21:30:17.432561 18675 net.cpp:100] Creating Layer block3_s1_7_conv2_ReLU
I0808 21:30:17.432572 18675 net.cpp:434] block3_s1_7_conv2_ReLU <- block3_s1_7_conv2
I0808 21:30:17.432585 18675 net.cpp:395] block3_s1_7_conv2_ReLU -> block3_s1_7_conv2 (in-place)
I0808 21:30:17.433970 18675 net.cpp:150] Setting up block3_s1_7_conv2_ReLU
I0808 21:30:17.434005 18675 net.cpp:157] Top shape: 20 136 16 16 (696320)
I0808 21:30:17.434015 18675 net.cpp:165] Memory required for data: 1209466960
I0808 21:30:17.434026 18675 layer_factory.hpp:77] Creating layer block3_s1_7_conv3
I0808 21:30:17.434049 18675 net.cpp:100] Creating Layer block3_s1_7_conv3
I0808 21:30:17.434062 18675 net.cpp:434] block3_s1_7_conv3 <- block3_s1_7_conv2
I0808 21:30:17.434077 18675 net.cpp:408] block3_s1_7_conv3 -> block3_s1_7_conv3
I0808 21:30:17.443222 18675 net.cpp:150] Setting up block3_s1_7_conv3
I0808 21:30:17.443258 18675 net.cpp:157] Top shape: 20 544 16 16 (2785280)
I0808 21:30:17.443267 18675 net.cpp:165] Memory required for data: 1220608080
I0808 21:30:17.443300 18675 layer_factory.hpp:77] Creating layer block3_s1_7_eltwise
I0808 21:30:17.443320 18675 net.cpp:100] Creating Layer block3_s1_7_eltwise
I0808 21:30:17.443331 18675 net.cpp:434] block3_s1_7_eltwise <- block3_s1_6_eltwise_block3_s1_6_eltwise_ReLU_0_split_1
I0808 21:30:17.443344 18675 net.cpp:434] block3_s1_7_eltwise <- block3_s1_7_conv3
I0808 21:30:17.443357 18675 net.cpp:408] block3_s1_7_eltwise -> block3_s1_7_eltwise
I0808 21:30:17.443415 18675 net.cpp:150] Setting up block3_s1_7_eltwise
I0808 21:30:17.443433 18675 net.cpp:157] Top shape: 20 544 16 16 (2785280)
I0808 21:30:17.443442 18675 net.cpp:165] Memory required for data: 1231749200
I0808 21:30:17.443451 18675 layer_factory.hpp:77] Creating layer block3_s1_7_eltwise_ReLU
I0808 21:30:17.443469 18675 net.cpp:100] Creating Layer block3_s1_7_eltwise_ReLU
I0808 21:30:17.443487 18675 net.cpp:434] block3_s1_7_eltwise_ReLU <- block3_s1_7_eltwise
I0808 21:30:17.443498 18675 net.cpp:395] block3_s1_7_eltwise_ReLU -> block3_s1_7_eltwise (in-place)
I0808 21:30:17.444846 18675 net.cpp:150] Setting up block3_s1_7_eltwise_ReLU
I0808 21:30:17.444877 18675 net.cpp:157] Top shape: 20 544 16 16 (2785280)
I0808 21:30:17.444888 18675 net.cpp:165] Memory required for data: 1242890320
I0808 21:30:17.444897 18675 layer_factory.hpp:77] Creating layer block3_s1_7_eltwise_block3_s1_7_eltwise_ReLU_0_split
I0808 21:30:17.444911 18675 net.cpp:100] Creating Layer block3_s1_7_eltwise_block3_s1_7_eltwise_ReLU_0_split
I0808 21:30:17.444923 18675 net.cpp:434] block3_s1_7_eltwise_block3_s1_7_eltwise_ReLU_0_split <- block3_s1_7_eltwise
I0808 21:30:17.444939 18675 net.cpp:408] block3_s1_7_eltwise_block3_s1_7_eltwise_ReLU_0_split -> block3_s1_7_eltwise_block3_s1_7_eltwise_ReLU_0_split_0
I0808 21:30:17.444954 18675 net.cpp:408] block3_s1_7_eltwise_block3_s1_7_eltwise_ReLU_0_split -> block3_s1_7_eltwise_block3_s1_7_eltwise_ReLU_0_split_1
I0808 21:30:17.445086 18675 net.cpp:150] Setting up block3_s1_7_eltwise_block3_s1_7_eltwise_ReLU_0_split
I0808 21:30:17.445104 18675 net.cpp:157] Top shape: 20 544 16 16 (2785280)
I0808 21:30:17.445116 18675 net.cpp:157] Top shape: 20 544 16 16 (2785280)
I0808 21:30:17.445124 18675 net.cpp:165] Memory required for data: 1265172560
I0808 21:30:17.445134 18675 layer_factory.hpp:77] Creating layer block4_s2_pool
I0808 21:30:17.445152 18675 net.cpp:100] Creating Layer block4_s2_pool
I0808 21:30:17.445164 18675 net.cpp:434] block4_s2_pool <- block3_s1_7_eltwise_block3_s1_7_eltwise_ReLU_0_split_0
I0808 21:30:17.445179 18675 net.cpp:408] block4_s2_pool -> block4_s2_pool
I0808 21:30:17.445268 18675 net.cpp:150] Setting up block4_s2_pool
I0808 21:30:17.445297 18675 net.cpp:157] Top shape: 20 544 8 8 (696320)
I0808 21:30:17.445307 18675 net.cpp:165] Memory required for data: 1267957840
I0808 21:30:17.445315 18675 layer_factory.hpp:77] Creating layer block4_s2_conv1
I0808 21:30:17.445336 18675 net.cpp:100] Creating Layer block4_s2_conv1
I0808 21:30:17.445349 18675 net.cpp:434] block4_s2_conv1 <- block3_s1_7_eltwise_block3_s1_7_eltwise_ReLU_0_split_1
I0808 21:30:17.445365 18675 net.cpp:408] block4_s2_conv1 -> block4_s2_conv1
I0808 21:30:17.453189 18675 net.cpp:150] Setting up block4_s2_conv1
I0808 21:30:17.453223 18675 net.cpp:157] Top shape: 20 136 16 16 (696320)
I0808 21:30:17.453234 18675 net.cpp:165] Memory required for data: 1270743120
I0808 21:30:17.453250 18675 layer_factory.hpp:77] Creating layer block4_s2_conv1_ReLU
I0808 21:30:17.453268 18675 net.cpp:100] Creating Layer block4_s2_conv1_ReLU
I0808 21:30:17.453291 18675 net.cpp:434] block4_s2_conv1_ReLU <- block4_s2_conv1
I0808 21:30:17.453305 18675 net.cpp:395] block4_s2_conv1_ReLU -> block4_s2_conv1 (in-place)
I0808 21:30:17.453656 18675 net.cpp:150] Setting up block4_s2_conv1_ReLU
I0808 21:30:17.453678 18675 net.cpp:157] Top shape: 20 136 16 16 (696320)
I0808 21:30:17.453689 18675 net.cpp:165] Memory required for data: 1273528400
I0808 21:30:17.453699 18675 layer_factory.hpp:77] Creating layer shuffle_block4_s2
I0808 21:30:17.453712 18675 net.cpp:100] Creating Layer shuffle_block4_s2
I0808 21:30:17.453737 18675 net.cpp:434] shuffle_block4_s2 <- block4_s2_conv1
I0808 21:30:17.453749 18675 net.cpp:408] shuffle_block4_s2 -> shuffle_block4_s2
I0808 21:30:17.453805 18675 net.cpp:150] Setting up shuffle_block4_s2
I0808 21:30:17.453821 18675 net.cpp:157] Top shape: 20 136 16 16 (696320)
I0808 21:30:17.453830 18675 net.cpp:165] Memory required for data: 1276313680
I0808 21:30:17.453840 18675 layer_factory.hpp:77] Creating layer block4_s2_conv2
I0808 21:30:17.453858 18675 net.cpp:100] Creating Layer block4_s2_conv2
I0808 21:30:17.453871 18675 net.cpp:434] block4_s2_conv2 <- shuffle_block4_s2
I0808 21:30:17.453886 18675 net.cpp:408] block4_s2_conv2 -> block4_s2_conv2
I0808 21:30:17.454351 18675 net.cpp:150] Setting up block4_s2_conv2
I0808 21:30:17.454375 18675 net.cpp:157] Top shape: 20 136 8 8 (174080)
I0808 21:30:17.454385 18675 net.cpp:165] Memory required for data: 1277010000
I0808 21:30:17.454396 18675 layer_factory.hpp:77] Creating layer block4_s2_conv2_ReLU
I0808 21:30:17.454409 18675 net.cpp:100] Creating Layer block4_s2_conv2_ReLU
I0808 21:30:17.454419 18675 net.cpp:434] block4_s2_conv2_ReLU <- block4_s2_conv2
I0808 21:30:17.454433 18675 net.cpp:395] block4_s2_conv2_ReLU -> block4_s2_conv2 (in-place)
I0808 21:30:17.455694 18675 net.cpp:150] Setting up block4_s2_conv2_ReLU
I0808 21:30:17.455725 18675 net.cpp:157] Top shape: 20 136 8 8 (174080)
I0808 21:30:17.455735 18675 net.cpp:165] Memory required for data: 1277706320
I0808 21:30:17.455744 18675 layer_factory.hpp:77] Creating layer block4_s2_conv3
I0808 21:30:17.455765 18675 net.cpp:100] Creating Layer block4_s2_conv3
I0808 21:30:17.455777 18675 net.cpp:434] block4_s2_conv3 <- block4_s2_conv2
I0808 21:30:17.455793 18675 net.cpp:408] block4_s2_conv3 -> block4_s2_conv3
I0808 21:30:17.463330 18675 net.cpp:150] Setting up block4_s2_conv3
I0808 21:30:17.463366 18675 net.cpp:157] Top shape: 20 544 8 8 (696320)
I0808 21:30:17.463376 18675 net.cpp:165] Memory required for data: 1280491600
I0808 21:30:17.463389 18675 layer_factory.hpp:77] Creating layer block4_s2_concat
I0808 21:30:17.463404 18675 net.cpp:100] Creating Layer block4_s2_concat
I0808 21:30:17.463415 18675 net.cpp:434] block4_s2_concat <- block4_s2_pool
I0808 21:30:17.463426 18675 net.cpp:434] block4_s2_concat <- block4_s2_conv3
I0808 21:30:17.463440 18675 net.cpp:408] block4_s2_concat -> block4_s2_concat
I0808 21:30:17.463507 18675 net.cpp:150] Setting up block4_s2_concat
I0808 21:30:17.463526 18675 net.cpp:157] Top shape: 20 1088 8 8 (1392640)
I0808 21:30:17.463534 18675 net.cpp:165] Memory required for data: 1286062160
I0808 21:30:17.463543 18675 layer_factory.hpp:77] Creating layer block4_s2_concat_ReLU
I0808 21:30:17.463555 18675 net.cpp:100] Creating Layer block4_s2_concat_ReLU
I0808 21:30:17.463579 18675 net.cpp:434] block4_s2_concat_ReLU <- block4_s2_concat
I0808 21:30:17.463589 18675 net.cpp:395] block4_s2_concat_ReLU -> block4_s2_concat (in-place)
I0808 21:30:17.464876 18675 net.cpp:150] Setting up block4_s2_concat_ReLU
I0808 21:30:17.464907 18675 net.cpp:157] Top shape: 20 1088 8 8 (1392640)
I0808 21:30:17.464917 18675 net.cpp:165] Memory required for data: 1291632720
I0808 21:30:17.464926 18675 layer_factory.hpp:77] Creating layer block4_s2_concat_block4_s2_concat_ReLU_0_split
I0808 21:30:17.464941 18675 net.cpp:100] Creating Layer block4_s2_concat_block4_s2_concat_ReLU_0_split
I0808 21:30:17.464951 18675 net.cpp:434] block4_s2_concat_block4_s2_concat_ReLU_0_split <- block4_s2_concat
I0808 21:30:17.464967 18675 net.cpp:408] block4_s2_concat_block4_s2_concat_ReLU_0_split -> block4_s2_concat_block4_s2_concat_ReLU_0_split_0
I0808 21:30:17.464980 18675 net.cpp:408] block4_s2_concat_block4_s2_concat_ReLU_0_split -> block4_s2_concat_block4_s2_concat_ReLU_0_split_1
I0808 21:30:17.465088 18675 net.cpp:150] Setting up block4_s2_concat_block4_s2_concat_ReLU_0_split
I0808 21:30:17.465109 18675 net.cpp:157] Top shape: 20 1088 8 8 (1392640)
I0808 21:30:17.465119 18675 net.cpp:157] Top shape: 20 1088 8 8 (1392640)
I0808 21:30:17.465128 18675 net.cpp:165] Memory required for data: 1302773840
I0808 21:30:17.465167 18675 layer_factory.hpp:77] Creating layer block4_s1_1_conv1
I0808 21:30:17.465189 18675 net.cpp:100] Creating Layer block4_s1_1_conv1
I0808 21:30:17.465214 18675 net.cpp:434] block4_s1_1_conv1 <- block4_s2_concat_block4_s2_concat_ReLU_0_split_0
I0808 21:30:17.465240 18675 net.cpp:408] block4_s1_1_conv1 -> block4_s1_1_conv1
I0808 21:30:17.474629 18675 net.cpp:150] Setting up block4_s1_1_conv1
I0808 21:30:17.474663 18675 net.cpp:157] Top shape: 20 272 8 8 (348160)
I0808 21:30:17.474673 18675 net.cpp:165] Memory required for data: 1304166480
I0808 21:30:17.474685 18675 layer_factory.hpp:77] Creating layer block4_s1_1_conv1_ReLU
I0808 21:30:17.474701 18675 net.cpp:100] Creating Layer block4_s1_1_conv1_ReLU
I0808 21:30:17.474712 18675 net.cpp:434] block4_s1_1_conv1_ReLU <- block4_s1_1_conv1
I0808 21:30:17.474725 18675 net.cpp:395] block4_s1_1_conv1_ReLU -> block4_s1_1_conv1 (in-place)
I0808 21:30:17.475016 18675 net.cpp:150] Setting up block4_s1_1_conv1_ReLU
I0808 21:30:17.475039 18675 net.cpp:157] Top shape: 20 272 8 8 (348160)
I0808 21:30:17.475047 18675 net.cpp:165] Memory required for data: 1305559120
I0808 21:30:17.475056 18675 layer_factory.hpp:77] Creating layer shuffle_block4_s1_1
I0808 21:30:17.475080 18675 net.cpp:100] Creating Layer shuffle_block4_s1_1
I0808 21:30:17.475092 18675 net.cpp:434] shuffle_block4_s1_1 <- block4_s1_1_conv1
I0808 21:30:17.475103 18675 net.cpp:408] shuffle_block4_s1_1 -> shuffle_block4_s1_1
I0808 21:30:17.475169 18675 net.cpp:150] Setting up shuffle_block4_s1_1
I0808 21:30:17.475185 18675 net.cpp:157] Top shape: 20 272 8 8 (348160)
I0808 21:30:17.475194 18675 net.cpp:165] Memory required for data: 1306951760
I0808 21:30:17.475203 18675 layer_factory.hpp:77] Creating layer block4_s1_1_conv2
I0808 21:30:17.475236 18675 net.cpp:100] Creating Layer block4_s1_1_conv2
I0808 21:30:17.475250 18675 net.cpp:434] block4_s1_1_conv2 <- shuffle_block4_s1_1
I0808 21:30:17.475263 18675 net.cpp:408] block4_s1_1_conv2 -> block4_s1_1_conv2
I0808 21:30:17.475780 18675 net.cpp:150] Setting up block4_s1_1_conv2
I0808 21:30:17.475805 18675 net.cpp:157] Top shape: 20 272 8 8 (348160)
I0808 21:30:17.475812 18675 net.cpp:165] Memory required for data: 1308344400
I0808 21:30:17.475826 18675 layer_factory.hpp:77] Creating layer block4_s1_1_conv2_ReLU
I0808 21:30:17.475838 18675 net.cpp:100] Creating Layer block4_s1_1_conv2_ReLU
I0808 21:30:17.475848 18675 net.cpp:434] block4_s1_1_conv2_ReLU <- block4_s1_1_conv2
I0808 21:30:17.475858 18675 net.cpp:395] block4_s1_1_conv2_ReLU -> block4_s1_1_conv2 (in-place)
I0808 21:30:17.477135 18675 net.cpp:150] Setting up block4_s1_1_conv2_ReLU
I0808 21:30:17.477165 18675 net.cpp:157] Top shape: 20 272 8 8 (348160)
I0808 21:30:17.477175 18675 net.cpp:165] Memory required for data: 1309737040
I0808 21:30:17.477185 18675 layer_factory.hpp:77] Creating layer block4_s1_1_conv3
I0808 21:30:17.477206 18675 net.cpp:100] Creating Layer block4_s1_1_conv3
I0808 21:30:17.477217 18675 net.cpp:434] block4_s1_1_conv3 <- block4_s1_1_conv2
I0808 21:30:17.477232 18675 net.cpp:408] block4_s1_1_conv3 -> block4_s1_1_conv3
I0808 21:30:17.487221 18675 net.cpp:150] Setting up block4_s1_1_conv3
I0808 21:30:17.487254 18675 net.cpp:157] Top shape: 20 1088 8 8 (1392640)
I0808 21:30:17.487263 18675 net.cpp:165] Memory required for data: 1315307600
I0808 21:30:17.487277 18675 layer_factory.hpp:77] Creating layer block4_s1_1_eltwise
I0808 21:30:17.487293 18675 net.cpp:100] Creating Layer block4_s1_1_eltwise
I0808 21:30:17.487303 18675 net.cpp:434] block4_s1_1_eltwise <- block4_s2_concat_block4_s2_concat_ReLU_0_split_1
I0808 21:30:17.487314 18675 net.cpp:434] block4_s1_1_eltwise <- block4_s1_1_conv3
I0808 21:30:17.487327 18675 net.cpp:408] block4_s1_1_eltwise -> block4_s1_1_eltwise
I0808 21:30:17.487390 18675 net.cpp:150] Setting up block4_s1_1_eltwise
I0808 21:30:17.487406 18675 net.cpp:157] Top shape: 20 1088 8 8 (1392640)
I0808 21:30:17.487414 18675 net.cpp:165] Memory required for data: 1320878160
I0808 21:30:17.487422 18675 layer_factory.hpp:77] Creating layer block4_s1_1_eltwise_ReLU
I0808 21:30:17.487457 18675 net.cpp:100] Creating Layer block4_s1_1_eltwise_ReLU
I0808 21:30:17.487476 18675 net.cpp:434] block4_s1_1_eltwise_ReLU <- block4_s1_1_eltwise
I0808 21:30:17.487486 18675 net.cpp:395] block4_s1_1_eltwise_ReLU -> block4_s1_1_eltwise (in-place)
I0808 21:30:17.488693 18675 net.cpp:150] Setting up block4_s1_1_eltwise_ReLU
I0808 21:30:17.488723 18675 net.cpp:157] Top shape: 20 1088 8 8 (1392640)
I0808 21:30:17.488732 18675 net.cpp:165] Memory required for data: 1326448720
I0808 21:30:17.488740 18675 layer_factory.hpp:77] Creating layer block4_s1_1_eltwise_block4_s1_1_eltwise_ReLU_0_split
I0808 21:30:17.488754 18675 net.cpp:100] Creating Layer block4_s1_1_eltwise_block4_s1_1_eltwise_ReLU_0_split
I0808 21:30:17.488764 18675 net.cpp:434] block4_s1_1_eltwise_block4_s1_1_eltwise_ReLU_0_split <- block4_s1_1_eltwise
I0808 21:30:17.488775 18675 net.cpp:408] block4_s1_1_eltwise_block4_s1_1_eltwise_ReLU_0_split -> block4_s1_1_eltwise_block4_s1_1_eltwise_ReLU_0_split_0
I0808 21:30:17.488791 18675 net.cpp:408] block4_s1_1_eltwise_block4_s1_1_eltwise_ReLU_0_split -> block4_s1_1_eltwise_block4_s1_1_eltwise_ReLU_0_split_1
I0808 21:30:17.488905 18675 net.cpp:150] Setting up block4_s1_1_eltwise_block4_s1_1_eltwise_ReLU_0_split
I0808 21:30:17.488921 18675 net.cpp:157] Top shape: 20 1088 8 8 (1392640)
I0808 21:30:17.488930 18675 net.cpp:157] Top shape: 20 1088 8 8 (1392640)
I0808 21:30:17.488939 18675 net.cpp:165] Memory required for data: 1337589840
I0808 21:30:17.488946 18675 layer_factory.hpp:77] Creating layer block4_s1_2_conv1
I0808 21:30:17.488968 18675 net.cpp:100] Creating Layer block4_s1_2_conv1
I0808 21:30:17.488981 18675 net.cpp:434] block4_s1_2_conv1 <- block4_s1_1_eltwise_block4_s1_1_eltwise_ReLU_0_split_0
I0808 21:30:17.488993 18675 net.cpp:408] block4_s1_2_conv1 -> block4_s1_2_conv1
I0808 21:30:17.497678 18675 net.cpp:150] Setting up block4_s1_2_conv1
I0808 21:30:17.497709 18675 net.cpp:157] Top shape: 20 272 8 8 (348160)
I0808 21:30:17.497717 18675 net.cpp:165] Memory required for data: 1338982480
I0808 21:30:17.497728 18675 layer_factory.hpp:77] Creating layer block4_s1_2_conv1_ReLU
I0808 21:30:17.497741 18675 net.cpp:100] Creating Layer block4_s1_2_conv1_ReLU
I0808 21:30:17.497751 18675 net.cpp:434] block4_s1_2_conv1_ReLU <- block4_s1_2_conv1
I0808 21:30:17.497764 18675 net.cpp:395] block4_s1_2_conv1_ReLU -> block4_s1_2_conv1 (in-place)
I0808 21:30:17.498042 18675 net.cpp:150] Setting up block4_s1_2_conv1_ReLU
I0808 21:30:17.498062 18675 net.cpp:157] Top shape: 20 272 8 8 (348160)
I0808 21:30:17.498070 18675 net.cpp:165] Memory required for data: 1340375120
I0808 21:30:17.498077 18675 layer_factory.hpp:77] Creating layer shuffle_block4_s1_2
I0808 21:30:17.498091 18675 net.cpp:100] Creating Layer shuffle_block4_s1_2
I0808 21:30:17.498100 18675 net.cpp:434] shuffle_block4_s1_2 <- block4_s1_2_conv1
I0808 21:30:17.498111 18675 net.cpp:408] shuffle_block4_s1_2 -> shuffle_block4_s1_2
I0808 21:30:17.498183 18675 net.cpp:150] Setting up shuffle_block4_s1_2
I0808 21:30:17.498198 18675 net.cpp:157] Top shape: 20 272 8 8 (348160)
I0808 21:30:17.498206 18675 net.cpp:165] Memory required for data: 1341767760
I0808 21:30:17.498214 18675 layer_factory.hpp:77] Creating layer block4_s1_2_conv2
I0808 21:30:17.498230 18675 net.cpp:100] Creating Layer block4_s1_2_conv2
I0808 21:30:17.498248 18675 net.cpp:434] block4_s1_2_conv2 <- shuffle_block4_s1_2
I0808 21:30:17.498261 18675 net.cpp:408] block4_s1_2_conv2 -> block4_s1_2_conv2
I0808 21:30:17.498738 18675 net.cpp:150] Setting up block4_s1_2_conv2
I0808 21:30:17.498759 18675 net.cpp:157] Top shape: 20 272 8 8 (348160)
I0808 21:30:17.498767 18675 net.cpp:165] Memory required for data: 1343160400
I0808 21:30:17.498780 18675 layer_factory.hpp:77] Creating layer block4_s1_2_conv2_ReLU
I0808 21:30:17.498790 18675 net.cpp:100] Creating Layer block4_s1_2_conv2_ReLU
I0808 21:30:17.498801 18675 net.cpp:434] block4_s1_2_conv2_ReLU <- block4_s1_2_conv2
I0808 21:30:17.498813 18675 net.cpp:395] block4_s1_2_conv2_ReLU -> block4_s1_2_conv2 (in-place)
I0808 21:30:17.499943 18675 net.cpp:150] Setting up block4_s1_2_conv2_ReLU
I0808 21:30:17.499985 18675 net.cpp:157] Top shape: 20 272 8 8 (348160)
I0808 21:30:17.499994 18675 net.cpp:165] Memory required for data: 1344553040
I0808 21:30:17.500003 18675 layer_factory.hpp:77] Creating layer block4_s1_2_conv3
I0808 21:30:17.500022 18675 net.cpp:100] Creating Layer block4_s1_2_conv3
I0808 21:30:17.500032 18675 net.cpp:434] block4_s1_2_conv3 <- block4_s1_2_conv2
I0808 21:30:17.500047 18675 net.cpp:408] block4_s1_2_conv3 -> block4_s1_2_conv3
I0808 21:30:17.508450 18675 net.cpp:150] Setting up block4_s1_2_conv3
I0808 21:30:17.508481 18675 net.cpp:157] Top shape: 20 1088 8 8 (1392640)
I0808 21:30:17.508488 18675 net.cpp:165] Memory required for data: 1350123600
I0808 21:30:17.508500 18675 layer_factory.hpp:77] Creating layer block4_s1_2_eltwise
I0808 21:30:17.508513 18675 net.cpp:100] Creating Layer block4_s1_2_eltwise
I0808 21:30:17.508522 18675 net.cpp:434] block4_s1_2_eltwise <- block4_s1_1_eltwise_block4_s1_1_eltwise_ReLU_0_split_1
I0808 21:30:17.508534 18675 net.cpp:434] block4_s1_2_eltwise <- block4_s1_2_conv3
I0808 21:30:17.508545 18675 net.cpp:408] block4_s1_2_eltwise -> block4_s1_2_eltwise
I0808 21:30:17.508601 18675 net.cpp:150] Setting up block4_s1_2_eltwise
I0808 21:30:17.508616 18675 net.cpp:157] Top shape: 20 1088 8 8 (1392640)
I0808 21:30:17.508623 18675 net.cpp:165] Memory required for data: 1355694160
I0808 21:30:17.508630 18675 layer_factory.hpp:77] Creating layer block4_s1_2_eltwise_ReLU
I0808 21:30:17.508643 18675 net.cpp:100] Creating Layer block4_s1_2_eltwise_ReLU
I0808 21:30:17.508653 18675 net.cpp:434] block4_s1_2_eltwise_ReLU <- block4_s1_2_eltwise
I0808 21:30:17.508662 18675 net.cpp:395] block4_s1_2_eltwise_ReLU -> block4_s1_2_eltwise (in-place)
I0808 21:30:17.509778 18675 net.cpp:150] Setting up block4_s1_2_eltwise_ReLU
I0808 21:30:17.509805 18675 net.cpp:157] Top shape: 20 1088 8 8 (1392640)
I0808 21:30:17.509814 18675 net.cpp:165] Memory required for data: 1361264720
I0808 21:30:17.509821 18675 layer_factory.hpp:77] Creating layer block4_s1_2_eltwise_block4_s1_2_eltwise_ReLU_0_split
I0808 21:30:17.509834 18675 net.cpp:100] Creating Layer block4_s1_2_eltwise_block4_s1_2_eltwise_ReLU_0_split
I0808 21:30:17.509842 18675 net.cpp:434] block4_s1_2_eltwise_block4_s1_2_eltwise_ReLU_0_split <- block4_s1_2_eltwise
I0808 21:30:17.509856 18675 net.cpp:408] block4_s1_2_eltwise_block4_s1_2_eltwise_ReLU_0_split -> block4_s1_2_eltwise_block4_s1_2_eltwise_ReLU_0_split_0
I0808 21:30:17.509868 18675 net.cpp:408] block4_s1_2_eltwise_block4_s1_2_eltwise_ReLU_0_split -> block4_s1_2_eltwise_block4_s1_2_eltwise_ReLU_0_split_1
I0808 21:30:17.509955 18675 net.cpp:150] Setting up block4_s1_2_eltwise_block4_s1_2_eltwise_ReLU_0_split
I0808 21:30:17.509970 18675 net.cpp:157] Top shape: 20 1088 8 8 (1392640)
I0808 21:30:17.509979 18675 net.cpp:157] Top shape: 20 1088 8 8 (1392640)
I0808 21:30:17.509986 18675 net.cpp:165] Memory required for data: 1372405840
I0808 21:30:17.509994 18675 layer_factory.hpp:77] Creating layer block4_s1_3_conv1
I0808 21:30:17.510013 18675 net.cpp:100] Creating Layer block4_s1_3_conv1
I0808 21:30:17.510031 18675 net.cpp:434] block4_s1_3_conv1 <- block4_s1_2_eltwise_block4_s1_2_eltwise_ReLU_0_split_0
I0808 21:30:17.510042 18675 net.cpp:408] block4_s1_3_conv1 -> block4_s1_3_conv1
I0808 21:30:17.518172 18675 net.cpp:150] Setting up block4_s1_3_conv1
I0808 21:30:17.518203 18675 net.cpp:157] Top shape: 20 272 8 8 (348160)
I0808 21:30:17.518210 18675 net.cpp:165] Memory required for data: 1373798480
I0808 21:30:17.518223 18675 layer_factory.hpp:77] Creating layer block4_s1_3_conv1_ReLU
I0808 21:30:17.518234 18675 net.cpp:100] Creating Layer block4_s1_3_conv1_ReLU
I0808 21:30:17.518244 18675 net.cpp:434] block4_s1_3_conv1_ReLU <- block4_s1_3_conv1
I0808 21:30:17.518255 18675 net.cpp:395] block4_s1_3_conv1_ReLU -> block4_s1_3_conv1 (in-place)
I0808 21:30:17.518509 18675 net.cpp:150] Setting up block4_s1_3_conv1_ReLU
I0808 21:30:17.518528 18675 net.cpp:157] Top shape: 20 272 8 8 (348160)
I0808 21:30:17.518535 18675 net.cpp:165] Memory required for data: 1375191120
I0808 21:30:17.518556 18675 layer_factory.hpp:77] Creating layer shuffle_block4_s1_3
I0808 21:30:17.518575 18675 net.cpp:100] Creating Layer shuffle_block4_s1_3
I0808 21:30:17.518606 18675 net.cpp:434] shuffle_block4_s1_3 <- block4_s1_3_conv1
I0808 21:30:17.518618 18675 net.cpp:408] shuffle_block4_s1_3 -> shuffle_block4_s1_3
I0808 21:30:17.518692 18675 net.cpp:150] Setting up shuffle_block4_s1_3
I0808 21:30:17.518707 18675 net.cpp:157] Top shape: 20 272 8 8 (348160)
I0808 21:30:17.518713 18675 net.cpp:165] Memory required for data: 1376583760
I0808 21:30:17.518720 18675 layer_factory.hpp:77] Creating layer block4_s1_3_conv2
I0808 21:30:17.518734 18675 net.cpp:100] Creating Layer block4_s1_3_conv2
I0808 21:30:17.518754 18675 net.cpp:434] block4_s1_3_conv2 <- shuffle_block4_s1_3
I0808 21:30:17.518766 18675 net.cpp:408] block4_s1_3_conv2 -> block4_s1_3_conv2
I0808 21:30:17.519222 18675 net.cpp:150] Setting up block4_s1_3_conv2
I0808 21:30:17.519243 18675 net.cpp:157] Top shape: 20 272 8 8 (348160)
I0808 21:30:17.519250 18675 net.cpp:165] Memory required for data: 1377976400
I0808 21:30:17.519260 18675 layer_factory.hpp:77] Creating layer block4_s1_3_conv2_ReLU
I0808 21:30:17.519271 18675 net.cpp:100] Creating Layer block4_s1_3_conv2_ReLU
I0808 21:30:17.519279 18675 net.cpp:434] block4_s1_3_conv2_ReLU <- block4_s1_3_conv2
I0808 21:30:17.519291 18675 net.cpp:395] block4_s1_3_conv2_ReLU -> block4_s1_3_conv2 (in-place)
I0808 21:30:17.520344 18675 net.cpp:150] Setting up block4_s1_3_conv2_ReLU
I0808 21:30:17.520370 18675 net.cpp:157] Top shape: 20 272 8 8 (348160)
I0808 21:30:17.520377 18675 net.cpp:165] Memory required for data: 1379369040
I0808 21:30:17.520385 18675 layer_factory.hpp:77] Creating layer block4_s1_3_conv3
I0808 21:30:17.520402 18675 net.cpp:100] Creating Layer block4_s1_3_conv3
I0808 21:30:17.520411 18675 net.cpp:434] block4_s1_3_conv3 <- block4_s1_3_conv2
I0808 21:30:17.520424 18675 net.cpp:408] block4_s1_3_conv3 -> block4_s1_3_conv3
I0808 21:30:17.528388 18675 net.cpp:150] Setting up block4_s1_3_conv3
I0808 21:30:17.528415 18675 net.cpp:157] Top shape: 20 1088 8 8 (1392640)
I0808 21:30:17.528424 18675 net.cpp:165] Memory required for data: 1384939600
I0808 21:30:17.528434 18675 layer_factory.hpp:77] Creating layer block4_s1_3_eltwise
I0808 21:30:17.528450 18675 net.cpp:100] Creating Layer block4_s1_3_eltwise
I0808 21:30:17.528457 18675 net.cpp:434] block4_s1_3_eltwise <- block4_s1_2_eltwise_block4_s1_2_eltwise_ReLU_0_split_1
I0808 21:30:17.528467 18675 net.cpp:434] block4_s1_3_eltwise <- block4_s1_3_conv3
I0808 21:30:17.528476 18675 net.cpp:408] block4_s1_3_eltwise -> block4_s1_3_eltwise
I0808 21:30:17.528532 18675 net.cpp:150] Setting up block4_s1_3_eltwise
I0808 21:30:17.528547 18675 net.cpp:157] Top shape: 20 1088 8 8 (1392640)
I0808 21:30:17.528553 18675 net.cpp:165] Memory required for data: 1390510160
I0808 21:30:17.528560 18675 layer_factory.hpp:77] Creating layer block4_s1_3_eltwise_ReLU
I0808 21:30:17.528569 18675 net.cpp:100] Creating Layer block4_s1_3_eltwise_ReLU
I0808 21:30:17.528578 18675 net.cpp:434] block4_s1_3_eltwise_ReLU <- block4_s1_3_eltwise
I0808 21:30:17.528587 18675 net.cpp:395] block4_s1_3_eltwise_ReLU -> block4_s1_3_eltwise (in-place)
I0808 21:30:17.530341 18675 net.cpp:150] Setting up block4_s1_3_eltwise_ReLU
I0808 21:30:17.530366 18675 net.cpp:157] Top shape: 20 1088 8 8 (1392640)
I0808 21:30:17.530375 18675 net.cpp:165] Memory required for data: 1396080720
I0808 21:30:17.530381 18675 layer_factory.hpp:77] Creating layer fc1
I0808 21:30:17.530397 18675 net.cpp:100] Creating Layer fc1
I0808 21:30:17.530406 18675 net.cpp:434] fc1 <- block4_s1_3_eltwise
I0808 21:30:17.530416 18675 net.cpp:408] fc1 -> fc1
I0808 21:30:17.775672 18675 net.cpp:150] Setting up fc1
I0808 21:30:17.775743 18675 net.cpp:157] Top shape: 20 512 (10240)
I0808 21:30:17.775750 18675 net.cpp:165] Memory required for data: 1396121680
I0808 21:30:17.775765 18675 layer_factory.hpp:77] Creating layer fc2
I0808 21:30:17.775787 18675 net.cpp:100] Creating Layer fc2
I0808 21:30:17.775799 18675 net.cpp:434] fc2 <- fc1
I0808 21:30:17.775845 18675 net.cpp:408] fc2 -> fc2
I0808 21:30:18.045683 18675 net.cpp:150] Setting up fc2
I0808 21:30:18.045739 18675 net.cpp:157] Top shape: 20 76544 (1530880)
I0808 21:30:18.045747 18675 net.cpp:165] Memory required for data: 1402245200
I0808 21:30:18.045763 18675 layer_factory.hpp:77] Creating layer softmax_loss
I0808 21:30:18.045778 18675 net.cpp:100] Creating Layer softmax_loss
I0808 21:30:18.045788 18675 net.cpp:434] softmax_loss <- fc2
I0808 21:30:18.045797 18675 net.cpp:434] softmax_loss <- label
I0808 21:30:18.045810 18675 net.cpp:408] softmax_loss -> softmax_loss
…
